results/tcn/tcn_model.pth (torch, 464364 bytes, 44 tensors)

input_adapter.weight f4 [32, 18, 1]
0	0xbd706a37	-0.058695044
1	0xbe99ecc4	-0.3006345
2	0x3e92bbcb	0.286589
3	0xbf4489a3	-0.76772517
4	0x3e32a0f4	0.17444211
5	0xbe8aeb71	-0.27132753
6	0x3d7c7f58	0.061644882
7	0xbc038f8e	-0.008029832
8	0xbe44b875	-0.1921099
9	0x3ea79380	0.3272972
10	0xbdd388b2	-0.10328807
11	0xbd30dd9d	-0.043180097
12	0x3c996627	0.018725468
13	0xbe18aa67	-0.14908753
14	0xbe4c395f	-0.1994376
15	0xbef85dfd	-0.48509207
16	0x3dd40432	0.10352363
17	0x3d108215	0.035280306
18	0x3e213353	0.15742235
19	0x3d1d5e57	0.038420048
20	0x3cef1141	0.029183032
21	0x3e56526d	0.2092988
22	0xbe978932	-0.2959686
23	0xbf5958c8	-0.84901094
24	0xbe6f5e2f	-0.23375772
25	0x3f2a2da2	0.6647588
26	0xbea23449	-0.31680515
27	0xbe3ff6a4	-0.1874643
28	0x3ed8d0b9	0.42346743
29	0xbeab7c14	-0.33493102
30	0x3ecad3b7	0.3961465
31	0x3e889bfb	0.26681504
32	0x3ed343f0	0.4126277
33	0x3e0deff1	0.13861062
34	0x3e6abd66	0.22923812
35	0xbeba4366	-0.36379546
36	0xbec05580	-0.3756523
37	0xbb075510	-0.0020650066
38	0xbe8c552f	-0.2740874
39	0xbee172e8	-0.4403298
40	0xbfa5f8ed	-1.2966591
41	0x3e015630	0.12630534
42	0xbcc06ac6	-0.023488414
43	0xbec18e12	-0.37803704
44	0xbe56f99d	-0.20993657
45	0xbd60e196	-0.054902636
46	0xbd218169	-0.039430056
47	0xbef8f1d5	-0.48622003
48	0xbf0ba0a2	-0.5454198
49	0xbc8cbd89	-0.017180221
50	0xbe55c29c	-0.20875019
51	0x3e84c320	0.2593012
52	0x3e608cea	0.21928754
53	0xbe49a9bf	-0.19693659
54	0x3d8efd85	0.06981949
55	0x3e96bd0a	0.294411
56	0x3eef7a54	0.46773016
57	0xbf7dbc0b	-0.99115056
58	0x3eed593e	0.4635715
59	0xbcf413df	-0.029794632
60	0xbec9bec5	-0.39403358
61	0xbe059361	-0.13044502
62	0x3e4d33b4	0.20039254
63	0x3e314c87	0.17314349
64	0x3e4d8c4a	0.20073047
65	0x3effb161	0.49940017
66	0xbf0bbaf8	-0.54582167
67	0x3e072bbd	0.13200279
68	0x3e086f43	0.13323693
69	0x3e1416ad	0.14461775
70	0xbe83af88	-0.25719857
71	0x3e813f04	0.2524339
72	0x3ddd98e1	0.10820175
73	0xbee4913e	-0.4464206
74	0x3ec9acef	0.3938975
75	0x3ccfe535	0.02537785
76	0xbea2f3c8	-0.31826615
77	0x3e9a1e05	0.30101028
78	0x3e82cb16	0.25545567
79	0x3d4e6c9e	0.050396554
80	0x3e98e906	0.29865283
81	0xbe22ca97	-0.15897594
82	0xbe859206	-0.2608797
83	0xbd1698aa	-0.036766686
84	0x3e7fce3f	0.2498102
85	0xbe59e6a7	-0.21279393
86	0x3babe7ab	0.005246123
87	0x3e5ed695	0.21761544
88	0x3ebd2ae6	0.3694679
89	0x3e4c17de	0.1993098
90	0x3c0d95ed	0.008641702
91	0x3b294d7e	0.0025833542
92	0x3f4a2fd8	0.78979254
93	0xbf25a090	-0.64698124
94	0xbf14086f	-0.5782537
95	0x3ddc6bbe	0.10762738
96	0x3ec78d25	0.38974872
97	0xbd704872	-0.05866284
98	0x3c9b2a19	0.018940972
99	0x3e9df64c	0.30851972
100	0x3e89cccb	0.26914057
101	0xbd4e0523	-0.050297868
102	0xbdef5b08	-0.11687285
103	0xbe82da65	-0.25557247
104	0x3d4d1d51	0.050076786
105	0x3ec664e8	0.3874886
106	0x3db38213	0.08765044
107	0xbd74dbca	-0.05977992
108	0x3e05188f	0.1299765
109	0xbd994b24	-0.07485035
110	0xbeee6cf1	-0.4656749
111	0xbe9124aa	-0.28348285
112	0x3ee439d8	0.4457538
113	0x3eacf011	0.33776906
114	0xbd8d7944	-0.06907895
115	0xbf2ea217	-0.6821608
116	0x3f725dae	0.94674194
117	0x3e620a2f	0.22074197
118	0x3e9c2e38	0.30504012
119	0xbf0e47f5	-0.5557855
120	0xbe23832c	-0.15968007
121	0x3d91653d	0.07099388
122	0xbdaaec6e	-0.08345877
123	0xbd5f9d04	-0.0545931
124	0x3e963256	0.29335278
125	0x3c8bd2d9	0.017068313
126	0x3e2ac3a6	0.16676196
127	0xba852372	-0.0010157658
128	0x3efd20c1	0.49439052
129	0x3f0eb670	0.5574713
130	0x3f31d79e	0.6946963
131	0xbea10ab1	-0.3145347
132	0xbc7ab2aa	-0.015301386
133	0xbeba24bd	-0.36356154
134	0x3dca53f2	0.098792925
135	0xbee52fb5	-0.4476296
136	0x3e083418	0.13301122
137	0x3e55cc7f	0.2087879
138	0xbd93a26a	-0.072087124
139	0xbea43278	-0.32069755
140	0xbef332c5	-0.47499672
141	0xbe8ef3fc	-0.2792052
142	0xbeb5fea2	-0.35545832
143	0x3b8fa238	0.0043833517
144	0xbe787adb	-0.24265616
145	0x3e763173	0.24042301
146	0x3e6de190	0.23230577
147	0x3e50561c	0.20345348
148	0x3f1873da	0.59551775
149	0x3ea6f773	0.32610664
150	0xbc0228e0	-0.007944316
151	0x3f03a8ce	0.5142945
152	0x3e9ea132	0.30982357
153	0xbeaa7c92	-0.33298165
154	0xbd0e3a9b	-0.03472386
155	0x3e01484b	0.12625234
156	0x3e377d40	0.17918873
157	0x3d340cca	0.04395751
158	0xbee5a479	-0.44852045
159	0xbdc6279c	-0.09675524
160	0x3e559587	0.20857821
161	0xbf1c769f	-0.611185
162	0x3e085065	0.13311918
163	0xbc4d8056	-0.012542805
164	0xbdd428e0	-0.10359359
165	0xbee29a9f	-0.44258592
166	0xbf1cdcc9	-0.6127439
167	0xbdf09380	-0.117468834
168	0x3d56d51a	0.052449323
169	0x3e5fec30	0.21867442
170	0xbe553cef	-0.20824026
171	0x3dca7cb0	0.098870635
172	0xbf064da2	-0.5246221
173	0xbb04d330	-0.002026748
174	0xbe62808f	-0.22119354
175	0xbf021a3f	-0.508213
176	0xbefe64e8	-0.4968636
177	0xbe1fe0e7	-0.15613137
178	0xbe0e652b	-0.1390578
179	0xbd8040d1	-0.06262363
180	0x3e4671ae	0.19379303
181	0x3eab16b8	0.3341577
182	0xbc9d6a36	-0.019215684
183	0x3fb261a0	1.3936043
184	0xbeb5ce8d	-0.35509148
185	0xbdcd9f48	-0.10040146
186	0xbea7059d	-0.3262147
187	0x3e8470d1	0.25867322
188	0xbe3672b4	-0.17817193
189	0xbd8a2b33	-0.06746521
190	0xbdd58d72	-0.10427369
191	0xbdf019e2	-0.11723687
192	0x3ded48f0	0.11586177
193	0xbddf2d91	-0.10897363
194	0x3dc4ea3f	0.096149914
195	0xbe0f5888	-0.13998616
196	0xbe908439	-0.28225878
197	0xbf09a8b8	-0.5377307
198	0x3e733c26	0.23753414
199	0x3c0f9a82	0.008764865
200	0x3daeafc1	0.08529616
201	0x3ec64976	0.3872792
202	0xbf559527	-0.83430713
203	0x3f4378e9	0.7635637
204	0x3c9efad9	0.019406723
205	0xbe943104	-0.28943646
206	0xbee3b30f	-0.44472548
207	0xbdb423a0	-0.087958574
208	0x3cc9b83e	0.024623986
209	0x3e926184	0.28590024
210	0x3ccc0432	0.024904344
211	0xbe02800a	-0.12744156
212	0xbe40c5a1	-0.1882539
213	0x3e0dc221	0.13843586
214	0x3f2b6305	0.66947967
215	0xbb8c7a60	-0.004287049
216	0xbe4b3d59	-0.19847621
217	0xbd8f90f9	-0.07010073
218	0x3e79e916	0.24405321
219	0x3f819a35	1.0125185
220	0xbf0ec141	-0.5576363
221	0xbecc9f7a	-0.3996542
222	0xbd2b6225	-0.041841645
223	0xbef80f22	-0.48449045
224	0x3ebabce9	0.36472252
225	0x3e936da4	0.28794587
226	0x3e7a07c7	0.2441703
227	0x3df0aedd	0.117521025
228	0xbe8058d0	-0.2506776
229	0x3f06e921	0.52699476
230	0xbef4742c	-0.47744882
231	0xbee687d2	-0.45025498
232	0xbdd55581	-0.10416699
233	0x3e438b8c	0.19096202
234	0xbc61a198	-0.013771437
235	0x3da11f96	0.07867353
236	0xbb8a62af	-0.00422319
237	0xbf7f768d	-0.9979027
238	0x3ebd3b94	0.36959517
239	0xbe32b79c	-0.17452854
240	0xbe8000bf	-0.2500057
241	0xbe305eda	-0.17223683
242	0xbea22501	-0.31668857
243	0xbe1e42c0	-0.1545515
244	0xbd926798	-0.07148665
245	0x3ecf5eff	0.40502164
246	0x3d3eaffb	0.046554547
247	0xbe6a0e3d	-0.22856994
248	0xbe1a7dd8	-0.15087068
249	0x3f5f6e56	0.87277734
250	0xbe105035	-0.14093097
251	0x3ef21e53	0.4728876
252	0xbe51b15e	-0.20477816
253	0x3e812e64	0.25230706
254	0x3e051c6a	0.1299912
255	0xbedeb975	-0.43500867

input_adapter.bias f4 [32]
0	0x3dbbe677	0.09174817
1	0x3ed1eeb4	0.4100243
2	0xbaf745d0	-0.001886541
3	0xbe997586	-0.29972476
4	0xbe8c1441	-0.27359203
5	0xbb2c03ef	-0.0026247462
6	0xbe2d9c29	-0.16954102
7	0x3db43eea	0.088010624
8	0xbedb8775	-0.42876783
9	0xbe98622b	-0.29762396
10	0x3d36becd	0.044615556
11	0xbbdd0236	-0.0067446483
12	0x3ee8fdc7	0.45506117
13	0x3d7ff429	0.06248871
14	0xbdd51851	-0.104050286
15	0x3c48c33d	0.01225358
16	0xbe7414a7	-0.23836003
17	0xbe7f12ec	-0.24909562
18	0xbf23f451	-0.6404467
19	0xbc8b511d	-0.017006451
20	0x3ed078f6	0.40717286
21	0x3e4293b8	0.19001663
22	0x3e550dca	0.20806041
23	0xbef1ac34	-0.47201693
24	0xbe842470	-0.2580905
25	0x3bd308d3	0.006440261
26	0x3d64ef24	0.055892125
27	0xbd9c5983	-0.076342605
28	0x3cea8ad7	0.028630657
29	0xbf0e90ff	-0.55689996
30	0xbeac73cc	-0.33682096
31	0xbef8814b	-0.48536143

network.0.conv1.conv.weight f4 [32, 32, 3]
0	0xbed4b1dd	-0.4154195
1	0xbeeac066	-0.45849913
2	0xbf368dc8	-0.7131009
3	0xbe5d51aa	-0.21613184
4	0xbecff16b	-0.40613875
5	0xbe41c742	-0.18923667
6	0x3b9d319c	0.0047971737
7	0x3e592b05	0.21207817
8	0xbece91b9	-0.40345553
9	0x3f024232	0.50882256
10	0x3f0f1351	0.5588885
11	0x3ebc66b3	0.36797103
12	0x3e54517b	0.20734207
13	0x3e8c3b67	0.2738907
14	0x3e9660b1	0.29370645
15	0x3e8c4617	0.27397224
16	0x3dd618c7	0.10453945
17	0xbe3424f8	-0.17592227
18	0xbe2ee5b1	-0.17079808
19	0xbe5b7b61	-0.21433784
20	0x3e003627	0.12520657
21	0x3ea6a979	0.32551172
22	0x3e75b7fc	0.23995966
23	0x3e582ba1	0.21110393
24	0x3e9748e1	0.2954779
25	0x3ea29202	0.3175202
26	0x3e83468a	0.25639755
27	0x3ceddc6d	0.029035771
28	0x3ea457ef	0.32098338
29	0xbe92a2d9	-0.28639868
30	0xbd3bfeb9	-0.04589722
31	0x3dd8e31b	0.10590192
32	0x3d64cbab	0.055858295
33	0xbd90f3fd	-0.07077787
34	0x3c25d2b7	0.010121039
35	0x3d6f19ce	0.05837422
36	0x3d9d67af	0.07685792
37	0x3daa1336	0.083044454
38	0xbe0576e8	-0.1303364
39	0xbda4a009	-0.08038337
40	0xbcc6d4f5	-0.024271468
41	0x3c2024cf	0.009774401
42	0x3efda1cc	0.49537504
43	0x3f39e5d7	0.7261633
44	0x3e889c6f	0.2668185
45	0x3d0a9c07	0.033840206
46	0xbe0d412d	-0.13794394
47	0xbe17afde	-0.14813182
48	0x3d88b037	0.06674235
49	0x3e2c7ec8	0.16845238
50	0xbde7b356	-0.113135025
51	0x3e6b2463	0.22963099
52	0xbdc8dcb3	-0.0980772
53	0x3e33c1ab	0.17554347
54	0x3e139406	0.14411935
55	0x3d18eaed	0.037333418
56	0x3ef21c0a	0.47287017
57	0x3ec35641	0.38151744
58	0x3e96008e	0.29297298
59	0xbddd0ac5	-0.1079307
60	0xbeace0b2	-0.3376518
61	0xbe887061	-0.26648238
62	0xbc570fbd	-0.013126311
63	0xbe7e1b4c	-0.248151
64	0xbe2279e9	-0.15866818
65	0xbecdf8fa	-0.40229017
66	0xbe53bddb	-0.20677893
67	0xbd9aecfc	-0.075647324
68	0x3bc4b4a0	0.0060029775
69	0x3ee7413d	0.4516696
70	0x3eba0cf1	0.36337999
71	0x3f320c82	0.69550335
72	0xbe672a8e	-0.22574827
73	0xbe83385a	-0.2562893
74	0xbee089b6	-0.43855065
75	0x3e6ff89d	0.23434682
76	0x3eb2f427	0.34951898
77	0xbe4219b4	-0.18955117
78	0x3e0e368a	0.13887993
79	0x3e5066f8	0.2035178
80	0xbeb5be00	-0.3549652
81	0xbec9b923	-0.3939906
82	0xbee5a944	-0.44855702
83	0xbb679eb0	-0.0035342388
84	0xbf35f83e	-0.7108191
85	0xbf4ddf8d	-0.80419236
86	0xbeaf7b05	-0.34273544
87	0xbeb68d37	-0.35654613
88	0xbed44645	-0.4145986
89	0xbe66a09e	-0.22522208
90	0x3dbd21de	0.09234975
91	0x3e52f96e	0.20602962
92	0xbe19476f	-0.14968656
93	0x3e4a0837	0.19729696
94	0x3e4ef8bd	0.20212074
95	0x3df09775	0.11747638
96	0xbe92b38d	-0.2865261
97	0x3cade765	0.021228502
98	0x3e248564	0.1606651
99	0xbeb10c10	-0.34579515
100	0xbe1af8a6	-0.15133914
101	0xbbab89bb	-0.0052349246
102	0x3e2990e9	0.16559185
103	0x3e6c7f57	0.23095451
104	0xbf050925	-0.5196708
105	0xbebf31b5	-0.3734261
106	0xbc1aea21	-0.009455235
107	0x3dbb8da6	0.09157877
108	0xbf01c6e7	-0.50694126
109	0xbe5334ea	-0.20625654
110	0x3ebfc500	0.37454987
111	0xbe5d4215	-0.2160724
112	0x3e185a91	0.14878298
113	0x3eff3a10	0.49848986
114	0xbd71a313	-0.05899341
115	0xbeb232d2	-0.34804398
116	0xbeeefcca	-0.46677238
117	0xbbc04183	-0.0058671846
118	0x3e9adab5	0.30244985
119	0x3f160bc7	0.5861172
120	0x3cf1d391	0.029519828
121	0xbe142c7e	-0.14470097
122	0x3eaa3e9f	0.332509
123	0x3dd90252	0.10596146
124	0x3eb0f488	0.34561563
125	0xbed0fc73	-0.40817603
126	0xbe9e1213	-0.30873165
127	0xbe8c50ff	-0.27405545
128	0xbe8743cc	-0.26418912
129	0x3e555166	0.20831832
130	0x3e3f142f	0.18660043
131	0x3eff34a7	0.49844858
132	0xbeaa2b5e	-0.33236212
133	0xbda81d3f	-0.08208703
134	0x3e09fe64	0.13475949
135	0xbe42dfaa	-0.19030634
136	0xbdb847d4	-0.08998075
137	0xbe1f225e	-0.15540454
138	0x3d95f51c	0.073221415
139	0x3d951814	0.07279983
140	0xbeafd40b	-0.34341463
141	0x3e1fcdb2	0.1560581
142	0x3e234d3d	0.15947433
143	0x3eb05436	0.34439248
144	0xbdbd1d5c	-0.092341155
145	0x3e49f9f5	0.19724257
146	0x3ef5040c	0.4785465
147	0xbe964182	-0.29346853
148	0xbe91b768	-0.2846024
149	0x3d8bdddb	0.06829425
150	0x3d516bed	0.051128317
151	0xbe3da09c	-0.18518299
152	0xbc1c73b3	-0.009549069
153	0xbe8b5798	-0.27215266
154	0xbda4e3ff	-0.08051299
155	0x3ee9def9	0.45677927
156	0xbe8c9dbe	-0.27464098
157	0xbe784b5a	-0.24247494
158	0xbd4cb845	-0.04998042
159	0xbe5dd521	-0.21663333
160	0x3d316b26	0.043315075
161	0x3e9f08f8	0.3106153
162	0x3d600213	0.054689478
163	0xbe15cdc9	-0.14629282
164	0xbe11025a	-0.14161053
165	0xbeb7285b	-0.35772976
166	0x3c1b6198	0.009483717
167	0x3f3de4a1	0.74176985
168	0x3e8d4934	0.27594912
169	0x3e99486d	0.2993807
170	0xbd0b15ed	-0.033956457
171	0xbf064e40	-0.5246315
172	0xbdc31600	-0.095256805
173	0xbde4f145	-0.11178831
174	0x3e18ef78	0.149351
175	0x3e2b11a0	0.16705942
176	0xbf2ae96b	-0.6676242
177	0x3f226989	0.63442284
178	0x3e87f359	0.26552847
179	0x3dee178d	0.11625586
180	0x3ee4d8d3	0.44696674
181	0x3e9ecb8c	0.3101467
182	0x3ec48a7f	0.38386914
183	0xbe7fc45b	-0.24977247
184	0xbe496016	-0.1966556
185	0x3eea6d6e	0.45786613
186	0xbd70b1dc	-0.05876337
187	0xbb40abcc	-0.0029399274
188	0xbe2431a8	-0.16034567
189	0xbd8cc3f5	-0.06873313
190	0x3dcea211	0.100895055
191	0x3f33563a	0.70053446
192	0x3e226524	0.15858895
193	0x3e920a14	0.28523314
194	0x3e8d86a9	0.276418
195	0xbeab90b4	-0.33508837
196	0xbe9dfafa	-0.30855542
197	0xbe39b031	-0.18133618
198	0x3dab0cc5	0.08352045
199	0x3e9342f9	0.28762034
200	0xbdfe4db9	-0.12417168
201	0x3f0a8408	0.54107714
202	0x3f0af927	0.54286426
203	0xbe5713ff	-0.21003722
204	0xbd67ebdc	-0.056621417
205	0xbd66a18a	-0.0563064
206	0x3d8a99f1	0.06767643
207	0x3e8dabf7	0.2767026
208	0x3dd4a4a9	0.10382969
209	0xbe4b5849	-0.19857897
210	0x3e9eaf21	0.30992988
211	0x3d72cbc1	0.059276346
212	0x3ddc5d0c	0.10759935
213	0x3ee72b60	0.4515028
214	0x3eb9bff6	0.36279267
215	0x3eaa3650	0.33244562
216	0x3e9a882e	0.30182022
217	0x3e5013ad	0.20320006
218	0x3eaa85a1	0.33305076
219	0xbc31d95c	-0.010855045
220	0x3e1597fa	0.14608756
221	0xbe1b614a	-0.15173832
222	0xbf56ed78	-0.839561
223	0xbf22e822	-0.63635457
224	0xbe278dcc	-0.16362685
225	0xbe91d279	-0.2848089
226	0xbeadf733	-0.3397766
227	0xbed2325c	-0.41054046
228	0xbe9502d8	-0.29103732
229	0xbe88a662	-0.2668944
230	0xbc10b164	-0.008831356
231	0x3f181fde	0.59423625
232	0x3ec99e5e	0.39378637
233	0x3ebe2eba	0.37145025
234	0xbd112091	-0.03543145
235	0x3e27e812	0.16397122
236	0xbd05ce1d	-0.032667268
237	0x3e9ad264	0.3023864
238	0x3e6f3ecb	0.23363797
239	0x3ec4706e	0.38367027
240	0xbeaadce0	-0.3337164
241	0xbe7509e1	-0.2392955
242	0x3de36e74	0.11105052
243	0xbeb1be9c	-0.34715736
244	0xbea55119	-0.32288435
245	0xbe4d99b4	-0.20078164
246	0xbd2cb438	-0.042164057
247	0xbe613e31	-0.2199638
248	0xbeb4beef	-0.3530192
249	0xbd9a5b12	-0.075369015
250	0xbc379890	-0.011205807
251	0x3bac9ebb	0.0052679456
252	0xbe0a7e89	-0.13524832
253	0xbe7bdf7d	-0.24596973
254	0xbd104a62	-0.035227187
255	0x3ed5fb59	0.41793326

network.0.conv1.conv.bias f4 [32]
0	0xba6e6a37	-0.0009094807
1	0x3d978116	0.07397668
2	0x3db638c4	0.08897546
3	0xbd04f8f7	-0.032463994
4	0x3c665961	0.0140593955
5	0xbddfe2a9	-0.10931904
6	0x3d8ae058	0.067810714
7	0xbd8f38bb	-0.06993242
8	0x3d801789	0.06254489
9	0x3dbcef29	0.09225304
10	0x3ccd8602	0.025088314
11	0xbd4aca31	-0.04950923
12	0x3dac508e	0.08413802
13	0xbc1044e3	-0.008805486
14	0xbd587ea0	-0.052855134
15	0xbb43e4d8	-0.002989104
16	0xbd38552c	-0.0450031
17	0x3d059bd3	0.03261931
18	0x3cccffaa	0.025024254
19	0xbd839edf	-0.06426787
20	0x3d2efed0	0.042723477
21	0x3c870e32	0.016486261
22	0x3b991efd	0.0046728835
23	0x3dabdad9	0.08391351
24	0xbda797f1	-0.081832774
25	0x3dd27d17	0.10277765
26	0xbcbbf203	-0.022942549
27	0x3d774e12	0.060377188
28	0x3dc38948	0.09547669
29	0x3d619455	0.0550731
30	0x3bf767c3	0.007550211
31	0xbda76e51	-0.08175338

network.0.conv2.conv.weight f4 [32, 32, 3]
0	0xbe4258c3	-0.18979172
1	0x3d8aecda	0.06783457
2	0x3e23175c	0.1592688
3	0xbf38c4c8	-0.72175264
4	0xbeab8235	-0.33497778
5	0xbe915072	-0.28381687
6	0xbe9f00d6	-0.31055325
7	0xbece4177	-0.4028432
8	0xbf0f9d7d	-0.56099683
9	0xbe626fdb	-0.22112982
10	0xbe1e631a	-0.15467492
11	0xbde51cd8	-0.11187142
12	0x3dbb8408	0.09156042
13	0x3f020789	0.5079275
14	0x3f10e366	0.5659698
15	0x3dc20911	0.094743855
16	0xbc3bfb61	-0.011473508
17	0x3e7fb6ba	0.24972048
18	0xbe6bbc04	-0.23020941
19	0x3dbb23ac	0.09137663
20	0x3e090ef8	0.13384616
21	0xbf21a858	-0.631475
22	0xbf4be368	-0.7964387
23	0xbf2c812b	-0.67384595
24	0x3d110b38	0.03541109
25	0xbd20073b	-0.039069396
26	0xbddb36e1	-0.10703827
27	0xbd9fecfe	-0.078088745
28	0xbd3986d3	-0.045294594
29	0x3ddce522	0.10785891
30	0xbf7d6669	-0.9898439
31	0xbf8795ac	-1.0592551
32	0xbf897d75	-1.0741411
33	0xbd232b8f	-0.039836463
34	0xbc95b796	-0.018276017
35	0x3debf319	0.115209766
36	0x3e0e4464	0.13893276
37	0x3e2df58a	0.16988197
38	0x3dfcb1dd	0.12338612
39	0x3cb957ce	0.022624876
40	0x3e2c8e12	0.1685107
41	0x3e83c1d3	0.25733814
42	0xbdaa5118	-0.08316249
43	0xbe159568	-0.14607775
44	0xbdc549a5	-0.09633187
45	0xbd824020	-0.06359887
46	0xbd4f16eb	-0.050558966
47	0x3dacc247	0.08435493
48	0xbeb94b92	-0.36190468
49	0xbe920185	-0.28516784
50	0xbe6eec92	-0.23332432
51	0xbd19e204	-0.03756906
52	0x3dcf4c74	0.10122004
53	0xbcda11ce	-0.026619818
54	0xbf739736	-0.95152605
55	0xbed194ac	-0.4093374
56	0xbed74b77	-0.42049763
57	0xbca74036	-0.02041636
58	0xbe1e1fc0	-0.15441799
59	0xbe462f51	-0.19353987
60	0x3e54070b	0.20705812
61	0x3d1bcd2b	0.03803746
62	0x3d2ecf9d	0.042678464
63	0x3e7a8c0f	0.2446749
64	0x3e4ebbb4	0.2018879
65	0x3dc440a2	0.0958264
66	0xbc17b78d	-0.0092600705
67	0x3dde69eb	0.10860046
68	0x3c8f14e0	0.017466009
69	0xbccaea5f	-0.02476996
70	0x3e09968e	0.13436338
71	0x3e251c36	0.16124043
72	0xbe146619	-0.14492072
73	0x3db081f8	0.086185396
74	0x3e929146	0.2862646
75	0xbead5897	-0.3385665
76	0xbe890059	-0.26758078
77	0xbe8b60ef	-0.27222392
78	0xbe51fbcf	-0.20506214
79	0xbe6c2134	-0.23059541
80	0xbedfe24b	-0.43727335
81	0x3d5316d4	0.051535442
82	0x3e6787d5	0.2261041
83	0x3e48f4cc	0.19624633
84	0xbf08c83c	-0.53430533
85	0xbef8a57f	-0.48563763
86	0xbf3877d9	-0.72057873
87	0xbeef477d	-0.4673423
88	0xbd879791	-0.06620706
89	0xbe954d8b	-0.29160723
90	0x3d85edfd	0.06539533
91	0x3d9d55fe	0.07682417
92	0x3d45a6bb	0.04825471
93	0xbcadbc38	-0.021207914
94	0x3da003c5	0.07813219
95	0x3e4d91fc	0.2007522
96	0x3e0ea6b6	0.13930783
97	0x3dbf6145	0.093447246
98	0x3d0c4172	0.0342421
99	0xbf20d6db	-0.62827843
100	0xbe1e7efa	-0.15478125
101	0x3db6da7b	0.089283906
102	0xbd85be51	-0.065304406
103	0xbe682a98	-0.22672498
104	0x3c783f1e	0.015151767
105	0xbeb4dcab	-0.35324606
106	0xbca1cf4b	-0.019752165
107	0xbe5148f4	-0.20437986
108	0xbee729af	-0.4514899
109	0x3e4844be	0.19557473
110	0xbe82e861	-0.25567916
111	0x3c3a9dd9	0.011390173
112	0x3e96fbdd	0.2948903
113	0x3f29d320	0.66337776
114	0xbf36504a	-0.7121626
115	0xbe37e7e0	-0.17959547
116	0xbee84609	-0.45365933
117	0xbf09ba06	-0.53799474
118	0xbf489ddf	-0.7836589
119	0xbf565161	-0.83717924
120	0x3e041934	0.12900239
121	0x3e9c1dd3	0.30491504
122	0x3d70536a	0.0586733
123	0x3e1894ec	0.14900559
124	0x3e62c770	0.22146392
125	0x3e5769fa	0.2103652
126	0xbd7f6f6f	-0.06236213
127	0x3cf92260	0.0304119
128	0xbdbc6a0f	-0.091999166
129	0x3d9efcd3	0.07763066
130	0x3dd61cff	0.10454749
131	0x3e131f89	0.14367498
132	0x3eb43ac6	0.3520109
133	0x3e59a932	0.21255949
134	0x3ea6efc9	0.32604817
135	0x3e7c8743	0.24660973
136	0x3e8479dd	0.25874224
137	0x3e710076	0.23535332
138	0x3c68dc7e	0.014212726
139	0x3db38cae	0.08767067
140	0x3ede987f	0.4347572
141	0x3e0c1772	0.13680819
142	0x3e4c50ee	0.19952747
143	0x3e911607	0.28337118
144	0xbeeab53b	-0.45841393
145	0xbdad6faf	-0.084685676
146	0xbec7e798	-0.3904388
147	0x3dd59de3	0.10430505
148	0x3e351a9d	0.17685933
149	0x3db4db2e	0.08830868
150	0xbf826669	-1.0187503
151	0xbdeedddb	-0.11663409
152	0xbf05561f	-0.52084535
153	0xbf15cda1	-0.5851689
154	0xbf418ab5	-0.75602275
155	0xbf4ce5b2	-0.8003799
156	0xbea73e16	-0.32664555
157	0xbe497100	-0.19672012
158	0xbef2f580	-0.47452927
159	0xbebb441e	-0.36575407
160	0xbe1c9ec2	-0.15294936
161	0xbe2d4904	-0.16922385
162	0xbde4d86f	-0.11174094
163	0x3e22545b	0.15852492
164	0xbc7180ab	-0.0147401495
165	0xbec233b9	-0.37930086
166	0x3d56817f	0.05236959
167	0x3dc3edc2	0.09566833
168	0xbef1fa28	-0.47261167
169	0x3e8f1304	0.27944195
170	0x3d2c4e48	0.042066842
171	0xbef69586	-0.48160952
172	0xbd995635	-0.07487146
173	0xbe9ee7a7	-0.31036112
174	0xbd127695	-0.03575762
175	0xbcb02975	-0.021504143
176	0x3d26d4aa	0.040730156
177	0xbe81d308	-0.25356317
178	0x3d9cb39f	0.076514475
179	0x3e509f6e	0.20373318
180	0xbf2a717b	-0.6657941
181	0xbedfb7c8	-0.436949
182	0xbf35b819	-0.70984036
183	0x3e3c4abd	0.18387885
184	0x3ddd1dc0	0.1079669
185	0x3ae9722c	0.0017810515
186	0xbcc9265b	-0.024554422
187	0xbe14eafc	-0.14542764
188	0xbe222578	-0.15834606
189	0xbd96adc2	-0.073573604
190	0x3e5cb3ce	0.21552965
191	0x3dd7d3c8	0.10538441
192	0xbdd2bc07	-0.102897696
193	0xbed44e82	-0.41466147
194	0xbf023c0c	-0.50872874
195	0x3cfc8598	0.030825421
196	0xbe52e079	-0.20593442
197	0x3e554827	0.20828305
198	0xbf0b9970	-0.54531
199	0xbee235db	-0.44181713
200	0xbe780103	-0.24219136
201	0x3dccf3f4	0.10007468
202	0xbf0bc4c1	-0.545971
203	0xbe26517e	-0.16242024
204	0xbe40698b	-0.18790261
205	0xbf16ba67	-0.5887818
206	0xbebc51f1	-0.36781266
207	0x3ed94713	0.42437038
208	0x3f1c72de	0.61112773
209	0x3f198c8e	0.59980094
210	0xbc59abb9	-0.013285571
211	0xbe872035	-0.2639176
212	0xbedb750a	-0.4286273
213	0xbda12d9a	-0.07870026
214	0xbedae283	-0.4275094
215	0xbea81701	-0.3283005
216	0xbf20be57	-0.62790436
217	0xbefdcb06	-0.49568957
218	0xbe8734e9	-0.26407555
219	0x3d63564d	0.055502225
220	0x3d68f925	0.056878228
221	0xbcbf41f6	-0.023346882
222	0xbc266a3f	-0.010157167
223	0xbdc376b6	-0.09544127
224	0xbca6f9cb	-0.020382782
225	0xbd985cdc	-0.074395865
226	0xbf317a55	-0.6932729
227	0xbe817bf5	-0.25289884
228	0x3c5ec06d	0.013595683
229	0xbe0c23fa	-0.13685599
230	0x3e032148	0.12805665
231	0x3e680eff	0.2266197
232	0x3e9cf3aa	0.3065465
233	0x3ec59a39	0.38594225
234	0x3ef3f531	0.47648004
235	0x3f092d1a	0.53584445
236	0x3ea17df4	0.31541407
237	0x3e6f01c7	0.23340522
238	0x3eb067c5	0.3445417
239	0xbd98e18d	-0.074648954
240	0x3dedeb9b	0.11617204
241	0xbea94314	-0.3305899
242	0xbd6ff386	-0.05858185
243	0xbe08d3e9	-0.13362087
244	0xbf163198	-0.58669424
245	0xbf01075e	-0.50401866
246	0x3e099a82	0.13437846
247	0x3d9c09ca	0.076190546
248	0x3e67bef9	0.22631444
249	0xbebfb8ca	-0.3744567
250	0xbf200dfa	-0.62521327
251	0xbed4b243	-0.41542253
252	0x3d829e50	0.06377852
253	0xbe067372	-0.13129976
254	0xbde99717	-0.11405771
255	0xbf37efca	-0.71850264

network.0.conv2.conv.bias f4 [32]
0	0xbd75eec2	-0.06004215
1	0xbd041ae3	-0.032252204
2	0xbd66a3ec	-0.05630867
3	0x3dca403a	0.098755315
4	0x3c7ff4ac	0.015622299
5	0xbdaf1b1c	-0.085500926
6	0xbd7dc045	-0.06195094
7	0x3cc29784	0.023753889
8	0xbb8518b7	-0.004061784
9	0x3db6e485	0.089303054
10	0x3dd25f73	0.10272112
11	0x3c57b14e	0.013164831
12	0xbd636f65	-0.055526156
13	0x3ceff1df	0.029290138
14	0x3cad7f82	0.021178965
15	0x3c823713	0.015895402
16	0xbd3c2de7	-0.045942213
17	0x3cf1325c	0.029442959
18	0x3cedfaf2	0.029050324
19	0x3d9e2bea	0.0772322
20	0x3db8f31e	0.09030746
21	0x3d1aa379	0.037753556
22	0xbdb3c250	-0.087772965
23	0x3d9edd47	0.07757049
24	0x3dd1066c	0.10206303
25	0xbd15d84a	-0.036583222
26	0x3d956650	0.07294905
27	0x3dafe321	0.08588243
28	0xbd6b1ce3	-0.057400595
29	0x3c83c162	0.016083423
30	0x3dcfa36a	0.10138591
31	0x3d09ac4f	0.033611592

network.0.bn1.weight f4 [32]
0	0x3f53faf3	0.82804793
1	0x3f6757fe	0.9036864
2	0x3f5fe3bf	0.8745689
3	0x3f861263	1.0474361
4	0x3f8984a5	1.0743605
5	0x3f6ec658	0.932714
6	0x3f658418	0.89654684
7	0x3f585523	0.8450491
8	0x3f29b37a	0.66289485
9	0x3f8ce0b5	1.1006075
10	0x3f906509	1.1280833
11	0x3fb942b3	1.447348
12	0x3f540d60	0.8283291
13	0x3f5e8eea	0.8693682
14	0x3f6ed913	0.9329998
15	0x3f92d8f2	1.1472456
16	0x3f64ed38	0.8942447
17	0x3f6b774e	0.9197892
18	0x3f9d2834	1.2277894
19	0x3f6e86a6	0.9317421
20	0x3f7ab2e1	0.979292
21	0x3f6d67a4	0.9273627
22	0x3eefe28a	0.46852523
23	0x3fa3b263	1.2788814
24	0x3f8b0d22	1.0863383
25	0x3f8ecc3e	1.115608
26	0x3f7e3747	0.99303097
27	0x3f8caa02	1.0989382
28	0x3f80418f	1.0020007
29	0x3fa6dd05	1.30362
30	0x3f2d9f74	0.6782143
31	0x3f73be23	0.95212

network.0.bn1.bias f4 [32]
0	0xbed479a4	-0.41499054
1	0xbf05b52d	-0.5222958
2	0xbec2fc7c	-0.38083255
3	0xbebff2aa	-0.37489825
4	0xbede72a4	-0.4344684
5	0xbf11dab1	-0.5697432
6	0xbe95d037	-0.29260418
7	0xbe7d272d	-0.24721976
8	0xbdb5a6f1	-0.08869732
9	0xbe93dacf	-0.28877875
10	0xbef710ee	-0.48255104
11	0xbf5f1077	-0.871345
12	0xbef872bd	-0.48525038
13	0xbec57ca5	-0.3857166
14	0xbf12c4ef	-0.57331747
15	0xbefa17bd	-0.48846236
16	0xbe9e7899	-0.30951384
17	0xbeb910ef	-0.36145732
18	0xbf10677c	-0.56407905
19	0xbe5b2809	-0.21401991
20	0xbeceec5c	-0.40414703
21	0xbdcc9fe2	-0.09991433
22	0xbdea4186	-0.11438279
23	0xbee5358d	-0.44767419
24	0xbef13b56	-0.47115582
25	0xbe44d505	-0.19221886
26	0xbf099f76	-0.53758943
27	0xbec769e7	-0.38947985
28	0xbedb0219	-0.42775038
29	0xbeaf32fe	-0.3421859
30	0xbe26f8dc	-0.1630587
31	0xbf148bb7	-0.5802569

network.0.bn1.running_mean f4 [32]
0	0x3f85bb47	1.0447778
1	0x4023caa6	2.5592437
2	0xbf8694e5	-1.0514189
3	0xc0816c95	-4.0445046
4	0x3eef0492	0.46683174
5	0x40c12e12	6.036874
6	0x3eda857d	0.42679968
7	0x40125fea	2.2871041
8	0xc035c440	-2.8401031
9	0xc0d56a8b	-6.6692557
10	0x40ef879c	7.485304
11	0xc0d4206e	-6.6289587
12	0xbfd48a49	-1.6604701
13	0xc01c84b5	-2.4455998
14	0x3e706bb5	0.23478587
15	0xc057ec8f	-3.3738134
16	0xc0826150	-4.074379
17	0xc0a4de79	-5.1521573
18	0xc0422305	-3.0333874
19	0x3fe3fdf5	1.7811877
20	0xc0d27da7	-6.5778384
21	0x4140ee8c	12.058239
22	0xc0878ba8	-4.235798
23	0xc0f1d3a4	-7.557085
24	0xc0cb2cef	-6.349235
25	0xc0fe0ace	-7.938819
26	0xbf6dd711	-0.9290629
27	0xc0ea6b72	-7.325616
28	0x3fb8b3b4	1.4429841
29	0xc117342f	-9.45024
30	0x40bca47b	5.895078
31	0xc0a2f253	-5.0920806

network.0.bn1.running_var f4 [32]
0	0x3ff3209d	1.8994328
1	0x3f9bcab0	1.217123
2	0x403cf698	2.952551
3	0x404c0fa1	3.188454
4	0x40539230	3.3057976
5	0x400ac925	2.168527
6	0x401aef5f	2.42086
7	0x3fc93eba	1.5722268
8	0x403920c4	2.8926249
9	0x40780d77	3.8758218
10	0x407b490b	3.9263332
11	0x40be7e8c	5.9529476
12	0x3faa5cc2	1.3309557
13	0x40665845	3.5991375
14	0x401a88d6	2.4146018
15	0x4027b6f9	2.6205428
16	0x4053ef62	3.3114858
17	0x4046ac60	3.104271
18	0x3fc1c883	1.5139316
19	0x3fb2a6e2	1.3957179
20	0x403039dc	2.7535315
21	0x4110da97	9.053367
22	0x405f2d8a	3.4871545
23	0x4045f92a	3.0933328
24	0x406bfec1	3.687424
25	0x4006c39a	2.1056886
26	0x3fe9877a	1.8244469
27	0x40635411	3.552006
28	0x3f8d6f68	1.1049623
29	0x408fffd6	4.49998
30	0x40846468	4.1372566
31	0x408b5da6	4.3551817

network.0.bn2.weight f4 [32]
0	0x3f4f1086	0.8088459
1	0x3e94b731	0.29046014
2	0x3f7d6281	0.9897843
3	0x3f044aa1	0.51676375
4	0x3ef04547	0.46927854
5	0x3f05bc5c	0.5224054
6	0x3f08c34f	0.5342302
7	0x3f0284d0	0.50983906
8	0x3f0410ec	0.5158832
9	0x3f93c688	1.1544962
10	0x3e884303	0.26613626
11	0x3ee3ec1c	0.44516075
12	0x3ea040fe	0.31299585
13	0x3f25a67e	0.6470717
14	0x3f7f1724	0.99644685
15	0x3f13562e	0.57553375
16	0x3ece8648	0.40336823
17	0x3efd030c	0.49416387
18	0x3efba907	0.49152395
19	0x3efc45a5	0.49271885
20	0x3ee26f82	0.442257
21	0x3f37d674	0.71811604
22	0x3f01beb2	0.506816
23	0x3ee1e6ba	0.44121343
24	0x3f33c21a	0.7021805
25	0x3f079c52	0.529729
26	0x3f530ff3	0.8244621
27	0x3f08a7f0	0.5338125
28	0x3f0353d6	0.512998
29	0x3eccfc34	0.40036166
30	0x3f00ca98	0.50309134
31	0x3f0cd480	0.5501175

network.0.bn2.bias f4 [32]
0	0xbd10a1ce	-0.03531056
1	0xbe4509d0	-0.19242024
2	0x3e78014a	0.24219242
3	0xbe6e8a38	-0.23294914
4	0xbe896c41	-0.26840404
5	0xbea17e76	-0.31541795
6	0xbea95dfb	-0.33079514
7	0xbe55b032	-0.20867994
8	0xbe771fce	-0.24133226
9	0x3e9747c8	0.29546952
10	0xbde47d6d	-0.111567356
11	0xbe5deb68	-0.21671832
12	0xbda61879	-0.081101365
13	0xbea5e752	-0.32403046
14	0x3dee6411	0.1164018
15	0xbe6d6279	-0.23182096
16	0xbe5b1739	-0.21395577
17	0xbeadae8f	-0.3392224
18	0xbe90bf44	-0.28270924
19	0xbe89505e	-0.26819128
20	0xbe6aa3ac	-0.22913998
21	0xbeb0e850	-0.3455224
22	0xbe8bb5f0	-0.27287245
23	0xbe9caa17	-0.30598518
24	0xbed72fa1	-0.42028525
25	0xbe0df742	-0.13863853
26	0x3e80cad0	0.25154734
27	0xbe8f51c6	-0.27992076
28	0xbe8a946e	-0.27066368
29	0xbe5eb0c7	-0.21747123
30	0xbe107efa	-0.14110938
31	0xbea2f82e	-0.3182997

network.0.bn2.running_mean f4 [32]
0	0xc0156545	-2.334306
1	0xbffdc072	-1.9824355
2	0xbf82f044	-1.0229573
3	0xbfa1866e	-1.261915
4	0xbf963195	-1.1733881
5	0x3f40778f	0.7518243
6	0xc00c9bf8	-2.1970196
7	0xc0360c5b	-2.844504
8	0xc0027f36	-2.0390143
9	0xc00d994a	-2.212481
10	0xbf229800	-0.63513184
11	0xc0299a86	-2.6500564
12	0x3df35110	0.11880696
13	0xc03f2b6d	-2.9870255
14	0xc0293089	-2.6435874
15	0xc01fb9f5	-2.495725
16	0x3f015a88	0.50528765
17	0xc02dac85	-2.7136548
18	0xc0048bb5	-2.071027
19	0xc00e97a3	-2.2280052
20	0xbfbec168	-1.4902773
21	0xbfa2b8b4	-1.2712617
22	0xbf4081b3	-0.75197905
23	0xbefed9e1	-0.49775603
24	0xc01e075a	-2.4691987
25	0xbed49b33	-0.41524658
26	0xbfa72a59	-1.3059798
27	0xc03e8575	-2.9768956
28	0xc0293dd9	-2.6444
29	0xbfcf0682	-1.6173861
30	0xbfe5513c	-1.7915416
31	0xc01391aa	-2.3057656

network.0.bn2.running_var f4 [32]
0	0x40e19f1d	7.050673
1	0x41114bd2	9.081011
2	0x40ba0221	5.81276
3	0x417c3f9b	15.765529
4	0x418e6cf9	17.80321
5	0x414fd94b	12.99055
6	0x41931a35	18.387796
7	0x41a89388	21.072037
8	0x41943d0b	18.529806
9	0x4157b79f	13.482329
10	0x40ef76a8	7.4832344
11	0x41ac70fe	21.555172
12	0x41814ce5	16.162546
13	0x4216b068	37.67227
14	0x414e7585	12.903691
15	0x41858fde	16.695248
16	0x40eaf131	7.3419423
17	0x4184771f	16.558165
18	0x417a3492	15.637835
19	0x41a3e4d3	20.48673
20	0x41c3ddb2	24.48325
21	0x4137ff3a	11.499811
22	0x416eb29e	14.918608
23	0x4101690e	8.088148
24	0x415044eb	13.016826
25	0x41046282	8.27405
26	0x418ed94e	17.856106
27	0x41f5bf25	30.718332
28	0x41d329a1	26.395327
29	0x41d550fb	26.664541
30	0x40fd9de0	7.925522
31	0x4184037e	16.501705

network.1.conv1.conv.weight f4 [64, 32, 3]
0	0x3dea3144	0.11435178
1	0x3e58d6ae	0.21175644
2	0x3ca6e3ac	0.020372234
3	0xbc800758	-0.015628502
4	0x3cb15822	0.02164847
5	0xbda26991	-0.079302914
6	0x3efc6fd5	0.4930407
7	0x3e5cd412	0.21565273
8	0xbdbd7ad1	-0.09251941
9	0xbeff22aa	-0.49831134
10	0xbf38f5ae	-0.7224988
11	0xbe5b4f76	-0.2141703
12	0x3d8e9844	0.06962636
13	0xbe178295	-0.14795907
14	0xbe9d1b5e	-0.30684942
15	0xbe0ee85c	-0.13955826
16	0x3dcfc102	0.10144235
17	0x3eb7fbcd	0.35934296
18	0xbf043929	-0.5164972
19	0xbe1f6121	-0.15564395
20	0x3d11930e	0.035540633
21	0x3e8307d0	0.25591898
22	0xbb47b5e7	-0.0030473412
23	0x3e09592b	0.13412921
24	0x3bf56931	0.0074893464
25	0xbd75570f	-0.05989748
26	0xbda7c0bf	-0.0819106
27	0xbe1b093c	-0.15140241
28	0x3d4c8c43	0.04993845
29	0x3dfa0373	0.12207689
30	0xbf76ea3b	-0.9645116
31	0xbf5e7223	-0.8689291
32	0xbefd9369	-0.49526528
33	0x3ea2e36f	0.31814143
34	0x3e465a87	0.19370471
35	0x3e9a0d87	0.30088446
36	0x3d1e25ec	0.038610384
37	0x3e078021	0.13232471
38	0x3f02904d	0.51001436
39	0xbea8f0bf	-0.32996175
40	0xbf0b6453	-0.5444996
41	0xbf243ee0	-0.6415844
42	0xbd7ce5aa	-0.061742462
43	0xbe19317a	-0.1496028
44	0xbdbceeeb	-0.092252575
45	0x3e1fbde5	0.15599783
46	0x3da68ec3	0.081326984
47	0x3e45e47b	0.1932544
48	0xbf022f9f	-0.50853914
49	0xbec7a5b6	-0.38993615
50	0xbeac24f8	-0.33621955
51	0x3d09e64d	0.033666898
52	0x3d86644d	0.065620996
53	0x3d49a194	0.04922636
54	0xbec5002c	-0.38476694
55	0xbf44df99	-0.7690368
56	0xbee90d82	-0.45518118
57	0xbdcfcdd2	-0.10146679
58	0xbdc7e1b6	-0.09759848
59	0x3bfdee80	0.0077493787
60	0x3d088ffd	0.033340443
61	0x3d7558db	0.059899192
62	0x3d9c2976	0.076250955
63	0xbf1ebcd2	-0.62006867
64	0xbee61540	-0.44938087
65	0xbe84aea5	-0.25914493
66	0x3e79e072	0.24402025
67	0x3e0482cb	0.12940519
68	0x3e59d672	0.2127321
69	0x3ec5042c	0.38479745
70	0xbdc00e21	-0.09377695
71	0x3ce07067	0.027397348
72	0x3c907abc	0.01763665
73	0xbdba1135	-0.09085313
74	0x3eb24523	0.34818372
75	0xbdb02960	-0.08601642
76	0xbdff52d9	-0.12466974
77	0xbe952700	-0.29131317
78	0xbddd242b	-0.10797914
79	0xbe192e13	-0.14958982
80	0xbe12b376	-0.14326271
81	0x3d07b96e	0.033135824
82	0xbe20f34a	-0.15717807
83	0xbdf07e9f	-0.11742901
84	0xbc55ec00	-0.013056755
85	0xbd822a8e	-0.06355773
86	0xbb91d4b9	-0.0044504073
87	0xbeae7dcf	-0.3408036
88	0xbea25538	-0.31705642
89	0xbdc76335	-0.09735719
90	0x3de0557b	0.10953804
91	0x3e11e8f9	0.14249028
92	0xbe2714c4	-0.16316515
93	0x3e3c99da	0.18418065
94	0xbe14c91a	-0.14529839
95	0xbe929e3c	-0.28636348
96	0x3e858f13	0.2608572
97	0x3e06fa54	0.1318143
98	0xbe187bcf	-0.14890979
99	0x3e6f3cb8	0.23363006
100	0xbe66123a	-0.2246789
101	0x3e212a1c	0.1573872
102	0x3d0a8143	0.03381468
103	0xbe25d09f	-0.16192864
104	0x3e3056f7	0.17220674
105	0x3ebedc99	0.37277678
106	0x3d9f2e32	0.07772483
107	0x3eae49b7	0.34040615
108	0x3c57ba7f	0.013167023
109	0xbe683b60	-0.226789
110	0x3cce0875	0.025150517
111	0xbe735fb8	-0.23766983
112	0x3dd72549	0.105051585
113	0x3e202b63	0.1564155
114	0xbfd61d66	-1.6727722
115	0xbf3e00bd	-0.74219877
116	0xbeb25346	-0.34829158
117	0x3eca5de3	0.39524755
118	0x3ee01cb1	0.4377189
119	0x3d076ab8	0.03306076
120	0x3e03fb11	0.12888743
121	0xbd4cbc66	-0.04998436
122	0x3e9f4f0a	0.3111499
123	0xbf4293df	-0.76006883
124	0xbe9fb576	-0.3119313
125	0xbe600142	-0.2187548
126	0x3b39d265	0.0028354165
127	0x3db2ce5d	0.08730767
128	0xbc770200	-0.01507616
129	0xbe279211	-0.16364314
130	0x3c7295ce	0.014806224
131	0xbe7ed1f9	-0.24884786
132	0xbe8693b7	-0.26284572
133	0x3d125b69	0.035731707
134	0x3ebfd0de	0.3746404
135	0x3e8e50da	0.2779606
136	0x3e8b7b6a	0.27242595
137	0xbc5482c8	-0.012970634
138	0x3e448274	0.19190389
139	0x3e643e39	0.22289361
140	0xbd8c5204	-0.06851581
141	0x3e100465	0.14064176
142	0x3e1b2aed	0.15153094
143	0x3e3e24b2	0.18568686
144	0xbf7f5cb3	-0.9975082
145	0xbf38bf53	-0.7216694
146	0xbde54017	-0.11193865
147	0x3d4dea1e	0.0502721
148	0x3ce77681	0.02825475
149	0xbe694b54	-0.22782642
150	0xbe8e51a1	-0.27796653
151	0xbf1bee91	-0.609109
152	0xbebbb88b	-0.36664233
153	0x3bde9bdc	0.006793482
154	0xbd9236ff	-0.07139396
155	0x3e9a587e	0.3014564
156	0xbe8f7b5b	-0.280238
157	0xbe142a2e	-0.14469215
158	0x3eb171de	0.34657186
159	0xbe237973	-0.15964298
160	0xbe817010	-0.2528081
161	0xbd922084	-0.07135108
162	0xbecf2135	-0.40455022
163	0xbe85b07a	-0.26111203
164	0x3d784381	0.06061125
165	0x3e9e8540	0.30961037
166	0x3e2d4347	0.16920196
167	0x3e53d1c4	0.20685488
168	0xbe4352fa	-0.19074622
169	0x3eae4e51	0.34044126
170	0x3e0e80c3	0.13916306
171	0xbe0d58b2	-0.13803366
172	0xbe5a6516	-0.21327624
173	0x3d4ffe63	0.05077971
174	0xbdcbe74a	-0.09956224
175	0x3bc4bf86	0.0060042767
176	0x3d32a011	0.043609682
177	0xbdc1a1c4	-0.094546825
178	0xbdba7219	-0.09103794
179	0x3e6d38e3	0.23166232
180	0xbc82f153	-0.015984213
181	0xbe72fa1d	-0.23728223
182	0x3da1f7b4	0.07908574
183	0xbec0eb0a	-0.3767932
184	0xbe12f401	-0.14350893
185	0x3e8d8f71	0.276485
186	0x3cdf235c	0.02723854
187	0xbe1b7736	-0.15182194
188	0xbd8e68c8	-0.06953579
189	0x3cbc76db	0.023005893
190	0x3e80af05	0.2513353
191	0x3e81eee2	0.25377566
192	0x3e0a4bb1	0.13505436
193	0x3e9d1878	0.3068273
194	0x3e58360a	0.21114364
195	0x3dfaccba	0.1224608
196	0x3d3f50d7	0.046707954
197	0x3e8630d0	0.26209116
198	0xbc77c025	-0.015121494
199	0x3dd27850	0.10276854
200	0xbbd90a59	-0.006623548
201	0x3e82645d	0.25467196
202	0x3e3a491b	0.1819195
203	0x3e7f1ccd	0.2491333
204	0x3e019752	0.1265538
205	0x3d105bfa	0.035243966
206	0xbd71abca	-0.05900172
207	0xbd897f11	-0.06713689
208	0xbd618d5b	-0.055066448
209	0x3b113388	0.002215596
210	0x3ebb33da	0.36562997
211	0x3e9ff7bb	0.3124369
212	0x3e652767	0.22378312
213	0x3e5c7b48	0.21531403
214	0x3e71c9a3	0.23612075
215	0x3e125122	0.14288762
216	0xbdeb2383	-0.11481383
217	0xbd8d200f	-0.0689088
218	0x3e0dedda	0.13860264
219	0xbe96f2ea	-0.29482204
220	0xbe6574e6	-0.22407874
221	0x3d74124f	0.059587773
222	0xbf68cc6b	-0.9093692
223	0xbefaf06b	-0.4901155
224	0xbee3aee9	-0.44469383
225	0x3e9bb150	0.30408716
226	0x3ef87d96	0.48533314
227	0x3f36cbfe	0.7140502
228	0x3df1ba46	0.11803107
229	0xbe2329a7	-0.15933858
230	0xbe1b3b03	-0.1515923
231	0x3e6e5ad2	0.23276833
232	0x3eb1fe32	0.34764248
233	0x3f3cc5b2	0.7373916
234	0x3d64f314	0.05589588
235	0x3e8ef682	0.27922446
236	0x3d52a4d3	0.05142672
237	0x3e26722d	0.16254492
238	0x3e4373ef	0.19087194
239	0x3db4d95e	0.08830522
240	0xbdd99a46	-0.106251284
241	0xbdda8758	-0.10670346
242	0xbcd148fc	-0.025547497
243	0x3ed05900	0.40692902
244	0x3e89774b	0.26848826
245	0x3eeb4bab	0.45956168
246	0x3db12bf4	0.086509615
247	0x3e2ec41b	0.17066996
248	0x3e7bb4be	0.24580666
249	0x3f2e7bd7	0.68157715
250	0x3ef2845b	0.47366604
251	0x3ea9120e	0.33021587
252	0x3d204d11	0.039135996
253	0xbca960e2	-0.02067608
254	0xbe42a97b	-0.19009964
255	0x3d5b2a63	0.05350722

network.1.conv1.conv.bias f4 [64]
0	0x3ceb421a	0.028718043
1	0x3d84c767	0.064833455
2	0x3d22ca27	0.03974357
3	0xbd5cf0dd	-0.053940643
4	0xbcdccfd6	-0.026954573
5	0xbdb7342f	-0.089455
6	0xbd6bcfca	-0.05757121
7	0x3d241ffb	0.04006956
8	0x3cbb7ab9	0.022885667
9	0xbd2a4423	-0.041568886
10	0x3cef03de	0.029176649
11	0x3d5a1a0d	0.0532475
12	0xbb179752	-0.0023130965
13	0xbd071f12	-0.032988615
14	0xbd744e4b	-0.05964498
15	0x3c145f4f	0.009055926
16	0xbd1cb06c	-0.038254187
17	0x3d81c07d	0.06335542
18	0xbb2d1fb9	-0.0026416613
19	0x3c8195c9	0.015818493
20	0x3db89e21	0.09014536
21	0xbd244c89	-0.040112052
22	0x3d82e0d7	0.06390541
23	0x3dcccc97	0.0999996
24	0xbd8a2cd3	-0.06746831
25	0xbd7cbdae	-0.06170433
26	0xbc4d2e48	-0.012523241
27	0x3c305b41	0.010763944
28	0xbd88e613	-0.06684508
29	0xbb0ea6f9	-0.0021767004
30	0xbccb84cf	-0.024843602
31	0x3daf1bc2	0.08550216
32	0x3c880853	0.016605532
33	0x3ca18a81	0.019719364
34	0xbb3ed4f5	-0.0029118632
35	0x3dae6d02	0.08516885
36	0x3bfae496	0.007656644
37	0x3db3ea69	0.087849446
38	0xbda4e048	-0.08050591
39	0x3dac7eeb	0.08422645
40	0x3d1246bb	0.035711985
41	0xbd7c06bf	-0.06152987
42	0xbc97244f	-0.01844993
43	0x3cf0dd5d	0.02940243
44	0x3ce79692	0.02827004
45	0x3d410ef1	0.04713339
46	0x3cb2bb49	0.02181782
47	0xbd4a97a5	-0.049461026
48	0x3d2e80c5	0.042603273
49	0xbc1ac08a	-0.009445319
50	0xbd2def75	-0.042464692
51	0xbb4dd8c7	-0.0031409727
52	0xbd6ea0d8	-0.05825886
53	0x3d8f200b	0.069885336
54	0x3caee5fa	0.021349896
55	0xbd1bbc06	-0.03802111
56	0x3dd318a7	0.103074364
57	0xbd06cdbf	-0.03291106
58	0x3d560445	0.052250165
59	0x3db69d6c	0.089167446
60	0x3d12b8ff	0.035820957
61	0x3d31ec25	0.043438096
62	0x3d6092d8	0.05482754
63	0xbdaf2a5a	-0.08553

network.1.conv2.conv.weight f4 [64, 64, 3]
0	0xbe7610e5	-0.24029882
1	0xbd7a103f	-0.06105065
2	0x3dfe24d1	0.12409366
3	0x3ed76bde	0.42074484
4	0xbe07b999	-0.13254394
5	0xbebcf60b	-0.36906466
6	0x3efb7137	0.49109814
7	0x3e97cefb	0.296501
8	0x3ec3b88e	0.38226742
9	0xbdfc3cb9	-0.123162694
10	0x3dcf4c14	0.101219326
11	0x3eab1045	0.3341085
12	0x3dd5ecfd	0.104455926
13	0x3e638f47	0.22222625
14	0x3d82f8e3	0.063951276
15	0xbea96fe9	-0.33093193
16	0xbe9ce93e	-0.306467
17	0xbe85f570	-0.26163816
18	0xbe3c9cb1	-0.18419148
19	0xbdff58cc	-0.124681085
20	0xbd0a2b60	-0.033732772
21	0xbe046e82	-0.1293278
22	0x3dc37838	0.09544414
23	0x3d8084f0	0.06275356
24	0xbe12631d	-0.14295621
25	0xbe737712	-0.2377589
26	0x3d6f0509	0.05835441
27	0xbea292c0	-0.31752586
28	0xbe44aca7	-0.19206487
29	0xbea01e7a	-0.31273252
30	0x3ea25584	0.31705868
31	0xbe53c3d9	-0.20680179
32	0xbebb4abd	-0.36580458
33	0x3e7d3c04	0.24729925
34	0xbc852ebd	-0.016257638
35	0xbdd3fd57	-0.10351055
36	0x3e89b15b	0.26893124
37	0x3ed3be6d	0.4135622
38	0x3eab1bbc	0.33419597
39	0xbf3d48ff	-0.7393951
40	0xbf176471	-0.59137636
41	0xbf0d2528	-0.5513482
42	0x3e8b78cf	0.27240607
43	0xbee4d93e	-0.44696993
44	0xbe4f0ce0	-0.20219755
45	0xbe30f2ae	-0.17280075
46	0x3d52e69e	0.051489465
47	0x3e0a0db5	0.13481791
48	0xbda48580	-0.080332756
49	0xbeb09a53	-0.3449274
50	0x3e353b95	0.1769851
51	0x3db200ac	0.086915344
52	0x3c30a741	0.010782064
53	0x3dc0d44d	0.09415493
54	0xbe2a47ce	-0.16628954
55	0x3dd8e1fa	0.105899766
56	0xbcc55fca	-0.024093527
57	0x3d61f775	0.055167634
58	0x3e316f86	0.17327699
59	0xbec5f9e1	-0.38667205
60	0xbe578db7	-0.21050154
61	0xbd96c4d0	-0.07361758
62	0x3cae942e	0.021310892
63	0xbe33bece	-0.17553255
64	0xbe93a87e	-0.28839487
65	0xbe770eca	-0.24126735
66	0x3eafdb4c	0.34346998
67	0xbd9559ce	-0.072925195
68	0x3d3a12d5	0.045428116
69	0x3ea9e8ad	0.3318533
70	0x3e9b378a	0.3031581
71	0x3eca183d	0.39471617
72	0x3eeffb75	0.46871534
73	0x3e455e5f	0.19274281
74	0x3e2ea950	0.17056775
75	0x3e2fbed8	0.17162645
76	0x3eac8a3e	0.3369922
77	0x3c21f81f	0.009885817
78	0xbd8454f4	-0.06461516
79	0xbe7c0a80	-0.2461338
80	0xbe9d1375	-0.30678907
81	0xbd13c0ce	-0.036072545
82	0xbd40340b	-0.046924632
83	0x3e4c959b	0.19978945
84	0xbe82be06	-0.255356
85	0x3ec98188	0.39356637
86	0xbddf04de	-0.108896
87	0xbd2b7ec6	-0.041868947
88	0xbe73192c	-0.23740071
89	0xbde32fa5	-0.11093072
90	0x3e409819	0.1880802
91	0xbe0895f3	-0.13338451
92	0xbdb5c881	-0.08876134
93	0xbd5a9817	-0.0533677
94	0x3c0af239	0.008480602
95	0x3cde1b90	0.027112752
96	0x3f09b986	0.5379871
97	0x3d74d167	0.059770014
98	0x3dc87657	0.097881965
99	0x3e8ee721	0.27910712
100	0x3e541360	0.20710516
101	0x3e381ec7	0.1798049
102	0xbe8eddb4	-0.2790352
103	0x3d06948f	0.03285652
104	0xbde94899	-0.113908
105	0x3da44114	0.08020225
106	0x3d054be2	0.03254307
107	0x3cb13aae	0.021634426
108	0x3f171622	0.59018147
109	0xbe0cd182	-0.13751796
110	0xbea1992f	-0.31562182
111	0x3d25f332	0.040515132
112	0xbe977633	-0.29582366
113	0xbdb3b40d	-0.08774576
114	0x3e064042	0.1311045
115	0xbdd5de0b	-0.10442742
116	0xbd127fdb	-0.035766464
117	0xbe46c590	-0.19411302
118	0x3e4c3f60	0.1994605
119	0x3e1e42f9	0.15455236
120	0x3e391f95	0.18078454
121	0x3eaeec63	0.34164724
122	0x3e95e72a	0.29277927
123	0xbe01c60a	-0.12673202
124	0xbcae2268	-0.02125664
125	0x3df734d5	0.12070624
126	0xbf3286b4	-0.6973679
127	0xbec5c77b	-0.38628754
128	0xbf678865	-0.90442497
129	0x3ee5d5a5	0.4488956
130	0x3e611421	0.21980335
131	0x3f101927	0.5628838
132	0x3d9b2e4b	0.07577189
133	0x3e56359c	0.20918888
134	0x3dffb403	0.124855064
135	0x3dc238b8	0.094834745
136	0x3d737dd9	0.05944619
137	0xbe184d5e	-0.14873263
138	0xbeeb7a8f	-0.45991942
139	0xbf616db7	-0.88058037
140	0xbf801234	-1.0005555
141	0x3e52233b	0.20521252
142	0xbf25c320	-0.6475086
143	0xbf247978	-0.64247847
144	0xbea9c652	-0.3315912
145	0xbe1df52f	-0.15425561
146	0xbd98ca6a	-0.074604824
147	0xbe275da4	-0.16344315
148	0xbee6d150	-0.45081568
149	0xbed6fefd	-0.41991416
150	0x3e9ab486	0.30215853
151	0x3ea3b605	0.31974807
152	0x3f0004ad	0.50007135
153	0x3d514e8d	0.051100302
154	0x3cc9860f	0.024600057
155	0x3d40f43c	0.04710792
156	0xbe8ad1ca	-0.2711318
157	0xbf24c108	-0.6435704
158	0xbecf4a56	-0.404864
159	0x3e89c987	0.26911566
160	0x3eff9fd6	0.49926633
161	0x3eeb6e0c	0.45982397
162	0xbed8a0b4	-0.42310107
163	0x3e0e8233	0.13916855
164	0xbea0c3d9	-0.3139942
165	0x3efacd9c	0.48984993
166	0x3e2e9f42	0.1705294
167	0x3ccf5a6c	0.025311671
168	0x3e15a4d7	0.14613663
169	0x3df5bab6	0.11998503
170	0xbe2bbc3b	-0.16771023
171	0x3db06282	0.08612539
172	0x3e76b3cd	0.24092026
173	0x3d8a964a	0.067669466
174	0xbd8f4b0b	-0.06996735
175	0x3f0910eb	0.5354144
176	0x3e5d3a08	0.21604168
177	0xbe6d6d35	-0.2318619
178	0xbe9c5b41	-0.3053837
179	0x3dcfbc8f	0.101433866
180	0xbf1abc79	-0.60443836
181	0xbec677b0	-0.3876319
182	0xbe806fc2	-0.25085264
183	0x3e559c85	0.20860489
184	0x3e781746	0.24227628
185	0x3e58a38d	0.2115614
186	0x3f12f22e	0.57400787
187	0x3e511517	0.20418201
188	0x3e16c68d	0.14724179
189	0xbe7e1499	-0.24812545
190	0xbde527ed	-0.11189256
191	0xbef60fac	-0.48058832
192	0x3e757e81	0.23974039
193	0x3e76a5f6	0.24086747
194	0x3ea254bf	0.3170528
195	0xbd4fb8f8	-0.05071351
196	0xbe95b2c3	-0.29237947
197	0xbe29926c	-0.16559762
198	0x3ea06f5b	0.31334957
199	0x3eac3919	0.33637312
200	0x3dd03d1f	0.10167908
201	0xbc80a842	-0.015705232
202	0x3df058c7	0.11735683
203	0x3e8d8a22	0.2764445
204	0xbcaa3b70	-0.020780295
205	0xbe5d78f7	-0.21628176
206	0xbe943251	-0.28944638
207	0x3e5d433e	0.21607682
208	0x3e8b3b81	0.27193835
209	0x3e8f5985	0.27997985
210	0xbd93c0b0	-0.072144866
211	0xbdf5548f	-0.11979019
212	0xbe82b113	-0.25525722
213	0x3d4a6f68	0.04942265
214	0x3e2d7a46	0.16941175
215	0x3ea46dc9	0.3211501
216	0x3e2d00e8	0.16894877
217	0x3cf776b9	0.030207979
218	0x3e7f1e5c	0.24913925
219	0xbe6208b3	-0.22073631
220	0xbf420c4b	-0.7580001
221	0xbed23095	-0.4105269
222	0x3e16d5cd	0.14729996
223	0xbe5c26b6	-0.21499142
224	0x3d4e9fa7	0.050445225
225	0xbe70a7c0	-0.23501492
226	0xbf39fb4e	-0.72649086
227	0xbf1f9b4a	-0.6234633
228	0x3ce60625	0.028079102
229	0x3e875703	0.26433572
230	0x3e07fd8d	0.13280316
231	0xbdd84a7b	-0.10561081
232	0xbea4691a	-0.32111436
233	0xbeec6042	-0.4616719
234	0xbe9d3533	-0.3070465
235	0xbf36ca4c	-0.7140243
236	0xbedc5776	-0.43035477
237	0xbec5e432	-0.38650662
238	0xbeb78ed5	-0.3585116
239	0xbe87f8fc	-0.26557148
240	0xbedfa7fb	-0.43682846
241	0xbe293830	-0.1652534
242	0x3e936ac0	0.2879238
243	0xbef6738f	-0.4813504
244	0xbf0b2b8c	-0.5436332
245	0xbe802b6a	-0.25033122
246	0xbf11b2ad	-0.5691326
247	0xbf352ef2	-0.7077476
248	0xbeeaf8b0	-0.45892859
249	0xbe6182e8	-0.22022593
250	0x3d2d3754	0.042289093
251	0xbe3e9864	-0.1861282
252	0xbd47da43	-0.048792135
253	0x3de610a4	0.11233643
254	0x3e46eea6	0.19426975
255	0xbf0e42a9	-0.55570465

network.1.conv2.conv.bias f4 [64]
0	0xbb063a8c	-0.0020481674
1	0xbcceb417	-0.025232358
2	0x3cea8b14	0.02863077
3	0x3c8237b0	0.015895694
4	0x3d91fab6	0.071278974
5	0xbb6ca253	-0.0036107495
6	0xbd3c7408	-0.046009094
7	0xbd728a22	-0.059213765
8	0x3d1ac777	0.03778788
9	0x3d5de5f3	0.054174375
10	0x3d0ce22e	0.03439539
11	0xbd74b9cc	-0.059747502
12	0x3c95c1c2	0.018280867
13	0xbd8e77cf	-0.069564454
14	0xbd40268e	-0.04691177
15	0xbd2eeef2	-0.042708345
16	0xbc9a2657	-0.01881711
17	0xbd8c188f	-0.06840622
18	0xba874bcd	-0.0010322273
19	0xbd68069d	-0.056646932
20	0xbd1ef585	-0.038808364
21	0x3d56fa0c	0.052484557
22	0x3d848961	0.064715154
23	0xbd812d7e	-0.06307505
24	0x3c31c824	0.01085094
25	0xbd2c934b	-0.042132657
26	0xbce5c61a	-0.028048564
27	0x3c8a2c13	0.01686672
28	0x3ca808a0	0.020511925
29	0x3d916e16	0.07101075
30	0xbc90fdda	-0.01769917
31	0x3b92198e	0.0044586128
32	0xbd551fa1	-0.052032117
33	0x3c67a699	0.014138841
34	0xbcdc2e49	-0.02687754
35	0x3cb706ae	0.022342052
36	0x3d86d898	0.06584281
37	0xbd17b467	-0.03703728
38	0xbbafdd14	-0.0053669307
39	0xbd831cd3	-0.06401982
40	0x3b4bcb27	0.003109643
41	0xbcaa617d	-0.02079844
42	0x3cf989ae	0.030461159
43	0xbd65edc0	-0.05613494
44	0xbcb5ef92	-0.022208963
45	0x3d8bb093	0.06820788
46	0x3d602961	0.054726962
47	0x3cb2254c	0.0217463
48	0xbd6831c5	-0.05668809
49	0x3c9d2098	0.019180581
50	0xbcdc2b3c	-0.026876085
51	0x3d724f30	0.05915755
52	0xbc5cd151	-0.013477639
53	0xbd3d7721	-0.04625619
54	0x3afa612d	0.0019102447
55	0x3ce86b85	0.028371582
56	0x3d198db4	0.037488654
57	0x3d4666cf	0.04843789
58	0xbd8afc38	-0.06786388
59	0x3cd1fa6c	0.025632106
60	0x3c78cbca	0.015185306
61	0x3d18989f	0.037254926
62	0x3d366389	0.044528518
63	0xbbfd2297	-0.0077250707

network.1.bn1.weight f4 [64]
0	0x3f5b752a	0.85725653
1	0x3f7b7ac1	0.9823418
2	0x3f7a43d4	0.9775975
3	0x3f82e29b	1.0225405
4	0x3f527c8f	0.8222131
5	0x3f55c956	0.8351034
6	0x3f89f5be	1.077812
7	0x3f5b6c1c	0.85711837
8	0x3f4c7748	0.7986951
9	0x3f3078e6	0.68934476
10	0x3f83e9e0	1.0305748
11	0x3fa9347a	1.321914
12	0x3f70357d	0.93831617
13	0x3f68494f	0.9073686
14	0x3f81cb31	1.0140134
15	0x3f4edec9	0.80808693
16	0x3f67de33	0.90573424
17	0x3f77bb5f	0.9677028
18	0x3f761388	0.9612355
19	0x3f73f12d	0.9528988
20	0x3f826a2c	1.0188651
21	0x3f598da8	0.84981775
22	0x3f9f711a	1.2456391
23	0x3f4ed346	0.8079113
24	0x3f697848	0.9119916
25	0x3f878bbd	1.058952
26	0x3f5d663f	0.8648414
27	0x3f5fe5e0	0.87460136
28	0x3f887ddf	1.0663413
29	0x3f4d7eb1	0.8027144
30	0x3f7cd69f	0.98764986
31	0x3f9436cc	1.1579223
32	0x3f49d4d7	0.7884039
33	0x3f30d0f5	0.69068843
34	0x3f6535bf	0.89535135
35	0x3f6ce273	0.92533034
36	0x3f5ec457	0.8701834
37	0x3f65bd20	0.89741707
38	0x3f6617f7	0.8988032
39	0x3f4258a2	0.7591649
40	0x3f83fa91	1.0310842
41	0x3f7f0c38	0.9962802
42	0x3f4e73c1	0.80645376
43	0x3f8358cf	1.0261477
44	0x3f5d5614	0.8645947
45	0x3f47c1e1	0.7803021
46	0x3f87f1ea	1.0620701
47	0x3f9392e6	1.1529205
48	0x3f3a2285	0.7270892
49	0x3f78869a	0.97080386
50	0x3f7632c7	0.9617123
51	0x3f7f7019	0.9978042
52	0x3f6d00e3	0.9257948
53	0x3f75968f	0.9593286
54	0x3f6032c6	0.87577474
55	0x3fb4b0bc	1.4116435
56	0x3f80a30f	1.0049762
57	0x3f8fc8bb	1.1233133
58	0x3f7f3ae3	0.9969923
59	0x3f681cec	0.9066913
60	0x3f61b270	0.881629
61	0x3f751a6a	0.9574343
62	0x3f9b0b5b	1.211284
63	0x3f67e25d	0.9057978

network.1.bn1.bias f4 [64]
0	0xbed179f6	-0.4091336
1	0xbece6bf4	-0.40316737
2	0xbee6c989	-0.45075634
3	0xbf17e003	-0.5932619
4	0xbe9ffed7	-0.31249115
5	0xbe9150b6	-0.2838189
6	0xbf22b5df	-0.63558763
7	0xbf0766f2	-0.5289146
8	0xbed9afaf	-0.42516848
9	0xbee4bfd8	-0.44677615
10	0xbeca797d	-0.39545813
11	0xbf12246f	-0.57086843
12	0xbeff8e5d	-0.49913302
13	0xbee20647	-0.44145414
14	0xbea6210c	-0.32447088
15	0xbe89675b	-0.26836666
16	0xbf1bf659	-0.6092277
17	0xbf3e1ffa	-0.7426754
18	0xbe7982b7	-0.2436627
19	0xbea38684	-0.31938565
20	0xbee5f685	-0.44914642
21	0xbeda1fd1	-0.426024
22	0xbec88e0a	-0.39170867
23	0xbee50e98	-0.44737697
24	0xbf225932	-0.6341735
25	0xbf03b0f3	-0.5144188
26	0xbee3f8b2	-0.44525677
27	0xbee80ab2	-0.4532066
28	0xbef1c29f	-0.47218797
29	0xbee2d22f	-0.44300982
30	0xbf02d1bc	-0.5110128
31	0xbefdb343	-0.49550828
32	0xbe9dbdf2	-0.3080898
33	0xbeaa9743	-0.3331853
34	0xbe9ceac6	-0.30647868
35	0xbeefa2a9	-0.46803787
36	0xbed86603	-0.4226533
37	0xbec30321	-0.38088325
38	0xbf09f23e	-0.5388526
39	0xbe32424b	-0.17408101
40	0xbf1e233e	-0.61772525
41	0xbf04d291	-0.518838
42	0xbedc2666	-0.42998046
43	0xbf1c6c21	-0.6110249
44	0xbedbc2ee	-0.42922157
45	0xbea3d994	-0.32001936
46	0xbf360eff	-0.7111663
47	0xbf33365a	-0.7000481
48	0xbeb87212	-0.3602453
49	0xbeeae6da	-0.4587925
50	0xbf05dc11	-0.5228892
51	0xbf045c61	-0.5170346
52	0xbf11d642	-0.56967556
53	0xbf0209c7	-0.5079617
54	0xbea41c6e	-0.3205294
55	0xbf2086a9	-0.62705475
56	0xbf15fb3d	-0.58586484
57	0xbeef3a3d	-0.4672412
58	0xbeb1d219	-0.34730604
59	0xbee19a9c	-0.4406327
60	0xbea1e820	-0.3162241
61	0xbeea8783	-0.45806512
62	0xbee03bfa	-0.43795758
63	0xbec02f43	-0.37536058
