results/bilstm/bilstm_model.pth (torch, 573559 bytes, 18 tensors)

lstm.weight_ih_l0 f4 [256, 18]
0	0x3d53979c	0.051658258
1	0xbdb5f9d5	-0.08885542
2	0xbe626a8b	-0.22110955
3	0xbe21471c	-0.15749782
4	0xbdc13462	-0.09433819
5	0xbd913927	-0.07090979
6	0xbe0cd6c0	-0.13753796
7	0xbe90b505	-0.28263107
8	0xbe72c3e2	-0.23707536
9	0xbe755cf2	-0.23961237
10	0x3df05f38	0.117369115
11	0xbecc1eec	-0.39867342
12	0xbead1d6c	-0.3381151
13	0xbdf1ee97	-0.118130855
14	0xbf0a200d	-0.53955156
15	0xbe88cdcb	-0.26719508
16	0xbf1339c7	-0.57510036
17	0xbee3e72a	-0.44512302
18	0xbdfbd216	-0.1229593
19	0x3f69e4fc	0.9136503
20	0x3d9aa78e	0.0755149
21	0x3efacfc0	0.48986626
22	0xbe599017	-0.21246372
23	0xbeb9c63d	-0.36284056
24	0xbdfbb2a1	-0.1228993
25	0xbf106efc	-0.5641935
26	0x3ada6d23	0.0016664605
27	0xbf0a4f26	-0.5402702
28	0xbd9cd855	-0.076584496
29	0xbee80fbb	-0.453245
30	0xbd95db78	-0.07317251
31	0xbf06051f	-0.52351564
32	0x3e68c06f	0.22729658
33	0xbef4c0a4	-0.47803223
34	0x3d35133e	0.044207804
35	0xbee3f90a	-0.4452594
36	0x3eefc880	0.46832657
37	0x3db5914f	0.08865606
38	0x3d35cc0a	0.04438404
39	0xbdc3a4c5	-0.09552912
40	0x3de6a2e4	0.11261538
41	0xbeb040fb	-0.34424576
42	0xbed87194	-0.42274153
43	0xbed9ef68	-0.42565465
44	0xbf4310b9	-0.7619739
45	0xbe8a96c9	-0.27068165
46	0xbdf71313	-0.12064185
47	0x3e27c08d	0.16382046
48	0x3e7fc4b6	0.24977383
49	0xbeea6fc1	-0.45788386
50	0xbd082f78	-0.033248395
51	0xbe937f7f	-0.2880821
52	0xbe1dd29a	-0.1541237
53	0xbd4569dc	-0.04819666
54	0xbd6ddffa	-0.05807493
55	0xbe008aca	-0.12552944
56	0xbd81c109	-0.06335647
57	0xbe947388	-0.28994393
58	0xbed23ef5	-0.41063657
59	0xbf8b03ed	-1.0860573
60	0x3ccc418c	0.024933599
61	0xbf1884fe	-0.5957793
62	0xbed3b8a2	-0.413518
63	0xbde1f6a8	-0.11033374
64	0xbd13b604	-0.036062256
65	0xbde97b42	-0.11400463
66	0x3d92f19f	0.07174992
67	0x3ecd82c1	0.4013882
68	0xbf4ae1d5	-0.7925084
69	0xbeab8d15	-0.33506075
70	0x3e4f0ce1	0.20219757
71	0xbf0ae70f	-0.5425882
72	0xbe944743	-0.28960618
73	0xbe08cfa5	-0.1336046
74	0xbf7ac17e	-0.97951496
75	0xbf26b746	-0.65123403
76	0xbcd56b74	-0.026052214
77	0x3e25208f	0.16125701
78	0xbe5471ea	-0.2074658
79	0xbf0c0027	-0.5468773
80	0xbeb71d53	-0.3576456
81	0x3d99f2ff	0.07517051
82	0x3ec78dff	0.38975522
83	0xbf0c4008	-0.54785204
84	0x3e4a72a6	0.19770297
85	0x3e3a8614	0.18215209
86	0x3dfe084c	0.12403926
87	0xbe6209a9	-0.22073998
88	0xbf33ac5a	-0.7018486
89	0xbe374f58	-0.17901361
90	0xbe04bfbf	-0.1296377
91	0xbe5ffeb6	-0.21874508
92	0xbe974709	-0.29546383
93	0x3f1a25ba	0.60213816
94	0xbe7c2ed2	-0.24627236
95	0xbe39642a	-0.18104616
96	0x3d2c78c1	0.042107347
97	0x3e280591	0.16408373
98	0xbdf049ec	-0.117328495
99	0xbe9d133e	-0.30678743
100	0x3e397566	0.1811119
101	0xbe932929	-0.2874234
102	0xbebe0e37	-0.3712022
103	0xbe825b4a	-0.25460273
104	0xbd79a843	-0.060951483
105	0xbef67015	-0.48132387
106	0xbdd0ff9d	-0.10205004
107	0xbe3594bb	-0.17732517
108	0xbea67912	-0.32514244
109	0xbe1888eb	-0.1489598
110	0x3e41e223	0.1893392
111	0xbe86bad5	-0.26314417
112	0x3e504604	0.20339209
113	0xbe8b7c0d	-0.2724308
114	0x3e86ffd5	0.2636706
115	0xbd3a76dd	-0.045523513
116	0x3e72a8c9	0.23697199
117	0xbe4cf57d	-0.20015521
118	0x3ddc175b	0.10746642
119	0x3d1767a2	0.036964066
120	0xbe5b1777	-0.2139567
121	0x3d0ba22e	0.034090213
122	0xbce0cfc5	-0.027442822
123	0xbb173ca2	-0.0023076911
124	0xbee60eda	-0.44933206
125	0xbc2b5ff8	-0.010459892
126	0xbe78f4e0	-0.24312162
127	0xbf04eb83	-0.5192186
128	0x3e3dfbc1	0.18553068
129	0xbf13def0	-0.5776205
130	0xbe797ee2	-0.24364808
131	0xbda30dd6	-0.07961623
132	0xbf3d099a	-0.73842776
133	0x3d128937	0.03577539
134	0xbed6f178	-0.419811
135	0xbe8f0794	-0.2793547
136	0xbed5be28	-0.4174664
137	0xbf0e7f6a	-0.5566317
138	0x3e6bbed5	0.23022015
139	0xbe8178c9	-0.25287464
140	0x3d466c25	0.04844298
141	0xbf208498	-0.6270232
142	0x3bef98ae	0.007311902
143	0xbea2f460	-0.31827068
144	0xbe2ca46a	-0.16859594
145	0xbf19b305	-0.6003879
146	0x3eb5fab0	0.35542822
147	0x3e6d5e76	0.23180565
148	0xbda14c79	-0.07875914
149	0xbe8ef3b2	-0.279203
150	0x3c393ae7	0.011305547
151	0x3d31f608	0.043447524
152	0xbd7fd8b7	-0.062462535
153	0xbee4a38c	-0.44656026
154	0x3ed7cf63	0.4215041
155	0xbf07d6b5	-0.5306199
156	0xbe872a96	-0.26399678
157	0xbea52847	-0.32257292
158	0x3e08669f	0.13320397
159	0xbef6294c	-0.48078382
160	0x3e9214f4	0.2853161
161	0xbdfc7e88	-0.123288214
162	0x3d3dd588	0.046346217
163	0x3dafd3d0	0.08585322
164	0x3ea345ed	0.31889287
165	0x3d60eab6	0.054911338
166	0x3d9b36f0	0.07578838
167	0x3e8f8b05	0.2803575
168	0x3e1dfe77	0.15429102
169	0xbeb459cd	-0.35224763
170	0xbdbd3d2f	-0.092401855
171	0xbea8696d	-0.32892933
172	0xbeb1fdda	-0.34763986
173	0x3e37d0b7	0.17950712
174	0x3c2692ce	0.010166837
175	0xbebff8ce	-0.3749451
176	0xbe7d5749	-0.24740328
177	0x3e7e7f65	0.24853285
178	0x3eb50b30	0.35360098
179	0xbe93fb31	-0.2890258
180	0x3e22082f	0.15823434
181	0x3d51f19b	0.051255804
182	0x3edc3493	0.4300886
183	0xbea74630	-0.32670736
184	0x3e5e248f	0.21693633
185	0x3e560e4e	0.20903894
186	0x3da83393	0.08212962
187	0xbe864523	-0.26224622
188	0xbe5c4e15	-0.21514161
189	0xbf7aad4f	-0.979207
190	0x3eacd1e1	0.33753875
191	0xbeb8d718	-0.36101604
192	0xbea3e2ba	-0.32008916
193	0xbf70a974	-0.94008565
194	0xbee1620b	-0.44020113
195	0xbf1a65f8	-0.6031184
196	0xbe4a6c1d	-0.19767804
197	0xbe4ed02f	-0.20196603
198	0x3ddb3069	0.10702593
199	0x3e6dd221	0.23224689
200	0xbe497184	-0.19672209
201	0x3d5d962b	0.05409829
202	0xbe83a101	-0.25708774
203	0xbb9b3cee	-0.004737488
204	0x3e7f4eb9	0.24932374
205	0xbe6b8948	-0.23001587
206	0xbed7c1b1	-0.42139962
207	0xbf89ed65	-1.0775572
208	0xbed971d5	-0.4246966
209	0xbf243625	-0.6414512
210	0x3dac0dca	0.084010676
211	0xbf76b7d0	-0.96374226
212	0x3c37b69e	0.011212973
213	0xbf23906c	-0.63892245
214	0x3e579b32	0.21055296
215	0xbe20adf4	-0.15691358
216	0xbe85b08d	-0.2611126
217	0xbf343c4b	-0.704045
218	0x3f2e972e	0.6819943
219	0x3e57cc8f	0.21074127
220	0xbe49ac36	-0.196946
221	0xbd1a17ea	-0.037620462
222	0xbeacb1b0	-0.33729315
223	0xbe33618d	-0.17517681
224	0xbf39a4c4	-0.7251704
225	0xbd666783	-0.05625106
226	0x3d58ce24	0.052930966
227	0x3dd7c1ea	0.10535033
228	0xbe435850	-0.19076657
229	0xbedf082a	-0.43560916
230	0xbe8e18c3	-0.27753267
231	0x3dc6b4ec	0.09702477
232	0x3df88aeb	0.121358715
233	0x3e29e444	0.16590983
234	0xbe6e5138	-0.2327317
235	0xbed5d0a0	-0.4176073
236	0xbf250a42	-0.6446878
237	0xbddd3d6e	-0.108027324
238	0x3c47d808	0.012197502
239	0x3da43699	0.08018226
240	0x3ee4e27d	0.44704047
241	0x3e3afbd0	0.18260121
242	0xbe835b6b	-0.25655684
243	0xbe9a40c3	-0.30127534
244	0xbeda9998	-0.42695308
245	0xbd56c801	-0.052436832
246	0x3e5facb7	0.21843229
247	0xbe80f354	-0.25185645
248	0x3d3c4903	0.045968067
249	0x3ea3ce0f	0.31993148
250	0xbe40ad75	-0.18816169
251	0xbe32bf8b	-0.1745588
252	0xbef59320	-0.4796381
253	0xbe06737e	-0.13129994
254	0xbec39894	-0.38202345
255	0xbde97651	-0.1139952

lstm.weight_hh_l0 f4 [256, 64]
0	0xbf5c60c7	-0.8608517
1	0xbf58e545	-0.8472484
2	0x3ed2f7d3	0.412047
3	0xbf916941	-1.1360246
4	0xbea70086	-0.32617587
5	0x3eac695e	0.3367414
6	0xbe84f16c	-0.2596544
7	0x3daf517a	0.08560462
8	0xbeb6d9b2	-0.35712963
9	0x3e62331e	0.22089812
10	0x3f046e5b	0.5173089
11	0xbf7b929f	-0.982706
12	0xbf12a877	-0.57288307
13	0xbe509ea4	-0.20373017
14	0xbe5a246f	-0.21302961
15	0x3ed6509b	0.41858372
16	0x3f2970a2	0.6618749
17	0xbde4fe5e	-0.11181329
18	0xbd090659	-0.03345332
19	0xbf58475d	-0.8448389
20	0x3ded562b	0.11588701
21	0xbee6a7b3	-0.4504982
22	0x3f533216	0.824983
23	0xbe4e9939	-0.20175637
24	0xbea9ec3a	-0.3318804
25	0x3e88afde	0.26696676
26	0xbdeb116c	-0.11477932
27	0xbec6c037	-0.38818523
28	0xbbe0799c	-0.0068504345
29	0x3dc9ed02	0.09859659
30	0xbf2a3602	-0.6648866
31	0x3ee5c704	0.448784
32	0x3e036e44	0.12835032
33	0xbeec52e6	-0.46156996
34	0x3edd0507	0.43167898
35	0x3e79c2b9	0.24390687
36	0x3eb4996e	0.35273308
37	0x3f98ce19	1.1937896
38	0x3e9b3340	0.30312538
39	0x3f473394	0.77813077
40	0x3f08dca4	0.5346167
41	0x3ed03a1f	0.40669343
42	0xbf6ef05b	-0.93335503
43	0xbdb138c0	-0.08653402
44	0xbe885d66	-0.26633757
45	0x3e8aaafa	0.2708357
46	0xbe8bae2d	-0.27281323
47	0x3ecad2e5	0.39614025
48	0x3c5030f7	0.012706987
49	0xbecfc2a2	-0.4057818
50	0xbe9b6b13	-0.3035513
51	0x3f5e8d05	0.8693393
52	0xbe07012e	-0.13184044
53	0xbe39e04f	-0.18151973
54	0x3e94edf9	0.2908781
55	0x3ed8264a	0.42216712
56	0xbeb16238	-0.34645247
57	0xbe154cf9	-0.14580144
58	0x3e00acc0	0.12565899
59	0x3dd021c0	0.10162687
60	0xbeb48720	-0.35259342
61	0xbf4412af	-0.7659101
62	0xbea1a626	-0.31572074
63	0x3f1d7d3b	0.6151921
64	0xbeb09be1	-0.34493926
65	0x3dd46616	0.10371034
66	0x3e1525ff	0.14565276
67	0x3e6bb44e	0.23018
68	0x3e61f0c2	0.22064498
69	0x3e45d712	0.19320324
70	0xbdce78b2	-0.100816146
71	0xbe9a46f6	-0.30132264
72	0xbef65f81	-0.4811974
73	0x3d3ed94f	0.04659396
74	0xbdff4f4c	-0.124662966
75	0xbe55b6b4	-0.20870477
76	0xbf7bf48a	-0.9842001
77	0xbeca13ff	-0.3946838
78	0xbddf9c4f	-0.109184854
79	0x3d219bb8	0.039455146
80	0xbe7e2eb5	-0.24822505
81	0xbe262cff	-0.16228102
82	0xbf4f2a36	-0.80923784
83	0x3e47291c	0.19449276
84	0x3ec86da7	0.39146158
85	0x3e1460a3	0.14489989
86	0x3f1ee786	0.62072027
87	0x3f337b34	0.7010987
88	0xbe867103	-0.26258096
89	0xbde5358c	-0.11191854
90	0xbeb8bbe1	-0.3608084
91	0xbdda32e5	-0.106542386
92	0xbeac26c0	-0.33623314
93	0xbe86367d	-0.26213446
94	0xbf0b4126	-0.54396284
95	0xbe255fb3	-0.16149788
96	0xbe325125	-0.17413767
97	0x3e41ca96	0.18924937
98	0x3e905891	0.2819257
99	0x3f09d47c	0.5383985
100	0x3e81c8ca	0.25348502
101	0x3ee5d557	0.44889328
102	0xbea57933	-0.3231903
103	0xbddf18c5	-0.10893396
104	0x3e6a3468	0.22871554
105	0x3eb35e7a	0.35033017
106	0x3eb8a862	0.36065966
107	0xbdc05282	-0.09390737
108	0xbeb6f8f0	-0.357368
109	0x3c42e802	0.011896135
110	0xbed35baa	-0.41280872
111	0xbdea3765	-0.11436347
112	0x3dabd04e	0.0838934
113	0x3f033cbe	0.5126456
114	0x3e8f1863	0.27948293
115	0xbec9647b	-0.39334473
116	0x3d67d6df	0.0566014
117	0xbf0ec761	-0.5577298
118	0xbf04d2ad	-0.51883966
119	0x3f915d39	1.1356574
120	0x3f86e0d8	1.0537367
121	0xbf1ec2cd	-0.6201599
122	0xbe6c870e	-0.23098394
123	0x3e7aeca8	0.2450434
124	0x3efa4df5	0.48887601
125	0xbc88e8bd	-0.01671254
126	0x3f4da88f	0.80335325
127	0xbda27521	-0.07932497
128	0x3e8b00a6	0.27148932
129	0x3f0a2d76	0.5397562
130	0x3ef1f897	0.47259971
131	0xbf488828	-0.7833276
132	0x3e5c3e9e	0.21508262
133	0x3e4d66e5	0.20058782
134	0xbf22a712	-0.6353618
135	0x3e679578	0.22615612
136	0xbda27d8e	-0.07934104
137	0x3eb76210	0.35817003
138	0xbebb0e2b	-0.36534247
139	0x3ea73b96	0.32662648
140	0xbf0f69d5	-0.5602086
141	0xbe0fc731	-0.14040829
142	0x3eae066e	0.3398928
143	0xbec45071	-0.38342622
144	0xbdda24ff	-0.10651588
145	0x3c70579a	0.014669323
146	0xbf296f8c	-0.6618583
147	0x3e7f2ec9	0.24920191
148	0xbeffe0b7	-0.4997613
149	0xbeac34ce	-0.33634037
150	0xbea00b22	-0.31258494
151	0x3ef637c6	0.48089427
152	0x3eee282f	0.46515033
153	0x3e215768	0.15755999
154	0x3d82d670	0.06388557
155	0xbe3f05e9	-0.18654598
156	0x3e561014	0.20904571
157	0x3d8c3708	0.06846434
158	0xbf4d5533	-0.8020813
159	0xbdd83761	-0.10557438
160	0xbe5b2de0	-0.21404219
161	0xbe2033fe	-0.15644833
162	0xbe503f37	-0.20336615
163	0xbf3b97fb	-0.7327878
164	0xbcd8d9e5	-0.026471088
165	0xbf038985	-0.51381713
166	0x3df37ad2	0.118886605
167	0xbef131fc	-0.47108448
168	0xbf5cba29	-0.8622156
169	0xbd93423e	-0.07190369
170	0x3eaefa62	0.34175402
171	0x3f19be48	0.6005597
172	0x3d86d1ca	0.06582983
173	0x3d7da862	0.06192816
174	0x3f3a524b	0.7278182
175	0xbf1cdecb	-0.61277455
176	0x3f13d0d3	0.57740515
177	0x3dd4b051	0.10385192
178	0x3f08c779	0.5342937
179	0xbee64bae	-0.44979614
180	0x3ddb89ea	0.107196644
181	0xbea1fa55	-0.316363
182	0xbedf8030	-0.43652487
183	0x3e34af62	0.17645028
184	0xbd887548	-0.066629946
185	0x3f3a8616	0.7286085
186	0xbe5edd29	-0.21764053
187	0x3f141ce1	0.57856566
188	0xbf0a2c86	-0.5397419
189	0x3e7c9954	0.24667865
190	0x3f038a0f	0.51382536
191	0x3e8eada4	0.27866852
192	0xbdb72474	-0.089425
193	0x3dbb3d5c	0.09142563
194	0xbeff4262	-0.49855334
195	0x3e97916c	0.29603136
196	0x3e1fe6b5	0.15615351
197	0x3f04f0ab	0.5192973
198	0x3ebfc7bb	0.3745707
199	0xbe9ee540	-0.3103428
200	0xbe8ca7ba	-0.27471715
201	0x3f5330c2	0.82496274
202	0xbeec314e	-0.46131366
203	0xbe67ca6a	-0.22635809
204	0xbf1ac795	-0.6046079
205	0x3b19b41f	0.0023453308
206	0x3eb1c52a	0.34720737
207	0xbe899571	-0.26871827
208	0xbf163890	-0.5868006
209	0x3f0ba812	0.5455333
210	0xbecedf72	-0.4040485
211	0x3f78cb1f	0.9718494
212	0xbc18b779	-0.009321087
213	0xbe8f3f4e	-0.27977985
214	0xbe2a6498	-0.16639936
215	0x3eab1686	0.33415622
216	0xbef55eab	-0.47923788
217	0x3f0bf3e7	0.5466904
218	0x3c9493c1	0.01813686
219	0xbe58692d	-0.21133871
220	0xbe8835a7	-0.26603433
221	0xbeffab87	-0.49935552
222	0x3e3b8071	0.18310715
223	0x3e906341	0.28200725
224	0xbf0bf24a	-0.5466658
225	0x3e950bf2	0.29110676
226	0x3e0f716b	0.1400811
227	0x3aec0eb0	0.0018009748
228	0x3ea0e257	0.31422684
229	0x3eff18a7	0.49823496
230	0xbe8dd96c	-0.27704942
231	0x3f0cd150	0.55006886
232	0x3eb00d0d	0.34384957
233	0xbecbe206	-0.3982088
234	0x3e1bad81	0.15202905
235	0xbe9feaa9	-0.3123372
236	0xbf1e6c13	-0.6188366
237	0x3f89ba9b	1.0760072
238	0x3e599567	0.21248399
239	0x3e9e40cc	0.3090881
240	0xbea93f93	-0.33056316
241	0x3e24ebdb	0.16105597
242	0x3d94d8b2	0.07267894
243	0xbd757d53	-0.05993397
244	0x3ef0774e	0.46966022
245	0x3e1dbf46	0.15404996
246	0xbe4c70b9	-0.19964875
247	0x3eda19d8	0.42597842
248	0xbce6d9fc	-0.028180115
249	0x3f2bf514	0.67170835
250	0xbd913ec9	-0.070920534
251	0x3e58ec04	0.21183783
252	0x3dda9fd1	0.10675014
253	0x3e8786af	0.26469943
254	0x3eb554e6	0.35416335
255	0x3f13f1df	0.5779094

lstm.bias_ih_l0 f4 [256]
0	0xbe9bb0f0	-0.3040843
1	0xbe57d230	-0.21076274
2	0xbe0b6658	-0.1361326
3	0xbe4936cc	-0.1964981
4	0x3e40afcd	0.18817063
5	0x3cdb8b43	0.026799804
6	0x3d694859	0.05695376
7	0xbdf291d9	-0.118442245
8	0xbd2f49de	-0.042795055
9	0xbe4daccf	-0.20085452
10	0x3d87caf0	0.06630504
11	0xbde93233	-0.11386528
12	0xbe31e9e8	-0.17374384
13	0xbc75aeeb	-0.014995317
14	0xbd7d9c1f	-0.061916467
15	0xbdcbd55f	-0.09952807
16	0xbd0dccca	-0.03461913
17	0xbdf5652c	-0.11982188
18	0xbdb80c7e	-0.08986758
19	0xbeb0c2fd	-0.34523764
20	0x3d78f1d4	0.0607775
21	0xbc704832	-0.01466565
22	0xbd679407	-0.056537654
23	0x3d366993	0.044534277
24	0xbbcf023b	-0.0063174046
25	0xbe6ea00a	-0.23303238
26	0xbea39ccb	-0.3195556
27	0xbdc99a48	-0.0984388
28	0xbdc14acf	-0.09438097
29	0x3a30a15c	0.00067379116
30	0xbdad236d	-0.084540226
31	0x3e650105	0.2236367
32	0x3e382ac7	0.17985068
33	0x3de3cf83	0.11123564
34	0xbddd5e25	-0.10808972
35	0x3d53333f	0.051562544
36	0x3c3e177b	0.011602278
37	0x3c982394	0.018571652
38	0xbe5e9e16	-0.21739992
39	0xbdd952e7	-0.106115155
40	0xbb391998	-0.0028244015
41	0x3d0fd1d6	0.035112225
42	0xbdaae812	-0.08345045
43	0x3d139d4c	0.036038682
44	0xbe4b0f3f	-0.19830035
45	0x3d99f65a	0.07517691
46	0xbe3b4aa0	-0.18290186
47	0xbe15fabc	-0.14646429
48	0xbd3f3229	-0.046678696
49	0xbd7680f1	-0.06018156
50	0x3df1f7c2	0.11814834
51	0x3e017ca7	0.12645207
52	0xbdd09a28	-0.10185653
53	0x3d6e6350	0.05820018
54	0xbe165fb5	-0.14684947
55	0xbdf01518	-0.11722773
56	0x3e0accab	0.13554637
57	0xbd286f6c	-0.041121885
58	0xbdcb837e	-0.099371895
59	0xbe4c1171	-0.19928528
60	0xbe169e5d	-0.14708848
61	0xbdeb920e	-0.11502467
62	0xbe89cb4c	-0.26912916
63	0xbc267e9b	-0.010162021
64	0xbde1a123	-0.110170625
65	0xbe438e73	-0.19097309
66	0x3e959063	0.2921172
67	0x3d36c14f	0.044617947
68	0x3e802b4a	0.25033027
69	0x3ee4f958	0.44721484
70	0x3efb60d6	0.49097317
71	0x3e1cf0d2	0.1532624
72	0x3dfe5757	0.124190025
73	0x3e487e30	0.19579387
74	0x3ee3c5b9	0.44486788
75	0xbca6e335	-0.020372013
76	0x3e70cef7	0.23516451
77	0x3f1ab317	0.6042952
78	0xbcb50909	-0.022099035
79	0x3e3efdf2	0.1865156
80	0x3e5ab3b5	0.21357615
81	0x3e44865c	0.19191879
82	0x3e6ace84	0.22930342
83	0x3ded8a04	0.1159859
84	0x3e703d21	0.23460819
85	0x3e749655	0.23885472
86	0xbd570e2b	-0.052503746
87	0x3e99bf4a	0.30028754
88	0x3e917214	0.28407347
89	0x3c41d832	0.01183133
90	0x3df3897f	0.1189146
91	0xbd4f3ee3	-0.050597083
92	0x3e4422b3	0.19153862
93	0xbd77d2aa	-0.06050364
94	0x3e3b753c	0.1830644
95	0x3cc9ea49	0.024647849
96	0x3edd081c	0.4317025
97	0x3e455f0e	0.19274542
98	0x3e50750d	0.20357151
99	0x3d991c81	0.0747614
100	0x3efbaaeb	0.49153838
101	0x3e88bb07	0.2670519
102	0xbd8fbff7	-0.07019036
103	0x3de714c1	0.11283255
104	0x3d53138f	0.051532324
105	0x3e5737b4	0.21017343
106	0x3df99c20	0.121879816
107	0x3ea24413	0.31692562
108	0x3e45e6f2	0.1932638
109	0xbeb3981c	-0.35076988
110	0x3e1908bc	0.14944738
111	0x3ea0a1b6	0.31373376
112	0xbd4bffbc	-0.049804434
113	0x3e6e1392	0.23249653
114	0x3d45f996	0.048333727
115	0x3de5ca10	0.11220181
116	0x3e2d88a2	0.16946653
117	0x3e1decc8	0.15422356
118	0xbe39ae48	-0.1813289
119	0x3e31a536	0.17348179
120	0x3e0fbc72	0.1403673
121	0x3e0ce0de	0.13757655
122	0x3e3a3f04	0.18188101
123	0xbb829f09	-0.0039862436
124	0x3e0ee12d	0.13953085
125	0x3e02dc50	0.12779355
126	0x3da227c8	0.07917744
127	0x3e494e66	0.19658813
128	0xbd209777	-0.039206948
129	0xbdab23aa	-0.08356412
130	0xbe3f28d3	-0.18667917
131	0x3e264d32	0.16240385
132	0x3e2e0591	0.16994311
133	0x3e3fb3d9	0.1872095
134	0xbdc8f09d	-0.09811518
135	0xbd202df5	-0.039106328
136	0x3dd0b3e2	0.1019056
137	0x3dd57ae9	0.10423834
138	0xbe3a1a54	-0.18174106
139	0xbc8cd00d	-0.01718905
140	0x3be3038c	0.006927913
141	0xbe60cb34	-0.21952516
142	0xbe99be55	-0.30028024
143	0xbba43528	-0.0050112195
144	0x3d874a52	0.06605972
145	0xbe17fdc7	-0.14842902
146	0xbe9f1b80	-0.31075668
147	0x3d451b81	0.048121933
148	0xbe41b091	-0.18915011
149	0x3df80304	0.1210995
150	0x3c10ca27	0.008837259
151	0x3d3446c0	0.044012785
152	0xbdbda8d6	-0.092607185
153	0x3d2d14e8	0.042256266
154	0x3d3ea04b	0.046539586
155	0xbc0be9cc	-0.008539628
156	0x3e1048ad	0.14090224
157	0x3daa569e	0.08317302
158	0x3dc308fd	0.09523199
159	0xbcc91eb9	-0.024550783
160	0x3dbbd4f4	0.09171477
161	0xbc35648f	-0.011071338
162	0x3e50e641	0.20400335
163	0xbe29ed77	-0.16594492
164	0x3dc177ea	0.094467
165	0x3e243dc5	0.16039188
166	0x3e6d006b	0.2314469
167	0xbe4a6827	-0.19766293
168	0x3e4615b2	0.19344214
169	0x3e16c3e2	0.14723161
170	0x3dfedbe5	0.12444285
171	0x3e830587	0.25590155
172	0xbd80c735	-0.06287996
173	0x3da4ef2d	0.08053432
174	0x3e174c72	0.14775255
175	0xbe2b0cdc	-0.16704124
176	0xbd5d5351	-0.054034535
177	0x3e0a8291	0.1352637
178	0xbe4962b1	-0.19666554
179	0xbd21b59f	-0.039479848
180	0xbd57735f	-0.05260026
181	0xbdcc0ce5	-0.09963397
182	0xbdd3d53a	-0.10343404
183	0x3d745ffd	0.059661854
184	0x3e4eda46	0.20200452
185	0xbdb2e714	-0.08735481
186	0xbc548339	-0.012970739
187	0xbd812997	-0.06306761
188	0x3e83dd3c	0.25754726
189	0xbe345c39	-0.17613305
190	0xbd45257e	-0.04813146
191	0x3e0bdf7d	0.13659473
192	0xbd349543	-0.04408766
193	0xbcf40c7d	-0.029791111
194	0xbe1c5c31	-0.15269543
195	0x3d8624a6	0.06549959
196	0x3e0f0509	0.13966765
197	0x3d9784ac	0.07398352
198	0xbe6a7d6b	-0.22899406
199	0x3db724f4	0.08942595
200	0xbdc3bdad	-0.09557662
201	0xbe9beedc	-0.30455673
202	0xbd37f08c	-0.044907138
203	0xbdea474c	-0.1143938
204	0xbdedb26b	-0.11606296
205	0x3d7f643c	0.06235145
206	0x3ad706cf	0.0016405227
207	0xbe05a2fd	-0.13050456
208	0xbd4380dd	-0.047730315
209	0x3d3a43f7	0.045474973
210	0xbe160e27	-0.14653836
211	0x3e91ff5e	0.28515142
212	0xbd770ad1	-0.06031305
213	0x3d0f3727	0.034964707
214	0xbddb63e7	-0.10712414
215	0xbda26139	-0.079287
216	0xbc89b93a	-0.016811956
217	0xbe174828	-0.14773619
218	0xbe3e05c2	-0.18556884
219	0xbc56b61c	-0.013104942
220	0xbdcb3d2a	-0.099237755
221	0xbcebdaae	-0.028790798
222	0xbe54f4dd	-0.20796533
223	0x3e9ef6c9	0.31047657
224	0xbd93e1ad	-0.072207786
225	0x3acd9fc1	0.0015687869
226	0x3cd20ba7	0.025640322
227	0x3ca4953d	0.020090694
228	0xbc9a15c3	-0.018809205
229	0xbd7a6717	-0.06113347
230	0xbe38d0d7	-0.18048416
231	0xbddea47d	-0.108712174
232	0xbd5cd55a	-0.053914405
233	0x3db199af	0.08671891
234	0xbe474069	-0.19458164
235	0xbc9fa95b	-0.019489935
236	0xbe6392e9	-0.2222401
237	0x3cbe9a36	0.023266893
238	0xbdd9101b	-0.10598775
239	0xbde0008d	-0.10937605
240	0x3d793cb0	0.06084889
241	0xbd5d1e45	-0.053983945
242	0xbc1ebb96	-0.009688279
243	0xbdef0f6b	-0.116728626
244	0xbe3281ce	-0.17432329
245	0xbae3776c	-0.0017354316
246	0xbe328850	-0.17434812
247	0xbe04e378	-0.12977397
248	0xbd478863	-0.048714053
249	0x3d0b0760	0.03394258
250	0xbe8d93a6	-0.2765171
251	0xbe2595cd	-0.16170426
252	0xbe211ba0	-0.15733194
253	0x3cfb6787	0.030689014
254	0xbe79303b	-0.24334805
255	0xbe01955d	-0.12654634

lstm.bias_hh_l0 f4 [256]
0	0xbe99770b	-0.29973635
1	0xbe029bca	-0.12754741
2	0xbd957e3e	-0.072994694
3	0xbe0a1ca1	-0.13487484
4	0x3e82e9c4	0.25568974
5	0x3bd4ec8f	0.0064979265
6	0xbd981638	-0.07426113
7	0xbdd506cd	-0.10401688
8	0xbdc0c0fd	-0.094118096
9	0xbe48e209	-0.19617476
10	0xbd234ba4	-0.03986706
11	0xbe8a3e39	-0.27000597
12	0xbe4f4b9d	-0.20243688
13	0xbd389beb	-0.04507057
14	0xbe16c943	-0.14725213
15	0xbe14fa50	-0.14548612
16	0xbe338712	-0.17531994
17	0x3d4d00f1	0.050049726
18	0xbe187a17	-0.14890324
19	0xbe47e6a0	-0.1952157
20	0xbe088af7	-0.13334261
21	0x3d4d60cc	0.05014114
22	0x3cbd51a2	0.023110215
23	0x3b85f54e	0.0040880805
24	0x3cb56c2f	0.022146313
25	0xbe043a18	-0.12912786
26	0xbe7dab92	-0.2477248
27	0xbe14cbe8	-0.14530909
28	0xbd97a3c3	-0.07404282
29	0xbcaf0609	-0.021365182
30	0x3d94b8a3	0.07261779
31	0x3e8bc1dc	0.2729634
32	0x3dd2d2df	0.10294127
33	0x3c13c8e6	0.009020066
34	0x3d6cf571	0.05785126
35	0xbdbb6102	-0.09149362
36	0x3ca11c9b	0.01966696
37	0x3d34f4f4	0.044178918
38	0xbdd4d680	-0.10392475
39	0xbe205c01	-0.15660097
40	0x3cca002b	0.024658283
41	0xbd5b70c6	-0.053574346
42	0x3dabe459	0.08393163
43	0xbdb070e8	-0.08615285
44	0xbe7808a7	-0.2422205
45	0x3dbfc7c5	0.09364275
46	0xbeb8f649	-0.361254
47	0xbe8bf396	-0.2733428
48	0xbe56191a	-0.20908013
49	0x3d4a1ec7	0.049345758
50	0x3e19209e	0.14953849
51	0xbb4fe5ee	-0.0031722742
52	0xbd7c7ec1	-0.06164432
53	0x3c210776	0.009828439
54	0xbe0cc622	-0.13747457
55	0xbd9cb933	-0.076525114
56	0x3c4488fa	0.011995548
57	0xbe3a9e17	-0.18224369
58	0xbdb0311d	-0.086031176
59	0xbe81b557	-0.25333664
60	0x3d271cc4	0.040798917
61	0x3cd97644	0.026545651
62	0xbe80f20b	-0.25184664
63	0xbe0da77a	-0.13833418
64	0xbd4c24f9	-0.049839947
65	0xbdc12e36	-0.09432642
66	0x3e9ce57c	0.30643833
67	0x3de537f8	0.11192316
68	0x3e1dfbe6	0.15428123
69	0x3e668d1e	0.2251477
70	0x3f139679	0.5765148
71	0x3d7f3f13	0.06231601
72	0xbc4e5aa9	-0.012594857
73	0x3e58d7f6	0.21176133
74	0x3e99b26f	0.30018947
75	0x3de6d10b	0.112703405
76	0x3e731b71	0.23740937
77	0x3ef47496	0.47745198
78	0x3d18d049	0.03730801
79	0x3cb203d6	0.021730345
80	0x3e7b59fa	0.24546042
81	0x3d26d2ba	0.04072831
82	0x3eb6bf84	0.3569299
83	0x3e183661	0.14864494
84	0x3ee214b4	0.4415642
85	0x3e2f97f5	0.17147811
86	0xbc4d84db	-0.012543882
87	0x3ea194f8	0.31558967
88	0x3e3e8f61	0.18609382
89	0x3e1e892d	0.15482016
90	0x3c93c0c7	0.01803626
91	0x3b4083be	0.00293754
92	0x3e067cf3	0.13133602
93	0xbdaf19af	-0.08549821
94	0x3db5a717	0.088697605
95	0xbd826334	-0.06366578
96	0x3ea9e2d6	0.33180875
97	0x3ec01ccc	0.3752197
98	0x3de961a4	0.113955766
99	0xbda73b9f	-0.08165669
100	0x3ec78818	0.3897102
101	0x3e96e141	0.2946873
102	0xbd7e7445	-0.062122602
103	0x3e3d7b15	0.18503983
104	0xbe307ef0	-0.17235923
105	0x3ea7a787	0.32745
106	0xbc819de6	-0.015822362
107	0x3e419df5	0.18907912
108	0x3dfc3215	0.1231424
109	0xbe972033	-0.29516754
110	0xbd83a4f0	-0.06427944
111	0x3df90ca4	0.12160614
112	0x3d81fb94	0.06346813
113	0x3e9324b2	0.28738934
114	0x3d22d736	0.039756022
115	0x3e02beb5	0.12768061
116	0x3a4d6684	0.00078354054
117	0x3e0a077c	0.13479418
118	0xbe74ae80	-0.23894691
119	0x3e151214	0.14557678
120	0x3d670647	0.05640247
121	0x3dd1e9b0	0.102496505
122	0x3d81faca	0.06346662
123	0x3ce33281	0.027734043
124	0x3e790dc9	0.24321665
125	0x3df43517	0.119241886
126	0xbcda27fe	-0.026630398
127	0x3e68e93f	0.22745226
128	0x3d0a3045	0.03373744
129	0x3dcbaec8	0.09945446
130	0xbe4612a5	-0.1934305
131	0x3e56130a	0.209057
132	0x3e8b0aa7	0.27156565
133	0x3e40a18e	0.18811628
134	0xbc26069a	-0.01013341
135	0x3d895f8b	0.067076765
136	0xbb3e444b	-0.0029032405
137	0x3e22626c	0.15857857
138	0xbe52f747	-0.20602141
139	0x3d629c86	0.055325054
140	0x3daa9a27	0.083301835
141	0xbd66d662	-0.056356795
142	0xbe8c9101	-0.2745438
143	0xbc25133f	-0.010075389
144	0x3dab618b	0.08368214
145	0xbe277df9	-0.16356649
146	0xbe828177	-0.254894
147	0x3dce889b	0.10084649
148	0xbe53209f	-0.20617913
149	0xbd9619d4	-0.07329145
150	0x3e028ce2	0.12749055
151	0xbdff1261	-0.124546774
152	0xbe93957c	-0.28824985
153	0x3e3eb318	0.18623006
154	0xbca09d29	-0.01960619
155	0x3d183470	0.037159383
156	0x3c92c595	0.01791648
157	0x3da2e450	0.079537034
158	0x3d0d006d	0.034424234
159	0x3e085d3c	0.13316816
160	0x3bd80ed7	0.006593566
161	0x3d897e16	0.06713502
162	0x3e489a69	0.19590153
163	0xbe2593bb	-0.16169636
164	0x3d14dd7a	0.03634403
165	0x3e2c7e6d	0.16845103
166	0x3e4cfcc6	0.200183
167	0xbdffc5e2	-0.12488915
168	0x3dbfd930	0.09367597
169	0xbdb5cd19	-0.0887701
170	0x3e184b8a	0.14872566
171	0x3e5c90c2	0.21539596
172	0xbe890c8d	-0.26767388
173	0xbceb6026	-0.02873237
174	0x3dabb7f4	0.08384696
175	0xbd88171c	-0.06645033
176	0xbd1d206b	-0.038360994
177	0x3ea261fc	0.3171538
178	0xbe87ce93	-0.2652479
179	0x3df1dd60	0.11809802
180	0x3e0c339d	0.13691564
181	0xbdf5e758	-0.12007016
182	0xbcb0525d	-0.021523649
183	0x3c601a4e	0.0136781465
184	0x3ea89723	0.32927808
185	0xbe5403c4	-0.20704561
186	0xbe3e1893	-0.18564062
187	0xbe0536e2	-0.13009217
188	0x3e843c2c	0.25827157
189	0xbd606bd5	-0.054790337
190	0xbdbf6d55	-0.09347025
191	0xbdadd3f0	-0.084876895
192	0xbd1a1e30	-0.037626445
193	0xbe1e093b	-0.15433209
194	0xbdf67f6a	-0.12036021
195	0xbda06f82	-0.078337684
196	0x3e45e239	0.19324578
197	0xbcb0e38f	-0.021592883
198	0xbe61fae9	-0.22068371
199	0x3d72ae1f	0.059248086
200	0xb9defe2c	-0.00042532512
201	0xbdbc4ac3	-0.09193947
202	0xbd510797	-0.05103263
203	0xbd486540	-0.048924685
204	0xbdd9acf9	-0.10628695
205	0xbc255365	-0.010090684
206	0x3db3f42f	0.08786809
207	0xbe18bdb9	-0.14916123
208	0xbde94345	-0.11389784
209	0xbe20b404	-0.1569367
210	0xbe20d099	-0.15704574
211	0x3e42b99a	0.19016114
212	0xbd9fb754	-0.07798639
213	0xbdb5a0f8	-0.08868593
214	0xbe0129eb	-0.12613647
215	0x3b9b882b	0.004746457
216	0x3d7e819c	0.062135324
217	0xbe46c2bf	-0.19410227
218	0xbe227cc0	-0.15867901
219	0xbdef1c0d	-0.11675272
220	0xbd762b7c	-0.060100064
221	0xbda725de	-0.081615195
222	0xbce7cfb0	-0.028297275
223	0x3ebc30b9	0.36755922
224	0xbd277edb	-0.040892463
225	0x3cb1ae62	0.021689598
226	0x3d62c100	0.05535984
227	0xbda2253b	-0.079172574
228	0x3cd2793a	0.025692571
229	0x3e2b08d4	0.16702586
230	0xbd7341e6	-0.059389018
231	0xbd6659b4	-0.05623789
232	0xbe3ac43d	-0.18238921
233	0x3e245075	0.16046317
234	0x3b8857bb	0.004160849
235	0x3d5a37ce	0.053275876
236	0xbe7e2a33	-0.24820785
237	0x3e1411e5	0.14459951
238	0xbdfd906f	-0.12381064
239	0xbe5d8fdf	-0.21636914
240	0xba8c69ae	-0.0010712647
241	0xbdf46fff	-0.11935424
242	0xbdf4e134	-0.119570166
243	0xbb948785	-0.0045327567
244	0xbe158b72	-0.14603975
245	0x3c96c7d0	0.018405825
246	0xbe49c85d	-0.19705339
247	0xbd336d95	-0.043805677
248	0xbd8cfc5f	-0.068840735
249	0x3de17bde	0.11009954
250	0xbe1a4c9f	-0.15068291
251	0x3d4381b7	0.047731128
252	0xbe5750dd	-0.2102694
253	0x3dd9be45	0.10631994
254	0xbe660510	-0.22462869
255	0xbda77ebc	-0.081784695

lstm.weight_ih_l0_reverse f4 [256, 18]
0	0xbd7550af	-0.0598914
1	0xbef4f5df	-0.47843835
2	0xbf3c0664	-0.7344725
3	0x3e29ebdd	0.16593881
4	0xbd2210a7	-0.039566662
5	0x3df73ff4	0.12072745
6	0x3e7a6414	0.2445224
7	0xbc9008fb	-0.017582407
8	0x3f35a5fa	0.70956385
9	0xbe61ef5b	-0.22063963
10	0xbe9f2819	-0.3108528
11	0x3d482566	0.04886379
12	0x3acaaeea	0.0015463505
13	0xbe1a5231	-0.15070416
14	0xbeb5c252	-0.35499817
15	0xbe3ab77b	-0.18234055
16	0xbe271e56	-0.16320166
17	0xbe4cd834	-0.2000435
18	0xbe8eb864	-0.27875054
19	0xbe8f4fbf	-0.2799053
20	0xbe371b0a	-0.17881408
21	0xbeaf74c7	-0.34268782
22	0xbe81d122	-0.25354868
23	0xbec1ce50	-0.37852716
24	0xbf4c3ae0	-0.79777336
25	0x3d684359	0.056704853
26	0xbf4fec08	-0.8121953
27	0xbf213145	-0.62965804
28	0xbe0d176b	-0.13778464
29	0xbe9ba386	-0.30398196
30	0x3da0fd9e	0.07860874
31	0xbf2611f4	-0.64871144
32	0xbe3160e9	-0.17322125
33	0x3d83f978	0.06444067
34	0x3e73cf40	0.23809528
35	0xbe08229e	-0.13294455
36	0xbb1ddaf5	-0.0024086807
37	0xbe7a606b	-0.24450843
38	0x3fd418ba	1.6570046
39	0xbe7111c6	-0.23541936
40	0xbec77938	-0.3895967
41	0x3d197267	0.03746262
42	0xbef66130	-0.48121023
43	0x3dc947a6	0.09828119
44	0xbefa2c72	-0.48862034
45	0x3c9aaaa5	0.018880198
46	0x3ba06b9a	0.0048956396
47	0xbe74475d	-0.23855348
48	0xbeaf0378	-0.34182334
49	0x3b8f213b	0.004367975
50	0xba13e8fe	-0.00056423235
51	0xbee081e6	-0.43849105
52	0x3ea364e9	0.31912926
53	0xbe5c927d	-0.21540256
54	0x3e3fb828	0.18722594
55	0x3e8de9d3	0.27717456
56	0xbc49960e	-0.012303842
57	0x3e498f50	0.19683576
58	0x3e1f8b36	0.15580449
59	0xbdd40bce	-0.10353814
60	0xbda78d23	-0.081812166
61	0x3d20a0d4	0.039215878
62	0x3e16266d	0.14663096
63	0xbf064b1f	-0.52458376
64	0x3ec6972e	0.38787216
65	0xbd85c45f	-0.065315954
66	0x3da8a1a8	0.082339585
67	0xbe929d23	-0.2863551
68	0x3e92c1ab	0.28663382
69	0xbd1fbd78	-0.03899905
70	0x3daaa014	0.08331314
71	0x3e94b1e8	0.29041982
72	0xbf1e9b53	-0.61955756
73	0xbea97da3	-0.33103666
74	0xbf13f974	-0.5780251
75	0xbec5bc5e	-0.38620275
76	0xbe5e2393	-0.21693258
77	0x3ed395cd	0.41325226
78	0xbe730f7e	-0.23736379
79	0xbe868e54	-0.26280463
80	0x3e61bfa8	0.22045767
81	0xbe89b9db	-0.2689961
82	0xbdc51b84	-0.09624389
83	0xbc9f1adf	-0.019421993
84	0xbe9873d8	-0.29775882
85	0xbdc944aa	-0.0982755
86	0x3dba45a4	0.09095314
87	0xbf07d895	-0.5306485
88	0xbdebf182	-0.11520673
89	0x3dc9a237	0.09845393
90	0xbea8c05e	-0.32959265
91	0xbde0ed01	-0.10982705
92	0x3e3a3edf	0.18188046
93	0x3ea0f001	0.31433108
94	0xbe44bbe0	-0.19212294
95	0x3d9ea6fb	0.07746693
96	0xbe3dde0c	-0.18541735
97	0x3da09cc3	0.078424
98	0xbeb2fbeb	-0.34957823
99	0x3e7ac4e0	0.24489164
100	0xbd40036a	-0.046878256
101	0xbdcb5edb	-0.099302016
102	0xbf39b70d	-0.7254494
103	0x3e6b973d	0.23006912
104	0xbe3f3876	-0.18673882
105	0xbe0af19e	-0.13568732
106	0x3eca871f	0.39556214
107	0xbe30553f	-0.17220019
108	0xbda9cd13	-0.08291068
109	0xbe029b21	-0.1275449
110	0x3f210c09	0.6290899
111	0xbe35806a	-0.17724767
112	0x3dabdfee	0.083923206
113	0xbd88e5da	-0.06684466
114	0x3e8e1537	0.2775056
115	0x3e8ccad4	0.27498496
116	0x3df302e6	0.11865787
117	0xbbca116e	-0.0061666286
118	0xbd489894	-0.048973635
119	0xbdcaa6d6	-0.09895103
120	0xbd8e4727	-0.06947165
121	0x3d04cb8b	0.032420676
122	0x3e4180ec	0.18896836
123	0xbf0ed37b	-0.55791444
124	0xbe7e2d38	-0.24821937
125	0x3e2deae6	0.16984138
126	0x3e380c5f	0.17973469
127	0xbe4b96be	-0.19881722
128	0x3d86d4b1	0.065835364
129	0x3e680cbf	0.22661112
130	0xbe57f91c	-0.21091121
131	0x3e78e613	0.24306516
132	0x3e118f86	0.14214906
133	0xbde3df3f	-0.11126565
134	0x3e971a37	0.29512188
135	0x3e4f815e	0.20264193
136	0xbe4eaf15	-0.20183976
137	0xbe04cf0a	-0.12969604
138	0xbe610dc7	-0.21977912
139	0x3e766e0a	0.24065414
140	0xbe2374b3	-0.15962486
141	0xbd87aff5	-0.06625358
142	0x3de7feaa	0.1132787
143	0xbe560b3c	-0.20902723
144	0xbf15ee0c	-0.58566356
145	0xbf2606e3	-0.6485426
146	0x3e15e4d2	0.1463807
147	0x3e944dcd	0.28965607
148	0xbd625dfb	-0.055265408
149	0x3ddc234d	0.107489206
150	0x3e8d26de	0.27568716
151	0xbe10f718	-0.14156759
152	0xbdc1d39a	-0.09464188
153	0xbf2785ed	-0.6543873
154	0x3da895ac	0.08231673
155	0xbe5a5c18	-0.21324193
156	0xbf02f479	-0.51154286
157	0xbf0e227a	-0.5552136
158	0xbe5595d6	-0.20857939
159	0xbddf9252	-0.1091658
160	0xbdb39dfe	-0.08770369
161	0x3e4137bb	0.18868916
162	0xbf08736a	-0.5330111
163	0xbed5aaa0	-0.4173174
164	0x3c441e6c	0.011970144
165	0xbec026a5	-0.37529483
166	0x3c736be1	0.014857263
167	0xbe6733a9	-0.225783
168	0xbf8248d7	-1.0178479
169	0xbe9ace8e	-0.30235714
170	0xbf4836b6	-0.7820848
171	0x3db6968c	0.08915433
172	0xbe0d96df	-0.13827084
173	0x3dc693da	0.09696169
174	0xbcfb0b2a	-0.030644972
175	0xbd8578b0	-0.0651716
176	0x3e98b1d9	0.29823187
177	0xbbd0d263	-0.0063727363
178	0x3ebf675b	0.3738354
179	0x3d17e937	0.037087645
180	0x3e410291	0.18848635
181	0x3d3bace3	0.045819174
182	0x3e2c0276	0.16797814
183	0x3e4060f5	0.18786986
184	0x3d544d5e	0.051831596
185	0x3dad46f3	0.08460798
186	0x3d7f3f06	0.062315963
187	0x3e872d93	0.26401958
188	0x3dfe8b2b	0.12428888
189	0xbe019926	-0.12656078
190	0x3dd3815e	0.10327409
191	0xbe00c435	-0.12574847
192	0xbe031a47	-0.12802993
193	0xbced9388	-0.029001012
194	0xbd138f92	-0.03602559
195	0x3d40718d	0.04698329
196	0xbea248a2	-0.3169604
197	0x3ee6ca1c	0.45076072
198	0x3e0325f1	0.12807442
199	0x3e7f971b	0.24959986
200	0xbf462823	-0.77404994
201	0xbe704822	-0.23465016
202	0xbecacdff	-0.39610288
203	0xbf818aa1	-1.0120431
204	0x3f29de10	0.66354465
205	0x3d5c2150	0.053742707
206	0x3f37ffc8	0.71874666
207	0xbee66401	-0.44998172
208	0x3dc31044	0.09524587
209	0xbef4c4eb	-0.47806486
210	0xbddd4dfc	-0.1080589
211	0xbd0542fa	-0.032534577
212	0x3e2f406e	0.17114422
213	0xbe1d9b25	-0.15391214
214	0xbea88898	-0.32916713
215	0xbf772ab1	-0.96549517
216	0x3efe0697	0.49614403
217	0x3ed4c258	0.41554523
218	0x3ed65897	0.41864464
219	0x3e561525	0.20906503
220	0x3e638571	0.22218873
221	0xbdf5d5e3	-0.12003686
222	0xbe4f053a	-0.20216838
223	0xbf504b51	-0.81364924
224	0xbde7c09d	-0.11316035
225	0x3cbb28e2	0.022846643
226	0x3dc11bd3	0.09429135
227	0xbdc2d9b3	-0.09514179
228	0x3e2dfb03	0.16990285
229	0xbda487b1	-0.080336936
230	0x3e99b791	0.30022863
231	0x3e481f23	0.19543128
232	0x3e29d429	0.16584839
233	0xbf4b0f1b	-0.79319924
234	0x3cbe4ff3	0.023231482
235	0xbf21dda1	-0.63228804
236	0xbe2118b9	-0.15732087
237	0xbed75a16	-0.42060918
238	0xbd1f2a38	-0.038858622
239	0x3e8ac13b	0.27100548
240	0x3e303cdc	0.17210716
241	0x3f4cee4e	0.80051124
242	0x3ea2b993	0.31782207
243	0xbd1c6e35	-0.03819104
244	0xbcbd2cfa	-0.023092736
245	0xbee85644	-0.45378315
246	0xbda5224e	-0.08063184
247	0xbe449d59	-0.19200648
248	0xbd4f3a2e	-0.050592594
249	0xbe10a207	-0.14124309
250	0xbee0ccb1	-0.43906167
251	0x3d13c440	0.03607583
252	0x3d610d7b	0.054944497
253	0x3e086dc4	0.13323122
254	0xbe4240ba	-0.18970004
255	0xbe66b2b6	-0.2252911

lstm.weight_hh_l0_reverse f4 [256, 64]
0	0x3e41a0e0	0.18909025
1	0x3e3fe31d	0.1873898
2	0x3d2cd7f8	0.04219815
3	0xbe0518a5	-0.12997682
4	0xbed9cf10	-0.4254079
5	0x3ee26fcf	0.44225928
6	0x3ec99309	0.3936999
7	0xbd7a8d6c	-0.061170027
8	0x3e20c22c	0.1569907
9	0xbf1949c9	-0.5987821
10	0xbeaf8304	-0.34279644
11	0x3e63bd72	0.22240236
12	0xbf1c3816	-0.6102308
13	0xbec9b05b	-0.3939236
14	0x3eb49616	0.35270756
15	0xbde57e5b	-0.11205741
16	0x3efa9833	0.48944244
17	0x3ec844cc	0.39114988
18	0xbd1856d5	-0.037192184
19	0x3e8695b3	0.26286086
20	0x3e49b5b0	0.19698215
21	0xbe0c72c6	-0.13715658
22	0xbf0c0403	-0.5469362
23	0x3ecd6c5a	0.40121728
24	0xbe428733	-0.18996887
25	0x3c85cc77	0.016332848
26	0x3f3c71db	0.7361123
27	0x3ebebca1	0.37253287
28	0xbe54becc	-0.20775908
29	0x3ec65114	0.38733733
30	0x3db81810	0.089889646
31	0xbd0e39d0	-0.034723103
32	0xbe565f82	-0.20934871
33	0xbedb4547	-0.42826292
34	0xbc962ba5	-0.018331358
35	0xbd74d9a7	-0.059777882
36	0xbdcd3628	-0.10020095
37	0x3ea921fc	0.3303374
38	0x3e497bdf	0.1967616
39	0xbdcbc621	-0.099498995
40	0xbeaa35ff	-0.3324432
41	0x3e5645e4	0.20925099
42	0x3eb1898c	0.34675252
43	0xbcc14e1f	-0.023596821
44	0xbe8db3f6	-0.27676362
45	0x3df4a1bd	0.11944912
46	0x3eede4bf	0.46463582
47	0xbdc3b725	-0.095564164
48	0x3e52d65d	0.20589586
49	0xbe20816b	-0.15674369
50	0x3ebb1f89	0.36547497
51	0xbe7a74bc	-0.24458593
52	0x3edfa81f	0.43682954
53	0xbcb4887f	-0.022037743
54	0xbe860b7e	-0.26180643
55	0xbee6028b	-0.44923815
56	0xbea3d2f8	-0.31996894
57	0xbf21b453	-0.6316578
58	0x39af872f	0.0003347932
59	0xbdbeeb57	-0.09322231
60	0xbea7ad2d	-0.3274931
61	0x3de488d8	0.111589134
62	0x3b73e776	0.003721682
63	0xbf04e8d5	-0.51917773
64	0x3edd4846	0.43219203
65	0x3e5a57b2	0.21322516
66	0xbdaa6aea	-0.083211735
67	0xbee33e21	-0.44383338
68	0x3e5433e5	0.20722921
69	0x3ea56488	0.32303262
70	0xbe39f299	-0.1815895
71	0x3edabe26	0.42723197
72	0xbeff2829	-0.49835327
73	0xbe4a4558	-0.19753015
74	0x3d44b33a	0.048022486
75	0xbf771d32	-0.96528924
76	0xbe60458d	-0.21901532
77	0xbf086f64	-0.5329497
78	0x3eeff0ef	0.46863505
79	0x3e9d3898	0.3070724
80	0xbe5fe579	-0.2186488
81	0x3e86c397	0.26321098
82	0x3d3c4748	0.045966417
83	0xbe630c70	-0.22172713
84	0xbe8513c0	-0.2599163
85	0xbf095b14	-0.536546
86	0xbe85ffd3	-0.2617174
87	0xbf2d9db0	-0.6781874
88	0xbd376215	-0.044771273
89	0x3c162574	0.009164203
90	0xbe7fd945	-0.24985225
91	0xbe77036d	-0.241224
92	0x3c7d5f48	0.015464611
93	0xbdeb89ca	-0.115008906
94	0x3e548f4e	0.20757791
95	0xbefddb35	-0.49581304
96	0x3eda47e9	0.42632988
97	0x3e21979b	0.15780489
98	0xbed8cd13	-0.4234396
99	0x3e43f74c	0.19137305
100	0xbc20d507	-0.009816415
101	0x3b5b5e07	0.0033472793
102	0xbe2948a8	-0.16531622
103	0xbf0ef2b2	-0.55839074
104	0x3d9e7c00	0.07738495
105	0xbd6a4fea	-0.05720512
106	0xbe947794	-0.2899748
107	0xbed3b27f	-0.4134712
108	0xbe0988bd	-0.13431068
109	0x3ecebaaf	0.40376803
110	0x3e3cbcfa	0.18431464
111	0xbe473c62	-0.19456628
112	0xbe1263dc	-0.14295906
113	0xbf2b7190	-0.6697016
114	0x3f2ef5d8	0.6834388
115	0xbf048192	-0.5176021
116	0x3ec82dba	0.39097387
117	0xbdcc563b	-0.09977385
118	0xbdb45ed6	-0.08807151
119	0xbda4b31d	-0.08041976
120	0x3d3db280	0.04631281
121	0xbeba11b2	-0.36341625
122	0xbd9f51c4	-0.077792674
123	0xbe5205d6	-0.20510039
124	0xbe9295c7	-0.28629896
125	0xbea32384	-0.31863034
126	0x3d07aea1	0.033125523
127	0x3c337d7c	0.010955211
128	0x3ea9cc6e	0.3316378
129	0x3dac0c37	0.08400767
130	0x3e303899	0.1720909
131	0x3f3afc04	0.73040795
132	0xbed5ccbd	-0.41757765
133	0xbc57b4a5	-0.013165628
134	0x3e90fbde	0.2831716
135	0x3e1c20ea	0.1524693
136	0xbe40e28e	-0.18836424
137	0xbdd782fd	-0.10523031
138	0xbefa1c4f	-0.48849723
139	0xbf26ec03	-0.65203875
140	0xbd661894	-0.056175783
141	0x3f1032fd	0.563278
142	0x3eaa80ae	0.333013
143	0x3f4e6924	0.8062918
144	0x3e70ca50	0.23514676
145	0x3f175a3b	0.59122056
146	0x3e2f986b	0.17147987
147	0x3e958ee3	0.29210576
148	0xbe180b64	-0.14848095
149	0x3c8eba6c	0.017422877
150	0xbf06e588	-0.52693987
151	0xbe33293d	-0.174962
152	0xbf2d746c	-0.6775577
153	0x3ce90aed	0.028447593
154	0xbe3231c7	-0.17401801
155	0xbf79b7c4	-0.9754603
156	0x3e90d2b7	0.28285763
157	0xbecad8f4	-0.39618647
158	0x3e5e179e	0.21688697
159	0x3eb50bbe	0.3536052
160	0x3e0be856	0.13662848
161	0xbdef02fa	-0.116704896
162	0xbf77de97	-0.9682402
163	0xbc087326	-0.008328235
164	0x3f5e94ae	0.8694562
165	0x3d2457da	0.040122844
166	0xbd44877f	-0.04798078
167	0xbf226dbe	-0.63448703
168	0xbeb05e27	-0.34446833
169	0xbf2e0293	-0.6797268
170	0xbd15eccc	-0.03660278
171	0x3eded8b5	0.4352471
172	0x3f4e62bd	0.8061941
173	0xbf4282fe	-0.7598113
174	0xbedbeb45	-0.42952934
175	0xbe471079	-0.19439878
176	0xbf1bcdff	-0.608612
177	0x3eac89ae	0.3369879
178	0x3eb6daab	0.35713705
179	0xbe9dc5ed	-0.30815068
180	0x3f581027	0.84399647
181	0xbf6317ad	-0.88708
182	0xbeb75545	-0.35807243
183	0x3e47b741	0.195035
184	0xbd9e9a33	-0.07744255
185	0x3de09645	0.10966162
186	0x3e472854	0.19448978
187	0x3ef082eb	0.46974882
188	0xbf203950	-0.6258745
189	0x3ce30233	0.02771101
190	0xbe41b335	-0.18916018
191	0x3cb230d3	0.021751797
192	0xbe23c822	-0.15994313
193	0x3baa7356	0.0052017374
194	0xbe203876	-0.15646538
195	0x3db03cc2	0.08605339
196	0xbeb24c07	-0.3482363
197	0x3e1e7f82	0.15478328
198	0x3f11b65d	0.5691889
199	0xbe50aa3a	-0.20377436
200	0xbd2cbc16	-0.04217156
201	0x3eeb5f29	0.4597104
202	0x3e80cb6d	0.25155202
203	0xbe062727	-0.13100873
204	0xbe992af7	-0.29915592
205	0x3eecc120	0.46241093
206	0xbe999ebd	-0.3000392
207	0xbd55f2dd	-0.052233566
208	0x3f12978b	0.57262486
209	0x3e8c240c	0.27371252
210	0xbe9f0061	-0.31054977
211	0xbe951545	-0.2911779
212	0xbdaeb48f	-0.085305326
213	0xbe2c0bf6	-0.16801438
214	0x3ec05589	0.37565258
215	0x3e899201	0.26869205
216	0xbe9d3602	-0.30705267
217	0x3ec13471	0.37735322
218	0x3d9128b9	0.07087845
219	0x3f0f1522	0.5589162
220	0xbb9a44e9	-0.0047079218
221	0xbe28f7df	-0.16500805
222	0xbcd2213a	-0.02565061
223	0x3f303e57	0.68845123
224	0xbe526914	-0.20547897
225	0xbe9b1ae7	-0.30293962
226	0xbd11d7ec	-0.03560631
227	0x3eb2fb10	0.3495717
228	0xbe80ab67	-0.2513077
229	0x3f22e079	0.6362377
230	0xbeb60a86	-0.35554904
231	0xbeb924fb	-0.36161026
232	0xbf462a52	-0.77408326
233	0x3d3b9fff	0.04580688
234	0x3dbfe785	0.09370331
235	0xbe76d13b	-0.24103253
236	0xbe22a264	-0.1588226
237	0x3f0dc18f	0.5537347
238	0xbe14f158	-0.1454519
239	0x3e19444d	0.14967461
240	0x3debaec7	0.115079455
241	0x3dc11f90	0.09429848
242	0x3e56dd6b	0.20982902
243	0xbdb790bb	-0.08963152
244	0x3f02bb91	0.51067454
245	0xbf157c20	-0.58392525
246	0xbe9c27b8	-0.30499053
247	0xbe9bf83a	-0.3046282
248	0xbde4216f	-0.111391895
249	0xbe5c269a	-0.214991
250	0x3eb1bf81	0.34716418
251	0x3e261358	0.16218317
252	0xbf4d1c97	-0.8012175
253	0xbe2a26f9	-0.1661643
254	0x3efd43ca	0.4946578
255	0x3e1c7ca5	0.15281923

lstm.bias_ih_l0_reverse f4 [256]
0	0xbe2e6325	-0.17030008
1	0xbd51d8c5	-0.05123212
2	0xbdd65c65	-0.104668416
3	0x3d51ad8a	0.05119089
4	0xbd488ca4	-0.04896225
5	0xbea712d8	-0.32631564
6	0x3b9ffc1b	0.0048823482
7	0xbe18fff3	-0.14941387
8	0xbe85823c	-0.26075923
9	0xbd5cc3e4	-0.053897753
10	0x3d480151	0.04882938
11	0xbd91a100	-0.071107864
12	0x3d804b4c	0.06264362
13	0xbe104efc	-0.1409263
14	0x3d3f8bb1	0.04676408
15	0x3ca7685c	0.020435505
16	0xbe59c8e0	-0.21268034
17	0xbe97dca3	-0.2966052
18	0xbe3e630f	-0.18592475
19	0xbd7a346f	-0.06108516
20	0x3caceb28	0.021108225
21	0xbdd78e1a	-0.105251506
22	0x3db0b74a	0.086287096
23	0xbe69d3e6	-0.22834739
24	0x3d048e2c	0.03236215
25	0xbd0de711	-0.03464419
26	0x3dd39990	0.10332024
27	0x3e58840f	0.21144126
28	0x3dc9b836	0.098495886
29	0x3df4e77f	0.11958217
30	0x3cec3db6	0.02883802
31	0x3bb4236b	0.005497386
32	0x3c851668	0.016246036
33	0xbdc8ae1b	-0.09798833
34	0xbd27b007	-0.040939357
35	0xbe276073	-0.16345386
36	0xbdc41b44	-0.09575513
37	0xbea5fb59	-0.32418326
38	0xbd6d8dc7	-0.057996538
39	0xbe712f1a	-0.23553124
40	0xbe970fef	-0.29504344
41	0x3cf68311	0.030091794
42	0xbda9c57e	-0.08289622
43	0xbd135341	-0.03596807
44	0xbcfd17c9	-0.03089513
45	0x3cfecc57	0.031103296
46	0x3ce649a5	0.028111288
47	0x3cdb1b11	0.026746305
48	0xbe4b6843	-0.19863991
49	0xbe2e620c	-0.1702959
50	0xbe5701a0	-0.20996714
51	0xbe0fe2a3	-0.14051299
52	0xbe551d70	-0.20812011
53	0xbe9db6c1	-0.30803493
54	0xbca92c64	-0.02065105
55	0xbd8aaca7	-0.06771212
56	0xbdee6c94	-0.116418034
57	0xbe8174d4	-0.25284445
58	0xbd9d6e72	-0.076870814
59	0x3e2f752d	0.17134543
60	0xbe828f76	-0.25500077
61	0xba74d1d1	-0.00093391264
62	0x3dffa5c2	0.12482788
63	0x3d0fbb7d	0.035090912
64	0x3e0de3b5	0.13856395
65	0x3b5dc9b8	0.0033842158
66	0x3d93967f	0.07206439
67	0x3ea057c7	0.3131697
68	0x3e2059bd	0.15659232
69	0x3bd863d0	0.0066036955
70	0x3eb2f5f3	0.3495327
71	0x3e02e584	0.12782866
72	0x3e0e7a97	0.13913952
73	0x3dd8cd40	0.10586023
74	0x3e428156	0.1899465
75	0x3d840b25	0.06447438
76	0x3d823c5e	0.063591704
77	0xbc98605d	-0.018600637
78	0xbcd74d54	-0.02628199
79	0x3e6fa28d	0.23401852
80	0x3e2afe72	0.16698626
81	0x3cce5b55	0.025190035
82	0x3ee9cac1	0.456625
83	0x3eda2d0f	0.42612502
84	0x3e7658df	0.24057339
85	0x3dca1fbd	0.09869335
86	0xbe95bd1a	-0.29245836
87	0xbd976c31	-0.07393683
88	0x3e896935	0.2683808
89	0x3ee7dec3	0.4528714
90	0x3eef2860	0.4671049
91	0x3e103195	0.14081414
92	0xbde4ddfb	-0.11175152
93	0x3e7b30a6	0.24530277
94	0x3df672cd	0.12033615
95	0x3e6b376a	0.22970358
96	0x3e1f07d5	0.15530331
97	0x3e8bfa4e	0.27339405
98	0x3dee38e6	0.11631946
99	0x3ef23d13	0.4731222
100	0xbe2b5122	-0.16730168
101	0x3e932dc7	0.28745863
102	0x3d5f5443	0.054523718
103	0x3ebd496c	0.3697008
104	0x3eae982a	0.34100467
105	0x3e65a3b5	0.2242573
106	0x3e7fa173	0.24963932
107	0x3e8d3c34	0.27584994
108	0xbcbc48a8	-0.022983864
109	0xbd50e0dd	-0.050995696
110	0x3ed31ca7	0.41232798
111	0x3e67f4e1	0.22652008
112	0x3e93c423	0.28860578
113	0xbdc018ad	-0.093797065
114	0x3eda4fb5	0.42638937
115	0x3e16dd64	0.14732891
116	0x3e63ade3	0.22234301
117	0x3d65426b	0.055971544
118	0x3e609b71	0.21934296
119	0x3e21e3ce	0.15809557
120	0x3d421d83	0.047391426
121	0xbd4b2256	-0.049593292
122	0x3d77b889	0.06047872
123	0x3df40c98	0.119164646
124	0x3e61d976	0.22055611
125	0x3f56ec0d	0.83953935
126	0x3ca24c97	0.019811912
127	0x3dd0b2bd	0.101903416
128	0x3c609b09	0.013708838
129	0x3e0b295a	0.13589993
130	0xbe144beb	-0.14482085
131	0x3d297908	0.04137519
132	0x3dae38c8	0.08506924
133	0x3e8945e3	0.26811132
134	0xbe62964a	-0.22127643
135	0x3dc2cb74	0.09511462
136	0xbe223cfd	-0.15843578
137	0xbd43fecc	-0.047850415
138	0x3e2be9fc	0.16788477
139	0x3cf0fdc8	0.029417887
140	0xbe880e9f	-0.26573655
141	0x3cc253df	0.023721633
142	0xbe242246	-0.160287
143	0x3e220133	0.1582077
144	0x3d66dc30	0.05636233
145	0x3e51e577	0.2049769
146	0xbc303513	-0.010754841
147	0x3d6c0089	0.057617698
148	0xbdaa526b	-0.08316501
149	0xbd1aeed4	-0.03782542
150	0x3c43b9f2	0.011946188
151	0xbdb72766	-0.089430615
152	0xbc4a2662	-0.012338253
153	0xba62df7d	-0.0008654518
154	0xbb1c795b	-0.0023876044
155	0x3d807f12	0.06274237
156	0xbd5bca9a	-0.053660013
157	0x3e2e3600	0.17012787
158	0xbd854844	-0.06507924
159	0xbdc1d39e	-0.09464191
160	0xbd9a3428	-0.07529479
161	0x3cb85149	0.022499697
162	0x3ba03e24	0.0048902202
163	0x3e2c9d8a	0.16856971
164	0x3d2b17aa	0.041770615
165	0x3e4dbeb7	0.20092283
166	0x3caff90e	0.021481063
167	0xbe35808a	-0.17724815
168	0xbd31e5c7	-0.043432023
169	0xbce98486	-0.028505575
170	0xbda4f8c1	-0.080552585
171	0x3e01a829	0.12661804
172	0xbd9fbf0f	-0.078001134
173	0x3dda2b97	0.10652845
174	0x3db0c803	0.08631899
175	0x3db6a5c7	0.08918338
176	0x3dd98eb4	0.106229216
177	0x3ba27abc	0.0049584787
178	0x3df97769	0.12180979
179	0xbe0bc3f5	-0.1364897
180	0x3e5d92d1	0.21638037
181	0xbdf300d8	-0.11865395
182	0xbe5e3e7c	-0.21703523
183	0xbe2a31a9	-0.16620506
184	0x3d67256d	0.056432176
185	0xbcb15240	-0.021645665
186	0x3dfbb18b	0.12289723
187	0xbe9928c2	-0.29913908
188	0xbce7525b	-0.028237512
189	0xbceddda4	-0.02903635
190	0x3e451323	0.19245581
191	0x3dc4e4a5	0.09613923
192	0xbe0fd6c2	-0.14046767
193	0xbc0a42b8	-0.008438759
194	0x3dd9adcb	0.106288515
195	0xbe2598e5	-0.16171606
196	0xbdf2881a	-0.118423656
197	0xbe352b38	-0.17692268
198	0xbd4ba49d	-0.049717534
199	0xbea692b4	-0.325338
200	0xbe74fff8	-0.2392577
201	0x3dde1a3b	0.10844847
202	0x3d73f69f	0.059561368
203	0xbe12c589	-0.14333166
204	0x3aa6a411	0.001271369
205	0xbbad268b	-0.0052841357
206	0xbd9b84bc	-0.075936764
207	0xbd760692	-0.06006486
208	0xbec4604d	-0.38354722
209	0xbe8ee42a	-0.2790845
210	0xbddd574a	-0.10807665
211	0xbddefb21	-0.10887743
212	0xbe1577dc	-0.14596504
213	0x3d05313e	0.032517664
214	0xbe2202d5	-0.15821393
215	0xbe243dc9	-0.16039194
216	0xbcb3f2c6	-0.02196635
217	0xbe071920	-0.13193178
218	0x3d9c2370	0.07623947
219	0xbd3c9b6e	-0.046046667
220	0xbe5f4ff3	-0.21807842
221	0x3d11867f	0.035528656
222	0x3d81b6a1	0.06333662
223	0xbd77e7df	-0.060523864
224	0xbe29ea2b	-0.16593234
225	0xbd2f5611	-0.04280669
226	0xbdace090	-0.084412694
227	0xbe80c4ca	-0.25150138
228	0xbe558061	-0.20849754
229	0xbe56c9ed	-0.20975466
230	0xbdfa5b9f	-0.122245066
231	0xbe7487f3	-0.23879986
232	0xbbc2439d	-0.0059284703
233	0xbdc81f18	-0.09771556
234	0xbe0a4533	-0.1350296
235	0xbded5291	-0.11588014
236	0xbd87f4fb	-0.06638523
237	0xbd4ba429	-0.049717102
238	0xbd4d4621	-0.05011571
239	0xbdf11335	-0.117712416
240	0x3d03ce50	0.032179177
241	0xbd6ddb07	-0.05807021
242	0xbe0995db	-0.13436072
243	0xbd14ad04	-0.036297813
244	0xbe85ccde	-0.26132864
245	0xbcb9c69d	-0.022677714
246	0xbe6da16b	-0.23206107
247	0x3e06a086	0.13147172
248	0x3bb75d16	0.0055958135
249	0x3d61f1e3	0.05516232
250	0xbdb67f15	-0.08910958
251	0x3e56eb72	0.20988253
252	0xbdb040e9	-0.08606131
253	0xbe9a3d9f	-0.30125138
254	0x3e3231b0	0.17401767
255	0x3d07c2d0	0.033144772
