My_NN/models/gru_model.pth (torch, 626594 bytes, 9 tensors)

gru.weight_ih_l0 f4 [384, 18]
0.04334302 -0.09518617 0.687329 -0.14756201 -0.36797056 0.3819366 0.17133021 -0.94587874
-0.47630835 0.4429512 -0.2736098 0.6824624 0.18793294 0.48647043 0.5847669 -1.0640091
0.19473363 -0.3262145 -0.38590786 0.18795976 -0.51515126 -0.062041037 0.11659426 -0.0521722
0.05254449 1.3023286 0.5497314 -0.51022047 0.3947766 -0.6069552 -0.48007232 -0.5338556
0.4763434 0.3598268 -0.71504116 0.26567933 -0.42775416 -0.91631097 0.0871993 0.30516872
0.38869613 0.105963185 1.4065298 -0.5248446 -0.49073127 -0.17226739 -0.06493 -0.07384523
0.21699476 -0.17884362 -0.055479906 -0.48526293 -0.33372316 -0.64098614 -0.13622355 0.57296026
0.11941641 -0.3773265 -0.069079556 0.5864725 0.21635288 0.54942477 0.22117226 0.016212078
0.264943 0.6632237 -0.2610761 0.12880613 0.1031503 0.319006 -0.23841412 -0.81827575
0.10228164 -0.15759012 -0.97435606 0.04465845 -0.4066302 0.2673433 0.7014172 0.6028593
-0.31033608 0.24817157 -0.000857834 0.6286716 0.13564332 0.25109118 0.15492368 -0.30191633
-0.151469 -0.49700832 0.17700633 0.3219896 -0.6077547 -0.3808139 0.23880279 0.06623662
0.25436708 0.14255843 0.5121188 -0.26177052 0.6059766 0.5004036 -0.5099578 -0.23366474
-0.18133564 0.5536019 0.39877644 0.021204874 0.2609023 -0.023233525 -0.59913045 -0.78851277
0.47237894 -0.31945872 -0.230322 0.5801776 -0.023279987 -0.7169898 0.49969646 0.3720643
-0.37460375 -0.6654397 -0.10240528 0.079960495 -0.16701609 -0.026610939 0.23009638 -0.86684763
-0.27925187 -0.20781158 0.51107645 0.6009495 0.21021596 0.34378117 0.09064472 0.025188657
0.05957275 -0.59069854 -0.046830084 -0.011191665 -0.054338917 0.66089725 -0.17967705 -0.2815004
-0.13363333 -0.43963638 -1.002074 -0.32768172 -0.032155532 0.8361198 0.53082716 0.7729525
-0.17007881 0.26439917 0.53091675 0.4556789 -0.53995055 0.27769503 -0.093312405 -0.19645314
0.13100618 -0.84882104 0.78181565 -0.50977606 -0.9455908 0.28565073 -0.029418644 0.19831131
-0.528291 -0.12698223 1.3556836 -0.3566941 -0.08986505 -0.7182307 0.17227902 -0.36424875
-0.3799959 0.05007692 -0.302567 -0.4113151 -0.12231226 0.7159321 -0.32062015 -0.6688018
0.2429933 -0.15902533 0.8685114 -0.07506859 -0.5708527 0.049249206 -0.3188475 -0.42336196
0.29944924 0.013764061 -0.071643755 0.32747555 -0.2775532 -0.07837473 0.31299976 -0.0049390253
0.47769108 0.7581573 -0.16889732 -0.038403947 0.2864863 0.33175412 -0.25365332 0.098851755
-0.24727693 -0.113418564 0.3033462 -0.006775101 -0.39024973 0.22537668 0.26399437 -0.71050394
-0.43509138 0.4198019 -0.9362238 -0.31544346 0.08497382 0.27072385 -0.9433493 -1.0076019
-0.8968796 0.010969903 -0.14224046 0.20678887 0.14863811 0.016297508 0.15265779 -0.44660103
0.5052113 -0.047437605 0.11574452 -0.43937105 -0.4029886 0.14331372 0.866051 0.3231373
0.09682412 1.1263005 0.25319117 -0.35429713 0.40183863 0.5509003 -0.42338255 -0.25405407
0.30090174 0.3949465 0.64879066 -0.29892343 -0.567687 -0.85708076 -0.6148078 0.13869055
00000000: 7388 313d f7f0 c2bd cbf4 2f3f 7f1a 17be
00000010: a366 bcbe 328d c33e 3071 2f3e 1c25 72bf
00000020: b0de f3be 80ca e23e 9516 8cbe dbb5 2e3f
00000030: 7e71 403e a712 f93e 49b3 153f 7331 88bf
00000040: 4168 473e 9605 a7be b795 c5be 8678 403e
00000050: f4e0 03bf be1e 7ebd f9c8 ee3d 84b2 55bd
00000060: e438 573d b4b2 a63f 32bb 0c3f cf9d 02bf
00000070: 2920 ca3e 6a61 1bbf 0acc f5be c3aa 08bf
00000080: 48e3 f33e 383b b83e f00c 37bf 1f07 883e
00000090: 9802 dbbe 5b93 6abf 8c95 b23d 133f 9c3e
000000a0: 2e03 c73e 3a03 d93d 2b09 b43f 375c 06bf
000000b0: 2141 fbbe dd66 30be 05fa 84bd 2b3c 97bd
000000c0: e033 5e3e c822 37be e63e 63bd 6274 f8be
000000d0: c3dd aabe ab17 24bf 307e 0bbe 86ad 123f
000000e0: 9790 f43d f030 c1be 9579 8dbd 1023 163f
000000f0: 9c8b 5d3e 1aa7 0c3f fb7a 623e 31cf 843c
00000100: 9ca6 873e 07c9 293f c4ab 85be c1e5 033e
00000110: 7740 d33d c154 a33e d522 74be 857a 51bf
00000120: 0979 d13d 4e5f 21be 666f 79bf c7eb 363d
00000130: d531 d0be 39e1 883e 1490 333f fd54 1a3f
00000140: 5fe4 9ebe b020 7e3e 44e0 60ba 9ff0 203f
00000150: 15e6 0a3e 068f 803e 50a4 1e3e c794 9abe
00000160: b11a 1bbe e077 febe 2641 353e d2db a43e
00000170: d095 1bbf 0afa c2be b888 743e 11a7 873d
00000180: 673c 823e d6fa 113e 381a 033f c906 86be
00000190: 4821 1b3f 731a 003f 988c 02bf cf45 6fbe
000001a0: 0db0 39be dbb8 0d3f 6d2c cc3e d8b5 ad3c
000001b0: fc94 853e 3c54 bebc 9d60 19bf f9db 49bf
000001c0: a7db f13e 1890 a3be 88d9 6bbe 8586 143f
000001d0: acb5 bebc a58c 37bf 37d8 ff3e 367f be3e
000001e0: 10cc bfbe 425a 2abf dcb9 d1bd 54c2 a33d
000001f0: 4406 2bbe 2fff d9bc 639e 6b3e bae9 5dbf
00000200: 1afa 8ebe 8fcc 54be e8d5 023f d4d7 193f
00000210: da42 573e 1604 b03e f0a3 b93d 7158 ce3c
00000220: 8e02 743d 0538 17bf e7d0 3fbd 3f5d 37bc
00000230: 7c92 5ebd 9030 293f 43fd 37be d220 90be
00000240: 2dd7 08be 0518 e1be f643 80bf e6c5 a7be
00000250: 85b5 03bd f20b 563f 4ae4 073f 37e0 453f
00000260: 2429 2ebe 545f 873e 29ea 073f bf4e e93e
00000270: 333a 0abf 0b2e 8e3e 931a bfbd 032b 49be
00000280: 7c26 063e 564c 59bf 1225 483f af80 02bf
00000290: 3d12 72bf d040 923e 5eff f0bc 1f12 4b3e
000002a0: 143e 07bf a107 02be 0a87 ad3f 9ca0 b6be
000002b0: 2b0b b8bd f8dd 37bf e969 303e d07e babe
000002c0: d38e c2be 751d 4d3d 10ea 9abe e597 d2be
000002d0: da7e fabd 5347 373f 5328 a4be 9836 2bbf
000002e0: 3cd3 783e 89d7 22be c356 5e3f 90bd 99bd
000002f0: 6723 12bf 89b9 493d fb3f a3be e6c2 d8be
00000300: 6951 993e a882 613c f6b9 92bd e0aa a73e
00000310: 741b 8ebe ee82 a0bd 8141 a03e 8cd7 a1bb
00000320: ed93 f43e 9916 423f 6bf3 2cbe 754d 1dbd
00000330: 55ae 923e addb a93e d9de 81be ca72 ca3d
00000340: 2a36 7dbe fe47 e8bd 3150 9b3e ab01 debb
00000350: d0ce c7be 25c9 663e 452a 873e 96e3 35bf
00000360: 4cc4 debe 46f0 d63e 5dac 6fbf ce81 a1be
00000370: c106 ae3d 519c 8a3e 577f 71bf 19f9 80bf
00000380: e799 65bf 1cbb 333c 7ca7 11be 76c0 533e
00000390: 9734 183e 5a82 853c 5352 1c3e e4a8 e4be
000003a0: 8755 013f ef4d 42bd 770b ed3d 3ef5 e0be
000003b0: 8654 cebe d5c0 123e 85b5 5d3f 4172 a53e
000003c0: b94b c63d 9d2a 903f 46a2 813e 6f66 b5be
000003d0: cbbd cd3e cd07 0d3f 99c5 d8be 6013 82be
000003e0: cb0f 9a3e 6d36 ca3e 2517 263f 7e0c 99be
000003f0: ef53 11bf a569 5bbf 0b64 1dbf e504 0e3e

gru.weight_hh_l0 f4 [384, 128]
-0.28495023 -0.31755227 0.5557325 0.26617375 0.09012205 0.09803308 0.19466579 0.021621902
-0.03543696 0.6269183 -0.10428127 -0.43037036 -0.14162219 0.11868926 -0.17022462 0.386981
0.10285693 0.49703768 0.12602434 0.44027033 0.19667654 -0.36128443 -0.5293015 -0.57189536
-0.2499285 -0.5285285 0.19944443 -0.009954618 -0.18232225 -0.32730982 -0.21240775 0.7224102
-0.5039944 -0.1459329 -0.016641976 -0.20954737 0.12700269 -0.028936796 0.008447626 0.13835111
-0.7844606 0.39087993 0.48239994 -0.28499871 0.10685873 0.30915362 0.050380934 0.12521699
-0.31737658 -0.16217186 -0.036418717 0.045479525 -0.56604004 -0.42412636 0.24079296 -0.25018257
0.10338502 -0.2635586 -0.483499 -0.115594834 -0.07345855 -0.015435944 -0.1192723 0.04535801
0.05909829 -0.41393238 -0.26439422 0.36087283 -0.234888 -0.6572982 -0.040388905 0.27029353
-0.14246255 -0.60318434 0.34736457 0.07658127 0.54530406 0.38803983 -0.3681861 -0.22678237
-0.22435708 0.08460112 0.2059395 0.33459482 -0.19224013 -0.103925794 0.34260502 0.16638803
-0.018006232 0.24898684 -0.029632902 -0.081844114 0.110702045 -0.04778023 0.5656155 -0.6744895
0.6065229 0.19527142 -0.6012009 0.41855672 0.50595623 -0.0860566 -0.066984355 0.44619578
-0.6611527 0.2379557 -0.18250383 0.4764218 0.1134326 0.45853603 0.2599454 -0.056304164
-0.6626991 -0.5329993 -0.07930389 0.46989602 0.13842292 0.45630136 -0.034908567 -0.3545192
0.20325768 -0.025927119 0.09712235 -0.08319465 0.20532228 -0.044510417 -0.08226709 0.11463582
-0.049175728 0.23931576 -0.26999816 -0.04720492 -0.34225243 -0.36249852 -0.30757734 -0.39033306
-0.68400663 0.040277746 0.049004313 0.2937693 -0.3576266 -0.4049661 0.07492746 -0.2372577
0.09860084 -0.39328682 0.23143761 -0.21305692 0.17206009 -0.023717616 0.059395082 0.48568794
0.10376644 -0.102262035 -0.11544245 -0.37791374 0.43174303 0.15483335 -0.35148004 0.7445409
0.66271895 -0.057659645 -0.07758766 0.33055967 -0.22898358 -0.021717409 0.5812455 0.22601958
0.123916686 0.943469 0.07171946 -0.07653187 -0.54331183 -0.12109965 0.26464406 -0.22425486
0.25521597 -0.20097251 -0.40753573 0.17599392 0.28987497 -0.14950375 -0.27032074 0.48661172
-0.09419669 -0.085424975 -0.021232031 -0.35172242 0.25472036 -0.624431 -0.16990419 0.30765274
-0.18344924 -0.36638725 0.7365422 -0.6277538 -0.18193308 0.41372767 -0.42989707 -0.56159914
0.22568253 -0.00039122783 -0.3372506 0.32008648 -0.32586077 -0.62647724 -0.25704634 0.504853
-0.1527579 0.38288313 0.13057715 -0.35814834 0.35562176 -0.22386219 -0.09823279 -0.077565886
0.16365306 -0.2079094 0.37685907 -0.24009864 -0.6221842 0.23066352 -0.55828667 -0.48369646
0.00110662 -0.5271219 0.27533853 0.076146066 0.2950064 0.44812298 -0.09283613 0.50461155
-0.33419254 -0.54245216 0.12288549 -0.56345975 -0.2573936 0.29243746 0.15536088 0.64679176
0.077563666 0.17264836 -0.21962957 -0.30167246 -0.117768236 -0.24248992 -0.60640705 -0.20657033
-0.15671223 0.19965048 0.7334102 -0.33067366 -0.19306947 -0.1608473 -0.018492082 0.47643146
00000000: ffe4 91be 3696 a2be 7c44 0e3f ed47 883e
00000010: e991 b83d 91c5 c83d 7856 473e 6a20 b13c
00000020: 5926 11bd b87d 203f 6b91 d5bd 8159 dcbe
00000030: 6805 11be 5b13 f33d 5d4f 2ebe 6022 c63e
00000040: a7a6 d23d b97b fe3e 860c 013e 1d6b e13e
00000050: 9365 493e 46fa b8be 4e80 07bf bc67 12bf
00000060: 42ed 7fbe a54d 07bf 293b 4c3e b218 23bc
00000070: afb2 3abe 2795 a7be 6b81 59be e0ef 383f
00000080: c705 01bf 6f6f 15be c154 88bc 9693 56be
00000090: fe0c 023e dc0c edbc e967 0a3c eaab 0d3e
000000a0: 69d2 48bf 6a21 c83e 20fd f63e 5aeb 91be
000000b0: c0d8 da3d 6249 9e3e 3d5c 4e3d e238 003e
000000c0: 2f7f a2be 6110 26be cb2b 15bd bd48 3a3d
000000d0: 00e8 10bf 1727 d9be 6e92 763e ee17 80be
000000e0: 86bb d33d 27f1 86be 2e8d f7be fcbc ecbd
000000f0: 7071 96bd 0be7 7cbc 0945 f4bd 52c9 393d
00000100: 0c11 723d f2ee d3be ae5e 87be 53c4 b83e
00000110: 7b86 70be b244 28bf d66e 25bd ea63 8a3e
00000120: b4e1 11be 4a6a 1abf c5d9 b13e a4d6 9c3d
00000130: 0c99 0b3f 28ad c63e e382 bcbe a339 68be
00000140: ddbd 65be 5a43 ad3d cee1 523e 0350 ab3e
00000150: 99da 44be 0cd7 d4bd ed69 af3e a061 2a3e
00000160: ce81 93bc 68f6 7e3e b3c0 f2bc e39d a7bd
00000170: c1b7 e23d 34b5 43bd 2dcc 103f 58ab 2cbf
00000180: 1645 1b3f 3bf5 473e 4de8 19bf 114d d63e
00000190: 5986 013f 713e b0bd 182f 89bd c673 e43e
000001a0: 4e41 29bf a9aa 733e 49e2 3abe 8fed f33e
000001b0: 5a4f e83d 3cc5 ea3e 9017 853e 329f 66bd
000001c0: a6a6 29bf a472 08bf 146a a2bd 3696 f03e
000001d0: bdbe 0d3e 55a0 e93e 49fc 0ebd 8a83 b5be
000001e0: c822 503e 1c65 d4bc 15e8 c63d f561 aabd
000001f0: 0140 523e 8e50 36bd a67b a8bd 2fc6 ea3d
00000200: 7d6c 49bd 310f 753e 333d 8abe f259 41bd
00000210: b63b afbe 6899 b9be c77a 9dbe bcd9 c7be
00000220: 0f1b 2fbf 47fa 243d bfb8 483d ee68 963e
00000230: d51a b7be b757 cfbe 9173 993d aff3 72be
00000240: 3def c93d e45c c9be fbfd 6c3e 982b 5abe
00000250: 8530 303e 724b c2bc 4248 733d 17ac f83e
00000260: 8083 d43d c26e d1bd 176d ecbd e97d c1be
00000270: 6c0d dd3e a28c 1e3e 31f5 b3be 3c9a 3e3f
00000280: f3a7 293f 852c 6cbd 47e6 9ebd 1e3f a93e
00000290: ac7a 6abe b5e8 b1bc 81cc 143f ad71 673e
000002a0: 08c8 fd3d 2f87 713f a7e1 923d bebc 9cbd
000002b0: 7c16 0bbf 1803 f8bd 6d7f 873e 11a3 65be
000002c0: abab 823e bdcb 4dbe 86a8 d0be c037 343e
000002d0: 7e6a 943e 8317 19be 7b67 8abe 2c25 f93e
000002e0: 32ea c0bd 4af3 aebd ccee adbc f614 b4be
000002f0: b56a 823e b6da 1fbf 5dfb 2dbe a984 9d3e
00000300: 1eda 3bbe 1c97 bbbe 088e 3c3f 79b4 20bf
00000310: aa4c 3abe 1dd4 d33e 781b dcbe f6c4 0fbf
00000320: 5219 673e b61d cdb9 1cac acbe 60e2 a33e
00000330: 39d7 a6be d060 20bf 949b 83be 0c3e 013f
00000340: 916c 1cbe 4209 c43e 04b6 053e 385f b7be
00000350: 0e14 b63e 213c 65be 462e c9bd ddda 9ebd
00000360: ab94 273e 34e6 54be acf3 c03e 6bdc 75be
00000370: 7747 1fbf 0f33 6c3e e0eb 0ebf 10a7 f7be
00000380: 010c 913a 76f1 06bf 2cf9 8c3e 78f2 9b3d
00000390: 140b 973e 6070 e53e de20 bebd 392e 013f
000003a0: 491b abbe 25de 0abf 63ab fb3d e63e 10bf
000003b0: 18c9 83be 5dba 953e ec16 1f3e 2594 253f
000003c0: b3d9 9e3d bbca 303e 93e6 60be d074 9abe
000003d0: 7930 f1bd 474f 78be 7e3d 1bbf 2c87 53be
000003e0: 2c79 20be 2d71 4c3e c5c0 3b3f 0f4e a9be
000003f0: 01b4 45be 28b5 24be b57c 97bc d3ee f33e

gru.bias_ih_l0 f4 [384]
-0.50107807 0.08909281 -0.80642974 -0.73836696 -0.58728874 -0.067363955 -0.2531397 -0.35920694
-1.0873542 -0.31398886 -0.30298606 -0.4312182 -0.25202528 -0.004847291 -0.7796543 -0.27763885
-0.32507417 -0.6709824 -0.61714417 -0.75673443 -0.47576407 -0.051362045 -0.5812439 -0.60613644
-0.6359209 -0.22862303 -0.27638257 -0.4113731 -0.58408916 -0.51557446 -0.06963439 -0.28694922
-1.2274569 -0.3821856 -0.51229966 -0.078022614 -0.5367093 -0.86061937 -0.5363166 -0.70920974
-0.007147378 -0.0021767602 -0.13208738 -0.6702144 -0.7079702 -0.702344 -0.5272575 -0.57923573
-0.354215 0.076190665 -0.12946248 -0.65941954 -0.19785953 -0.6798397 -0.6310516 -0.6206596
-0.43695217 -0.47246897 -0.09678045 -0.516843 -0.3186984 -0.46639922 -0.12352207 -0.28617033
-0.6219932 -0.667327 -0.29089725 -0.75473595 -0.5794474 -0.71096796 -0.28519464 -0.66117674
-0.5384895 -0.65267676 -0.18835919 -0.32743403 -0.6342729 0.14119019 -1.1493685 -0.07289642
-0.3364643 -0.25276637 -0.5717803 -0.1024651 -0.58684385 -0.46882936 0.1179729 -0.3690259
-0.6609894 -0.55660456 -0.42236808 -0.66731113 -0.38976294 -0.9015075 -0.556445 -0.1308039
-0.13858934 -0.5654399 -0.303116 -1.0657831 -0.73169446 -0.20084825 -0.4969597 -0.40666053
-0.5623583 -0.5933686 -0.19337651 -1.1538839 -0.4296298 -0.62175363 -0.78203166 -0.3751831
-0.4838589 -0.1995726 -0.65492135 -0.34933612 -0.74234 -0.5904773 -0.6893757 -0.7648549
-0.305618 -0.4539197 -0.41350186 -0.24753852 -0.09439266 -0.91867185 -0.3979246 -0.25038174
-0.35230282 0.2184753 -0.18157831 0.16425452 -0.5320268 -0.7383147 0.30836847 0.1804704
-0.4305944 -0.027004652 0.036454268 -0.26088825 0.27091774 0.3763858 -0.008644842 0.49744236
0.2764554 -0.969216 0.65810573 -0.48773423 -0.42715317 0.04436617 -0.32415348 0.1519981
0.28652203 -0.2360232 -0.10475346 -0.048062034 -0.6337592 0.39292893 0.50639707 0.28888154
-0.41883305 -0.18085665 0.26479873 0.66958576 0.11264434 0.19371487 0.405725 0.71238685
-0.1891451 0.54038435 0.20832063 0.20356223 -0.26957083 0.6660142 0.7725489 0.13811664
-0.08762589 0.38008335 0.6219916 0.057031456 0.2208159 -0.6549863 0.11216584 -0.32852253
0.42074996 0.27601495 0.21548781 0.35070235 -0.6706841 -0.08077326 0.13170032 0.12211325
0.09447142 -0.36728966 0.3555642 -0.20059164 0.25047988 0.0023081854 -0.9187435 -0.31828457
0.15476891 -0.50499237 0.23053312 0.16934185 0.4723445 -1.1034709 -0.6815922 -0.7931918
-0.7230977 0.50431114 0.5815463 0.5387846 -0.1001419 0.18258913 0.30829558 0.4689143
0.5225972 0.7072797 0.04447946 -0.5194962 -0.4801202 0.09959343 -0.53603756 0.28307387
-0.10778308 -0.32627776 0.5578167 -0.8498489 -0.44352522 0.38065696 -0.3096089 0.27642685
1.0288253 0.022678439 -0.79991925 -0.49985692 0.4130893 0.111581534 0.35469204 0.1620036
0.18656127 0.3509879 0.2820563 0.18536738 -0.073355824 -0.43816227 0.18803942 0.24010539
0.031592187 0.03862856 0.3519553 0.45713136 0.55822617 0.4533073 0.2421249 0.43247923
00000000: a746 00bf 4b76 b63d 2e72 4ebf 9e05 3dbf
00000010: 8e58 16bf 1df6 89bd 879b 81be f9e9 b7be
00000020: 6c2e 8bbf 26c3 a0be fd20 9bbe a2c8 dcbe
00000030: 7509 81be 06d6 9ebb 6d97 47bf ae26 8ebe
00000040: 1f70 a6be 81c5 2bbf 29fd 1dbf 59b9 41bf
00000050: 5997 f3be 0261 52bd 66cc 14bf c22b 1bbf
00000060: b6cb 22bf 281c 6abe 0482 8dbe 7f9f d2be
00000070: de86 15bf b0fc 03bf 7a9c 8ebd 02eb 92be
00000080: 4f1d 9dbf d5ad c3be 1226 03bf 52ca 9fbd
00000090: c865 09bf 8d51 5cbf 0b4c 09bf c58e 35bf
000000a0: 8d34 eabb faa7 0ebb ea41 07be 2c93 2bbf
000000b0: 893d 35bf d1cc 33bf 59fa 06bf cb48 14bf
000000c0: ab5b b5be da09 9c3d d091 04be b8cf 28bf
000000d0: b09b 4abe f909 2ebf 998c 21bf 8ce3 1ebf
000000e0: 32b8 dfbe 74e7 f1be d434 c6bd d34f 04bf
000000f0: 702c a3be e1cb eebe 24f9 fcbd eb84 92be
00000100: f23a 1fbf f1d5 2abf 7cf0 94be 6036 41bf
00000110: aa56 14bf ff01 36bf 0805 92be e142 29bf
00000120: 73da 09bf d315 27bf 3be1 40be 6fa5 a7be
00000130: b55f 22bf 2994 103e 821e 93bf b84a 95bd
00000140: 0c45 acbe 986a 81be 3260 12bf 39d9 d1bd
00000150: 663b 16bf 670a f0be c79b f13d f6f0 bcbe
00000160: 9a36 29bf a37d 0ebf a140 d8be e7d4 2abf
00000170: 028f c7be 32c9 66bf 2e73 0ebf 75f1 05be
00000180: 5dea 0dbe abc0 10bf 0532 9bbe 956b 88bf
00000190: 5450 3bbf 2aab 4dbe 8071 febe cf35 d0be
000001a0: b7f6 0fbf 01e7 17bf 7e04 46be 78b2 93bf
000001b0: 70f8 dbbe 3f2b 1fbf 3a33 48bf 0018 c0be
000001c0: 5bbc f7be c25c 4cbe eda8 27bf 2fdc b2be
000001d0: ff09 3ebf 8529 17bf ed7a 30bf 88cd 43bf
000001e0: f679 9cbe 2a68 e8be 84b6 d3be bd7a 7dbe
000001f0: f050 c1bd 142e 6bbf c6bc cbbe 0932 80be
00000200: 0961 b4be fdb7 5f3e aaef 39be 5632 283e
00000210: e932 08bf 3102 3dbf 79e2 9d3e 3ccd 383e
00000220: df76 dcbe dc38 ddbc 1251 153d 2593 85be
00000230: bbb5 8a3e a4b5 c03e 18a3 0dbc c4b0 fe3e
00000240: 908b 8d3e 8a1e 78bf 9e79 283f 4db8 f9be
00000250: d2b3 dabe 4db9 353d 72f7 a5be 64a5 1b3e
00000260: 04b3 923e 11b0 71be fb88 d6bd b2dc 44bd
00000270: 0b3e 22bf fb2d c93e 3da3 013f 48e8 933e
00000280: 4971 d6be 7c32 39be b393 873e f969 2b3f
00000290: 13b2 e63d 315d 463e 30bb cf3e fc5e 363f
000002a0: 41af 41be a156 0a3f 0152 553e 9e72 503e
000002b0: 3005 8abe e87f 2a3f c4c5 453f 736e 0d3e
000002c0: 3475 b3bd 499a c23e d73a 1f3f d199 693d
000002d0: 901d 623e 2fad 27bf 34b7 e53d 1b34 a8be
000002e0: 8a6c d73e d551 8d3e d6a8 5c3e 428f b33e
000002f0: f4b1 2bbf 736c a5bd 73dc 063e 8316 fa3d
00000300: 3b7a c13d 640d bcbe 830c b63e e567 4dbe
00000310: e63e 803e ed44 173b c632 6bbf 32f6 a2be
00000320: be7b 1e3e 2e47 01bf e010 6c3e f367 2d3e
00000330: 23d7 f13e 893e 8dbf d47c 2ebf 9e0e 4bbf
00000340: ee1c 39bf 891a 013f 38e0 143f caed 093f
00000350: 3217 cdbd a5f8 3a3e ebd8 9d3e 8915 f03e
00000360: eec8 053f 4810 353f 1830 363d b4fd 04bf
00000370: 51d2 f5be a4f7 cb3d c239 09bf 0fef 903e
00000380: 60bd dcbd e10d a7be 13cd 0e3f b38f 59bf
00000390: bd15 e3be 78e5 c23e 0f85 9ebe d287 8d3e
000003a0: 8cb0 833f 22c8 b93c 82c7 4cbf 3fed ffbe
000003b0: 7180 d33e dc84 e43d 329a b53e 46e4 253e
000003c0: eb09 3f3e b0b4 b33e af69 903e f2d0 3d3e
000003d0: 943b 96bd ce56 e0be 688d 403e 30de 753e
000003e0: cf66 013d fb38 1e3d 7c33 b43e 1f0d ea3e
000003f0: e9e7 0e3f e517 e83e 97ef 773e eb6d dd3e

gru.bias_hh_l0 f4 [384]
-0.42115924 0.11882351 -0.83771646 -0.7681146 -0.54523265 -0.084614135 -0.16568437 -0.43309498
-1.0501235 -0.2402244 -0.24294005 -0.5113847 -0.23476326 -0.12747644 -0.84295326 -0.33296826
-0.28043476 -0.6887177 -0.67171377 -0.7519584 -0.49985325 -0.12075291 -0.44802922 -0.5494053
-0.70571434 -0.19100341 -0.17748767 -0.40435943 -0.5189348 -0.35271117 0.043399204 -0.3103419
-1.243417 -0.37653896 -0.50652206 -0.003196377 -0.42605585 -0.81804854 -0.5378509 -0.71910673
-0.05491678 -0.08918745 -0.16753438 -0.5419037 -0.6852399 -0.6069076 -0.52503794 -0.5672236
-0.4115625 0.10112911 -0.14262588 -0.56852376 -0.19152501 -0.76061684 -0.5878704 -0.68014914
-0.4361583 -0.5071076 -0.089928076 -0.55553293 -0.30549228 -0.510199 -0.10134301 -0.26207742
-0.5575904 -0.7271038 -0.29392874 -0.81694436 -0.5037945 -0.5819623 -0.33481568 -0.7112973
-0.68911695 -0.6350494 -0.17712532 -0.24441624 -0.6355531 0.024614114 -1.1610974 -0.14172068
-0.43827915 -0.21728054 -0.55349463 -0.067370825 -0.49073908 -0.5171958 0.12469455 -0.42892742
-0.61105084 -0.49552247 -0.5114122 -0.6038166 -0.41888326 -0.81861377 -0.5537638 -0.22149183
-0.019707855 -0.66523486 -0.33082518 -1.0247931 -0.61898446 -0.33416414 -0.52891845 -0.5627361
-0.5505162 -0.5507364 -0.10052602 -1.1606067 -0.54212743 -0.66325563 -0.900985 -0.4281067
-0.5351204 -0.0516023 -0.66266304 -0.32368225 -0.723745 -0.572723 -0.676445 -0.7664011
-0.2555934 -0.48826173 -0.32345057 -0.24043596 -0.18520436 -0.96111506 -0.35826984 -0.24150641
-0.29094064 0.16605823 -0.21700084 0.27876955 -0.43529996 -0.7301996 0.34927475 0.2075501
-0.5882056 0.045853253 -0.063629396 -0.30237493 0.3250492 0.2778839 -0.153374 0.3436587
0.2806796 -0.98995894 0.65481585 -0.37980878 -0.38937107 0.051815286 -0.32147023 0.0031619505
0.22254974 -0.17260464 -0.06352392 0.049739648 -0.7824991 0.47442445 0.53712213 0.29367226
-0.3517373 -0.24809834 0.27109936 0.5833908 0.099002935 0.189089 0.40537417 0.5671913
-0.07532492 0.5110951 0.16732667 0.23559377 -0.3264675 0.619179 0.6418316 0.17960137
-0.23246095 0.2688101 0.742028 0.025211802 0.10489877 -0.54014367 0.16929604 -0.343141
0.38604337 0.32372513 0.33520243 0.38532352 -0.7769547 -0.1281696 0.047436386 0.104760244
0.13674308 -0.37594068 0.23285656 -0.16532773 0.15861621 0.0028156114 -1.0046787 -0.25844866
0.1123701 -0.3974499 0.28663358 0.02020287 0.3705855 -1.1944662 -0.6757547 -0.79184866
-0.7348356 0.5085104 0.4878728 0.554135 -0.13028583 0.18124148 0.27052793 0.40026304
0.4638422 0.742769 -0.03622026 -0.51927745 -0.5121795 -0.043127473 -0.5384785 0.4215559
-0.13152045 -0.31847173 0.5487135 -0.87186915 -0.50429344 0.32098293 -0.29168355 0.24322882
1.0418159 -0.087998696 -0.67935246 -0.50280386 0.30913192 0.033496786 0.39574894 0.08220695
0.23311025 0.44741777 0.30776513 0.18508346 0.015621067 -0.39037415 0.19862822 0.18558647
0.034055457 0.009362435 0.2452995 0.48556265 0.5008292 0.37319922 0.121813886 0.5117464
00000000: 2fa2 d7be be59 f33d 9674 56bf 29a3 44bf
00000010: 5e94 0bbf 2d4a adbd 2aa9 29be a0be ddbe
00000020: 726a 86bf 63fd 75be 47c5 78be 1cea 02bf
00000030: c865 70be 2f89 02be c9cb 57bf d17a aabe
00000040: 2595 8fbe ce4f 30bf 6ff5 2bbf 5880 40bf
00000050: c4ec ffbe 4d4d f7bd 1664 e5be d3a5 0cbf
00000060: b2a9 34bf 6696 43be 54bf 35be 3308 cfbe
00000070: e9d8 04bf 8f96 b4be 5dc3 313d 22e5 9ebe
00000080: 4a28 9fbf b7c9 c0be 6eab 01bf 4f7a 51bb
00000090: fe23 dabe a16b 51bf 99b0 09bf 6117 38bf
000000a0: 6bf0 60bd e9a7 b6bd 228e 2bbe 33ba 0abf
000000b0: e26b 2fbf 4c5e 1bbf e368 06bf 9135 11bf
000000c0: 52b8 d2be c71c cf3d 850c 12be c68a 11bf
000000d0: 221f 44be c9b7 42bf ad7e 16bf 411e 2ebf
000000e0: 2450 dfbe ced1 01bf 362c b8bd 6837 0ebf
000000f0: 7c69 9cbe 679c 02bf ed8c cfbd 032f 86be
00000100: 3fbe 0ebf 7a23 3abf d47d 96be 4423 51bf
00000110: adf8 00bf 7bfb 14bf f66c abbe 9417 36bf
00000120: f869 30bf 9992 22bf 5760 35be 4048 7abe
00000130: 9cb3 22bf 8aa3 c93c d79e 94bf 3a1f 11be
00000140: 2066 e0be ca7e 5ebe d3b1 0dbf b7f9 89bd
00000150: 2742 fbbe f266 04bf db5f ff3d 609c dbbe
00000160: d46d 1cbf 1fb5 fdbe e9eb 02bf ba93 1abf
00000170: de77 d6be ac90 51bf 77c3 0dbf c1ce 62be
00000180: 5e72 a1bc d54c 2abf eb61 a9be 6c2c 83bf
00000190: c475 1ebf 9017 abbe 3367 07bf 790f 10bf
000001a0: a1ee 0cbf 10fd 0cbf 96e0 cdbd c38e 94bf
000001b0: ddc8 0abf 1fcb 29bf f4a6 66bf cd30 dbbe
000001c0: a7fd 08bf ef5c 53bd 49a4 29bf aeb9 a5be
000001d0: 5a47 39bf f99d 12bf 802b 2dbf dd32 44bf
000001e0: 23dd 82be 71fd f9be 509b a5be d834 76be
000001f0: 36a6 3dbe a30b 76bf 256f b7be 754d 77be
00000200: 2cf6 94be 2b0b 2a3e 7835 5ebe e2ba 8e3e
00000210: a3df debe 5cee 3abf 24d4 b23e 0388 543e
00000220: a494 16bf 9fd0 3b3d 2150 82bd e3d0 9abe
00000230: d96c a63e cc46 8e3e 130e 1dbe 08f4 af3e
00000240: 3db5 8f3e f36d 7dbf 03a2 273f 4c76 c2be
00000250: a55b c7be 443c 543d bf97 a4be ba38 4f3b
00000260: 14e4 633e 45bf 30be d418 82bd cdbb 4b3d
00000270: dc51 48bf c3e7 f23e d680 093f 365c 963e
00000280: e916 b4be 7e0d 7ebe 89cd 8a3e 1959 153f
00000290: 0dc2 ca3d 8ca0 413e 348d cf3e 7333 113f
000002a0: f443 9abd 21d7 023f af57 2b3e 7e3f 713e
000002b0: c026 a7be 8482 1e3f 134f 243f 6ce9 373e
000002c0: 3e0a 6ebe 7aa1 893e 8cf5 3d3f fb88 ce3c
000002d0: 2bd5 d63d db46 0abf f15b 2d3e 2db0 afbe
000002e0: 7aa7 c53e 4dbf a53e a79f ab3e 2049 c53e
000002f0: 81e6 46bf e43e 03be a84c 423d 8a8c d63d
00000300: 6106 0c3e 4c7b c0be f371 6e3e ac4b 29be
00000310: 4a6c 223e 1f86 383b 5099 80bf 6253 84be
00000320: 4c22 e63d 8e7e cbbe a3c1 923e 7d80 a53c
00000330: 62bd bd3e 45e4 98bf 43fe 2cbf 98b6 4abf
00000340: 301e 3cbf bd2d 023f 77ca f93e cbdb 0d3f
00000350: a669 05be 5e97 393e a382 8a3e 47ef cc3e
00000360: ba7c ed3e 1c26 3e3f b25b 14bd 5eef 04bf
00000370: 321e 03bf 6fa6 30bd bad9 09bf 2dd6 d73e
00000380: 4cad 06be ba0e a3be 7d78 0c3f d132 5fbf
00000390: 6019 01bf e057 a43e 8c57 95be fa10 793e
000003a0: 395a 853f a938 b4bd 0bea 2dbf c1b7 00bf
000003b0: 8a46 9e3e ed33 093d 9b9f ca3e 1e5c a83d
000003c0: 74b4 6e3e f113 e53e 6493 9d3e 8586 3d3e
000003d0: 81ef 7f3c 1fdf c7be 3265 4b3e 610a 3e3e
000003e0: bc7d 0b3d e664 193c cb2f 7b3e ab9b f83e
000003f0: 5836 003f f813 bf3e 8f79 f93d d001 033f

gru.weight_ih_l1 f4 [384, 128]
-0.217045 -0.20495695 0.4562194 0.072123885 0.16727474 -0.18175422 -0.3982737 0.077916786
-0.02766124 -0.35303444 -0.004763975 0.31719562 0.008821921 0.05213608 -0.21624506 0.016470222
-0.032787744 0.47994584 0.5099773 0.096054934 0.10566022 0.09325021 0.049914233 -0.020513698
-0.21960498 0.5062429 -0.75346035 -0.32474408 -0.064812765 -0.77709705 0.12193149 -0.14901617
0.16269891 0.5401321 0.28228468 0.136385 0.12397956 -0.37899336 -0.8552977 -0.035982866
0.055302113 0.044054177 0.34086058 0.25688833 -0.23391992 0.09320585 -0.5739896 0.5892664
-0.5052893 0.19684322 -0.06412777 -0.40756676 0.3089177 -0.011156587 -0.21030508 -0.013943444
0.48709428 -0.14584921 0.4357487 -0.4045544 0.019212903 0.11531774 -0.25110355 0.056606196
-0.32200882 -0.3253473 0.6111749 0.24858935 0.0412754 0.029043224 -0.02613114 -0.3568128
0.17870939 -0.32324627 -0.60954905 -0.06189022 -0.04614971 -0.2659584 -0.297603 -0.2850523
-0.8833991 -0.4225287 0.3883665 -0.936964 0.34201673 -0.30656433 -0.017361926 -0.60038215
-0.054654375 -0.35815635 0.32110092 -0.50830084 0.39434108 0.06813162 -0.34202746 0.075818986
0.07585314 -0.17119955 -0.18677962 0.3546392 -0.29320398 0.34615692 0.4500965 0.5838075
0.009509007 -0.11084075 0.16833779 -0.23537882 -0.27987757 -0.52829826 -0.16873644 0.29414365
-0.18352294 -0.2940909 0.05985262 -0.5819114 -0.040236216 -0.51730025 0.18884028 0.21306352
0.025262985 0.054912563 0.16956748 -0.19029894 0.015386552 0.011037373 0.09256676 0.08252742
-0.18038127 0.40605652 -0.4271558 0.30782586 0.48140377 0.1464122 0.104129255 -0.042453803
-0.2749694 -0.18129857 -0.033665255 0.37670702 0.2606606 -0.12687455 -0.121458806 -0.033277452
0.23664272 0.09328451 -0.27399924 0.07641804 -0.08080675 0.12759252 0.108775504 0.054631524
0.047825254 0.48621157 -0.2038025 0.25500306 -0.2302089 0.57624435 0.26583517 -0.15821609
-0.07155425 -0.29219037 0.39388755 0.36052397 0.27123544 0.0066271033 -0.02214553 -0.48514047
0.059336647 -0.4781105 -0.5072046 0.05812131 0.4856153 -0.2588756 0.5610798 0.017781377
0.31552282 -0.12307769 -0.10704266 0.54820263 0.039405275 0.28203443 -0.18481994 -0.3511942
-0.6167022 -0.36393952 0.26312163 -0.0762967 0.6051551 -0.08592624 0.28472096 -1.1003009
0.30197087 0.08673048 -0.16637744 0.31023002 -0.083495736 -0.111254975 -0.39371112 -0.1644087
-0.42363015 -0.16437018 -0.18471085 -0.2036297 0.48317966 -0.25907752 0.15765087 0.9210328
0.40066907 0.046699412 -0.6822439 -0.33464733 0.009439105 0.28511003 0.11847823 -0.0041021253
0.6995088 0.07782109 -0.052127328 0.21828032 0.15178245 -0.0607692 -1.0009937 -0.20136654
0.24041584 -0.5269295 -0.43401346 -0.5008408 -0.15900734 -0.090024486 0.8958054 0.041066807
0.5234375 0.203942 0.06427259 -0.44084218 -0.12604132 -0.13675503 0.3159187 0.2104172
0.053137276 0.13701679 0.052908033 -0.16512723 -0.2639895 0.5662676 -0.63637275 0.427078
0.05856523 -0.24046753 -0.022863597 -0.23545022 -0.24553315 0.13522024 0.2089658 0.017735694
00000000: 0b41 5ebe 3ce0 51be 9795 e93e b0b5 933d
00000010: 124a 2b3e c71d 3abe 88ea cbbe d692 9f3d
00000020: d399 e2bc eec0 b4be 1e1b 9cbb 7767 a23e
00000030: d289 103c a48c 553d 586f 5dbe 8fec 863c
00000040: 714c 06bd 76bb f53e df8d 023f 73b8 c43d
00000050: 6364 d83d f7f9 be3d de72 4c3d 580c a8bc
00000060: 21e0 60be 2299 013f c7e2 40bf db44 a6be
00000070: 8ebc 84bd d5ef 46bf 38b7 f93d b297 18be
00000080: 8b9a 263e 1946 0a3f 9e87 903e 82a8 0b3e
00000090: ffe8 fd3d 6b0b c2be caf4 5abf c562 13bd
000000a0: 7884 623d 2772 343d 4785 ae3e de86 833e
000000b0: b488 6fbe b5e2 be3d fcf0 12bf 2ada 163f
000000c0: a45a 01bf 4591 493e 6c55 83bd 97ac d0be
000000d0: 762a 9e3e 1eca 36bc 375a 57be 0b73 64bc
000000e0: 6c64 f93e 7f59 15be 741a df3e c121 cfbe
000000f0: 6164 9d3c b52b ec3d a590 80be e6db 673d
00000100: 57de a4be ec93 a6be f575 1c3f 358e 7e3e
00000110: 6510 293d 0eec ed3c f910 d6bc 2bb0 b6be
00000120: 98ff 363e 8980 a5be 680b 1cbf 9980 7dbd
00000130: 7a07 3dbd b32b 88be 6c5f 98be 60f2 91be
00000140: 7226 62bf af55 d8be f9d7 c63e dfdc 6fbf
00000150: d11c af3e 00f6 9cbe 993a 8ebc a5b2 19bf
00000160: 44dd 5fbd 4560 b7be 5767 a43e 0120 02bf
00000170: 13e7 c93e 9788 8b3d 391e afbe fc46 9b3d
00000180: e458 9b3d ef4e 2fbe 2843 3fbe 4593 b53e
00000190: d51e 96be 7b3b b13e 0c73 e63e 6974 153f
000001a0: abcb 1b3c 7a00 e3bd be60 2c3e 2507 71be
000001b0: 1d4c 8fbe 8e3e 07bf 3fc9 2cbe ff99 963e
000001c0: 70ed 3bbe 1593 96be 0528 753d 25f8 14bf
000001d0: bbce 24bd ca6d 04bf 595f 413e 532d 5a3e
000001e0: 52f4 ce3c ffeb 603d 19a3 2d3e badd 42be
000001f0: e017 7c3c 19d6 343c a493 bd3d 2304 a93d
00000200: deb5 38be a4e6 cf3e 2ab4 dabe 5a9b 9d3e
00000210: 8e7a f63e 14ed 153e b841 d53d 0ae4 2dbd
00000220: cac8 8cbe 55a6 39be 94e4 09bd bedf c03e
00000230: 4e75 853e 67eb 01be 65bf f8bd f04d 08bd
00000240: 7852 723e f30b bf3d a149 8cbe 1081 9c3d
00000250: 027e a5bd 9da7 023e b1c5 de3d 4ec5 5f3d
00000260: 6ae4 433d b9f0 f83e 9ab1 50be c38f 823e
00000270: e2bb 6bbe c084 133f 8c1b 883e 6603 22be
00000280: 098b 92bd fa99 95be a1ab c93e 9996 b83e
00000290: 5fdf 8a3e 2c28 d93b 8b6a b5bc 5564 f8be
000002a0: fc0a 733d e6ca f4be 29d8 01bf 9c10 6e3d
000002b0: 92a2 f83e 588b 84be eda2 0f3f 40aa 913c
000002c0: 358c a13e 2810 fcbd 2f39 dbbd 0257 0c3f
000002d0: 6d67 213d d166 903e 7041 3dbe bacf b3be
000002e0: 32e0 1dbf 4856 babe e1b7 863e 7241 9cbd
000002f0: 72eb 1a3f 19fa afbd f2c6 913e a9d6 8cbf
00000300: ed9b 9a3e c09f b13d d95e 2abe 78d6 9e3e
00000310: d0ff aabd a6d9 e3bd 8194 c9be c15a 28be
00000320: 0de6 d8be a850 28be d724 3dbe 4e84 50be
00000330: 5363 f73e cfa5 84be 3b6f 213e cec8 6b3f
00000340: 7f24 cd3e e247 3f3d 89a7 2ebf e556 abbe
00000350: 7aa6 1a3c f1f9 913e b7a4 f23d 1f6b 86bb
00000360: 0213 333f aa60 9f3d 7783 55bd e084 5f3e
00000370: dc6c 1b3e 20e9 78bd 9020 80bf 0833 4ebe
00000380: 922f 763e dae4 06bf 0337 debe 1a37 00bf
00000390: d2d2 22be c25e b8bd 8153 653f ab35 283d
000003a0: 0000 063f 2cd6 503e 59a1 833d 11b6 e1be
000003b0: fa10 01be 8309 0cbe 19c0 a13e 9b77 573e
000003c0: 79a6 593d 214e 0c3e 18b6 583d 1d17 29be
000003d0: a229 87be eaf6 103f 53e9 22bf f8a9 da3e
000003e0: 18e2 6f3d 1f3d 76be 704c bbbc dd19 71be
000003f0: 0b6d 7bbe 2d77 0a3e 21fb 553e 724a 913c

gru.weight_hh_l1 f4 [384, 128]
-0.39195037 0.66100705 -0.0044346247 -0.112370856 0.3939341 -0.13703889 -0.5390867 0.62998813
-0.4044145 -0.17713912 -0.1907899 0.29245138 0.46325594 -0.23474222 0.44787982 1.4197431
0.19986334 0.42233944 0.7008472 -0.09429879 0.33311406 0.8927859 0.84168684 -0.65801424
-0.10084228 -0.25813255 0.4349504 0.6512566 -0.12695429 -0.2244017 0.25602323 -0.2017015
0.049937926 -0.09959772 0.22508702 -0.11936469 -0.18708979 0.34053993 0.41122675 0.10876268
0.24770193 0.0019017188 0.16692732 -0.22778733 0.43444806 -0.104460776 -0.030160606 0.36008117
-0.39320192 -0.072533324 0.78808016 -0.36439115 -0.32036692 -0.4138856 -0.55299807 1.0355308
-0.8009197 -0.049902726 0.4693927 0.3875895 0.23429826 0.009723904 -0.37475666 -0.2186066
-0.81106895 0.124349125 0.40084922 -0.04668574 0.13708757 -0.090550825 0.014889464 -0.19361733
-0.07998489 -0.5791739 0.16165495 0.93404406 -0.7419414 -0.26503438 1.0042745 0.6524452
-0.29453743 -0.5906753 -0.28717268 -0.38566715 -0.42907774 0.8309174 0.6477051 -0.7950095
-0.74817926 0.50274247 0.034361266 0.13672489 -0.34994555 -0.45988655 -0.16630839 0.10991821
-0.739054 0.36818716 -0.05344442 -0.1209929 0.3719937 0.39451826 0.21969797 0.15064768
0.3012553 0.21626781 -0.23394848 0.21238543 -0.5227848 -0.72180766 0.10256194 -0.50298977
-0.07623738 -0.31722817 -0.14533913 -0.73700666 0.31055957 -0.04474922 0.30541825 0.36527818
-0.1152655 0.13493301 0.05898527 0.24224335 -0.20300545 -0.5460397 0.6608403 -0.6745749
0.18175936 0.09476549 -0.50492406 -0.048123688 0.43175817 -0.07215414 -0.5053656 0.027801866
0.18828867 -0.21152604 -0.0851014 -0.053805087 -0.23065893 -0.32120275 -0.16038963 0.50097245
0.019285407 0.019222436 -0.11622428 -0.640958 0.09744216 -0.7156837 -0.64742506 -0.0001387827
-0.077777885 0.4261333 0.38191903 0.24215049 -0.608753 -0.29243788 -0.043151204 -0.02390001
-0.113647275 -0.5558548 -0.032383315 -0.20377122 0.23908043 -0.17311458 0.0862348 0.6267664
-0.24946786 -0.283417 0.03854404 0.22723354 0.3260594 -0.3535867 -0.41443288 0.6442129
-0.046860777 -0.34095138 -0.8048913 0.5937019 0.48743963 -0.041381683 0.6819934 -0.26605526
-0.25428656 0.17827398 -0.041149728 -0.044403724 0.32759434 0.62033904 -0.16433406 -0.36436075
-0.4835221 -0.098751664 -0.51553845 0.2105335 -0.8502151 -0.28162736 -0.26790252 0.1957816
0.12575614 0.100905575 0.38923752 0.19429916 -0.52023256 -0.75712746 -0.4011229 -0.08347136
-0.20087625 -0.2694741 0.06094973 0.04539469 0.20647211 -0.082297936 -0.5083668 0.6184125
-0.3325538 0.37088874 -0.15061069 0.33516422 -0.4284572 0.113581136 -0.6997036 -0.23610982
0.7319959 0.16089946 -0.008014956 -0.0048768222 -0.42214948 0.08015595 0.23880495 -0.25604147
-0.3935033 -0.06265033 0.04106611 0.18993933 -0.13667418 0.60483474 0.11207875 0.12464765
0.20547257 0.034391746 0.20130892 -0.23615192 -0.077814445 -0.6434875 -0.42504948 -0.61064047
0.48499262 0.045432862 -0.25057188 0.011603345 0.21934496 0.030878425 -0.5088295 -0.2802061
00000000: b8ad c8be c237 293f 5450 91bb b122 e6bd
00000010: bbb1 c93e ec53 0cbe 9601 0abf e746 213f
00000020: 6b0f cfbe f563 35be 6d5e 43be 30bc 953e
00000030: e22f ed3e 4460 70be 8150 e53e 24ba b53f
00000040: faa8 4c3e e03c d83e b96a 333f b91f c1bd
00000050: ed8d aa3e 9e8d 643f ca78 573f 9f73 28bf
00000060: 6686 cebd f329 84be d2b1 de3e c1b8 263f
00000070: 4e00 02be 8fc9 65be 7a15 833e d78a 4ebe
00000080: b68b 4c3d e4f9 cbbd 367d 663e 7975 f4bd
00000090: 7794 3fbe 405b ae3e 508c d23e f8be de3d
000000a0: 93a5 7d3e 1843 f93a ffee 2a3e 1541 69be
000000b0: fa6f de3e 88ef d5bd 6013 f7bc 8f5c b83e
000000c0: c351 c9be 5a8c 94bd 9fbf 493f 7a91 babe
000000d0: 2207 a4be d0e8 d3be 4891 0dbf 468c 843f
000000e0: 1309 4dbf cd66 4cbd 3d54 f03e 2272 c63e
000000f0: e2eb 6f3e 0251 1f3c 1be0 bfbe 69da 5fbe
00000100: 37a2 4fbf c1aa fe3d 1c3c cd3e 8c39 3fbd
00000110: af60 0c3e b672 b9bd f0f2 733c 9f43 46be
00000120: 1ecf a3bd be44 14bf e088 253e 831d 6f3f
00000130: dfef 3dbf 96b2 87be 118c 803f a606 273f
00000140: 9ccd 96be 7f36 17bf 4c08 93be 2a76 c5be
00000150: 14b0 dbbe 01b7 543f 00d0 253f be85 4bbf
00000160: ad88 3fbf bbb3 003f 66be 0c3d 9c01 0c3e
00000170: 102c b3be 4076 ebbe bf4c 2abe cc1c e13d
00000180: a532 3dbf 0783 bc3e 89e8 5abd 20cb f7bd
00000190: f575 be3e 4cfe c93e 81f8 603e 6343 1a3e
000001a0: 223e 9a3e 4f75 5d3e 3190 6fbe 917b 593e
000001b0: 3ad5 05bf 63c8 38bf ff0b d23d f0c3 00bf
000001c0: 5822 9cbd bb6b a2be c8d3 14be 78ac 3cbf
000001d0: aa01 9f3e f54a 37bd c85f 9c3e be05 bb3e
000001e0: 5210 ecbd e12b 0a3e 8a9a 713d a40e 783e
000001f0: a9e0 4fbe 42c9 0bbf d42c 293f f1b0 2cbf
00000200: 201f 3a3e 6914 c23d b442 01bf 581d 45bd
00000210: 680f dd3e 8dc5 93bd a45f 01bf bdc0 e33c
00000220: bfce 403e 489a 58be a549 aebd b962 5cbd
00000230: db31 6cbe b074 a4be 2e3d 24be bb3f 003f
00000240: 6efc 9d3c 5f78 9d3c ff06 eebd d315 24bf
00000250: c18f c73d 0c37 37bf a6bd 25bf 3386 11b9
00000260: 034a 9fbd 252e da3e e48a c33e 4cf6 773e
00000270: 3dd7 1bbf 6bba 95be 51bf 30bd f4c9 c3bc
00000280: e7bf e8bd 804c 0ebf 5ea4 04bd 67a9 50be
00000290: 80d1 743e f344 31be df9b b03d c373 203f
000002a0: 8174 7fbe 081c 91be 5be0 1d3d e9af 683e
000002b0: 42f1 a63e 5109 b5be 8c30 d4be 23eb 243f
000002c0: 16f1 3fbd 2e91 aebe 5b0d 4ebf d9fc 173f
000002d0: b091 f93e d77f 29bd 1f97 2e3f 6538 88be
000002e0: d931 82be 748d 363e 9e8c 28bd aee0 35bd
000002f0: 72ba a73e 8ace 1e3f 3047 28be 7e8d babe
00000300: 3590 f7be 503e cabd 54fa 03bf 1896 573e
00000310: b2a7 59bf 7631 90be 852a 89be f97a 483e
00000320: 38c6 003e 95a7 ce3d 244a c73e 5cf6 463e
00000330: f62d 05bf 1bd3 41bf fb5f cdbe 08f3 aabd
00000340: 81b2 4dbe 82f8 89be 6da6 793d c8ef 393d
00000350: 6d6d 533e d28b a8bd 5424 02bf 4850 1e3f
00000360: 7e44 aabe 21e5 bd3e b039 1abe a59a ab3e
00000370: be5e dbbe 3a9d e83d c61f 33bf c6c6 71be
00000380: 1564 3b3f d4c2 243e 2951 03bc c0cd 9fbb
00000390: fa23 d8be cd28 a43d 4989 743e de17 83be
000003a0: 4479 c9be d14e 80bd f034 283d 757f 423e
000003b0: 51f4 0bbe 73d6 1a3f 8b89 e53d 4447 ff3d
000003c0: 6767 523e 5cde 0c3d ed23 4e3e cfd1 71be
000003d0: 2e5d 9fbd 99bb 24bf 16a0 d9be ef52 1cbf
000003e0: f450 f83e cf17 3a3d f54a 80be f51b 3e3c
000003f0: f79b 603e c0f4 fc3c a642 02bf 2d77 8fbe

gru.bias_ih_l1 f4 [384]
0.19313133 -0.12009159 -0.5591064 0.292219 0.14218499 -0.12689075 -0.5709284 0.14407167
-0.20905021 -0.19213173 0.0765203 -0.47749037 0.12279185 0.13098761 -0.26777843 -0.50976646
-0.23036718 -0.10008794 -0.2873874 -0.3821957 -0.38172266 -0.28119293 0.07051865 0.22557832
-0.011733242 -0.20822673 0.07277922 -0.31824714 -0.7496691 -0.41977146 0.09918673 -0.067931354
-0.13367847 -0.26250613 -0.20769285 -0.58676296 -0.7208287 0.005377961 0.082375534 -0.36137968
0.116034634 0.253642 0.035761084 0.10552609 0.011123236 -0.27156678 0.038325794 -0.25646138
-0.025814528 -0.34803686 0.15269569 -0.025596812 0.0075328774 0.00766372 -0.5763215 -0.1998275
-0.015059393 0.15287274 0.2602645 0.055788383 0.012675844 -0.3496328 -0.099578336 -0.048692044
-0.044532698 -0.052347098 -0.5838899 0.32171768 -0.272604 -0.25950882 -0.06851571 -0.21890488
-0.25044662 0.47635415 -0.24369095 -0.16173288 0.027338285 -0.13465989 0.33916637 -0.10938842
-0.58801717 0.056951217 -0.010657376 -0.4075742 -0.31386074 -0.26051408 -0.19915974 -0.4442388
-0.20437162 -0.38483912 -0.20923045 -0.32376966 -0.06673821 -0.5086897 -0.45049194 -0.0053497367
-0.15179338 -0.2365623 -0.6008361 -0.6424629 0.060665783 -0.08002357 -0.68277603 0.050905976
0.093969494 -0.48602328 0.0045545497 -0.1393872 -0.09216472 -0.056239802 -0.06871131 -0.3460603
-0.21637224 -0.07349444 0.029605445 0.219171 0.08110248 -0.11554401 0.25710398 -0.37731346
-0.1858029 -0.13243356 -0.24425639 0.3577615 0.17560245 -0.22099636 -0.17276284 -0.23201069
0.13659672 0.93569624 0.39863878 -0.41325554 -0.19445767 0.37365705 0.52963686 0.42239037
0.4166444 0.42705452 0.3896724 0.7956588 0.8118393 -0.1684736 0.6435937 0.8438382
-0.002406127 0.8875965 1.4830344 0.10568815 0.17426863 -0.013522172 0.017286966 0.036865715
0.04405579 0.5115223 -0.100014366 0.68114394 0.6839853 0.5425728 0.4333033 0.25356448
0.6669702 1.1623875 -0.09630049 0.78915966 0.66054744 0.27129924 -0.6139447 0.38343138
0.28820568 0.016289305 0.8864991 0.19070135 0.4107889 0.36032826 -0.3223616 0.75522923
0.38785037 1.2627133 0.21924132 -0.039807525 -0.4021668 0.46806464 0.18320824 0.3688291
-0.012687916 0.47856998 0.7246598 0.08899962 -0.013143115 -0.20568222 0.5213919 -0.13777994
0.128575 0.4731027 0.76516014 0.73430866 -0.16921903 0.21973063 0.7774779 0.33315298
-0.6122224 0.27369532 0.5547179 -0.21602288 0.34916633 0.10956635 -0.39115137 0.13991982
0.47010434 0.25923288 0.31847417 0.5086437 -0.24536285 0.44897753 0.47275966 0.33090472
0.48412105 0.6293032 0.16875838 0.15849137 0.33434132 0.74435693 0.797983 0.21274577
0.31615463 0.9066941 0.8717667 0.6953935 0.46084163 0.021635415 0.24901973 -0.25978112
0.09862884 0.539955 0.013384784 0.18579397 0.49194625 0.05870664 0.55488914 0.533193
0.3024507 0.07823294 -0.24419783 0.7596893 0.08757937 0.36377567 0.3717645 0.85813636
0.42953265 0.7189137 0.43016958 0.85715806 0.21996175 0.22866449 0.4152067 -0.34119928
00000000: 38c4 453e 94f2 f5bd 9921 0fbf bb9d 953e
00000010: f198 113e a6ef 01be 5d28 12bf 8687 133e
00000020: 4211 56be 2ebe 44be adb6 9c3d 9e79 f4be
00000030: 4b7a fb3d 9e21 063e 411a 89be 0e80 02bf
00000040: 60e5 6bbe e8fa ccbd 7124 93be 28af c3be
00000050: 2771 c3be 85f8 8fbe 156c 903d 01fe 663e
00000060: c93c 40bc 6339 55be 460d 953d 4af1 a2be
00000070: 50ea 3fbf 49ec d6be 6a22 cb3d 981f 8bbd
00000080: 02e3 08be 3467 86be 6fad 54be 1936 16bf
00000090: 3b88 38bf 9b39 b03b 81b4 a83d c206 b9be
000000a0: 91a3 ed3d 5ddd 813e 377a 123d 101e d83d
000000b0: 3c3e 363c cd0a 8bbe 82fb 1c3d e84e 83be
000000c0: fd78 d3bc e331 b2be 425c 1c3e 68b0 d1bc
000000d0: 5bd6 f63b f11f fb3b ce89 13bf 959f 4cbe
000000e0: acbb 76bc ac8a 1c3e 6341 853e 5c82 643d
000000f0: 58ae 4f3c 1203 b3be baef cbbd 4f71 47bd
00000100: eb67 36bd e969 56bd cf79 15bf 2eb8 a43e
00000110: c092 8bbe 57de 84be f751 8cbd 9a28 60be
00000120: 8a3a 80be b1e4 f33e 1f8a 79be 4e9d 25be
00000130: 8af4 df3c 48e4 09be 37a7 ad3e 0907 e0bd
00000140: 4b88 16bf ae45 693d 469c 2ebc 91ad d0be
00000150: 5bb2 a0be 1a62 85be 88f0 4bbe 4573 e3be
00000160: cb46 51be a209 c5be 8240 56be 23c5 a5be
00000170: 0bae 88bd 7d39 02bf e1a6 e6be d84c afbb
00000180: b96f 1bbe 633d 72be 65d0 19bf 7378 24bf
00000190: af7c 783d 66e3 a3bd 69ca 2ebf c982 503d
000001a0: 1473 c03d 0bd8 f8be 553e 953b 85bb 0ebe
000001b0: dbc0 bcbd b55b 66bd 84b8 8cbd d12e b1be
000001c0: af90 5dbe 4184 96bd 1e87 f23c 5d6e 603e
000001d0: 0f19 a63d 57a2 ecbd 22a3 833e 3b2f c1be
000001e0: 1e43 3ebe aa9c 07be 591e 7abe 842c b73e
000001f0: 21d1 333e df4c 62be bee8 30be 3694 6dbe
00000200: 03e0 0b3e ca89 6f3f 621a cc3e 3b96 d3be
00000210: e91f 47be fa4f bf3e 4896 073f 8d43 d83e
00000220: 6a52 d53e e4a6 da3e 2483 c73e 4cb0 4b3f
00000230: b3d4 4f3f 5884 2cbe 8fc2 243f c805 583f
00000240: 1db0 1dbb 8639 633f 12d4 bd3f 0773 d83d
00000250: 7a73 323e 1a8c 5dbc 659d 8d3c 8100 173d
00000260: d873 343d 20f3 023f 55d4 ccbd 735f 2e3f
00000270: a919 2f3f 0de6 0a3f eed9 dd3e 34d3 813e
00000280: 8fbe 2a3f 1dc9 943f 3139 c5bd 5e06 4a3f
00000290: a319 293f bce7 8a3e 7b2b 1dbf 1e51 c43e
000002a0: b28f 933e 2671 853c 9bf1 623f 3747 433e
000002b0: ec52 d23e f27c b83e 940c a5be b456 413f
000002c0: 5394 c63e 97a0 a13f cc80 603e 370d 23bd
000002d0: cfe8 cdbe 2ba6 ef3e f19a 3b3e 2bd7 bc3e
000002e0: fae0 4fbc 2007 f53e 4e83 393f 6f45 b63d
000002f0: 3856 57bc 5c9e 52be f179 053f 2f16 0dbe
00000300: 2aa9 033e 843a f23e 89e1 433f a7fb 3b3f
00000310: c147 2dbe 1101 613e cb08 473f 0793 aa3e
00000320: 9bba 1cbf cb21 8c3e fe01 0e3f 1a35 5dbe
00000330: eec5 b23e 5364 e03d fe44 c8be 2447 0f3e
00000340: 84b1 f03e 2cba 843e 0c0f a33e 7936 023f
00000350: 6640 7bbe 62e0 e53e 8e0d f23e 586c a93e
00000360: b7de f73e 041a 213f ffce 2c3e 904b 223e
00000370: c92e ab3e 2d8e 3e3f 9d48 4c3f 07da 593e
00000380: 05df a13e 1b1d 683f 1a2c 5f3f 4f05 323f
00000390: 6ff3 eb3e c13c b13c 07ff 7e3e 0802 85be
000003a0: ebfd c93d 7e3a 0a3f da4b 5b3c c640 3e3e
000003b0: 61e0 fb3e 6076 703d 370d 0e3f 567f 083f
000003c0: d1da 9a3e 9738 a03d ff0e 7abe ff7a 423f
000003d0: d05c b33d ce40 ba3e eb57 be3e d3ae 5b3f
000003e0: b4eb db3e ba0a 383f 303f dc3e b66e 5b3f
000003f0: a73d 613e 0627 6a3e f995 d43e acb1 aebe

gru.bias_hh_l1 f4 [384]
0.17633072 -0.2842438 -0.5328128 0.24105537 0.24899645 -0.17099832 -0.602706 0.11262209
-0.14434212 -0.19060461 0.14468409 -0.34705833 0.0806879 0.035087444 -0.20477588 -0.52521867
-0.2847009 0.06094724 -0.25854206 -0.3820158 -0.2583328 -0.2314657 0.07944852 0.17207707
0.006758099 -0.27492344 -0.022120174 -0.25760964 -0.6913822 -0.32972142 0.123250745 -0.023637753
-0.13627638 -0.2859539 -0.24801442 -0.5469958 -0.7328633 -0.09649964 0.081617355 -0.25074202
0.23329204 0.22945888 -0.027319172 0.07748504 0.010568065 -0.22263415 0.022265913 -0.19214527
0.06502869 -0.34203413 0.14001125 -0.028032202 0.04931084 -0.10652596 -0.58869237 -0.10542498
-0.049598016 0.22029607 0.27865136 -0.010439034 -0.1431124 -0.18420824 -0.04885186 -0.042419754
0.093618475 -0.13510755 -0.57806253 0.28669074 -0.29296702 -0.19040973 -0.19472966 -0.11928788
-0.24210642 0.48587087 -0.1177091 -0.29823047 -0.050515555 -0.1646292 0.29516047 -0.13799842
-0.5799435 0.0311868 -0.1292773 -0.349086 -0.22744744 -0.17295289 -0.22061194 -0.41892463
-0.23224206 -0.35145992 -0.24687159 -0.28809544 -0.032358587 -0.45068446 -0.48274353 0.038427483
-0.21406533 -0.20429061 -0.56751007 -0.51390463 0.15400004 -0.047997616 -0.6237464 0.041247435
0.2244187 -0.58320373 0.07710615 -0.06612765 0.006265622 -0.02287468 -0.05388624 -0.31432685
-0.15784577 -0.055574805 0.10107451 0.12419132 0.020918958 -0.16346994 0.316843 -0.4155156
-0.25002486 -0.09146139 -0.13827464 0.2703337 0.19848996 -0.22282504 -0.21395715 -0.15333168
0.22558124 0.87519556 0.3409233 -0.3641232 -0.3097454 0.45420173 0.54852384 0.38302943
0.45681146 0.36688843 0.3914953 0.78021616 0.90613556 -0.1694334 0.7188418 0.94990456
-0.016892636 0.946379 1.4890434 0.12321323 0.25906566 -0.03047006 0.08174239 0.14119354
-0.038627654 0.527994 -0.012450871 0.6367979 0.69591224 0.6080133 0.4320963 0.1639775
0.73291725 1.3146529 -0.1350684 0.8543947 0.58635837 0.17830598 -0.6302099 0.44085574
0.31315017 -0.042734623 0.83955675 0.3199162 0.42273045 0.34186265 -0.30351603 0.67080534
0.39565814 1.1754478 0.13532884 -0.11985693 -0.42594993 0.52690893 0.21994354 0.37459728
-0.12908846 0.48823544 0.6512788 0.08752762 0.007285519 -0.16973867 0.6348339 -0.24285617
0.10399556 0.51924217 0.77760386 0.7590608 -0.096922435 0.19090661 0.65582687 0.464099
-0.5859669 0.1950361 0.4890636 -0.25223517 0.4962048 0.069414444 -0.51627713 0.1624174
0.51415247 0.34938845 0.2055956 0.53250015 -0.19110328 0.30334124 0.40616956 0.3593375
0.48245782 0.7340132 0.22477971 0.2198316 0.32522577 0.6965914 0.77372926 0.21049494
0.3576108 0.88270104 0.8294965 0.7370852 0.44025815 0.02847717 0.28730983 -0.34558544
0.2328409 0.54564184 0.06533911 0.34032443 0.4531027 0.07100287 0.57207745 0.55816084
0.20833519 0.13852449 -0.27055407 0.72503924 0.080684155 0.306347 0.37541127 0.865849
0.4306657 0.66980666 0.386628 0.80841345 0.2937105 0.19787022 0.5090945 -0.31836924
00000000: 0a90 343e 6788 91be 6b66 08bf 38d7 763e
00000010: edf8 7e3e 2f1a 2fbe f14a 1abf 69a6 e63d
00000020: 6cce 13be db2d 43be 1128 143e a1b1 b1be
00000030: b33f a53d dab7 0f3d c5b0 51be bb74 06bf
00000040: 51c4 91be d0a3 793d a05f 84be 9397 c3be
00000050: 3244 84be 5805 6dbe e8b5 a23d f934 303e
00000060: 0b73 dd3b c4c2 8cbe 5e35 b5bc 69e5 83be
00000070: 6dfe 30bf 3fd1 a8be e36a fc3d f6a3 c1bc
00000080: 098c 0bbe 8d68 92be 7ef7 7dbe eb07 0cbf
00000090: ee9c 3bbf 9aa1 c5bd 0027 a73d 4261 80be
000000a0: 1ce4 6e3e 45f7 6a3e 75cc dfbc 7ab0 9e3d
000000b0: ad25 2d3c 35fa 63be 0167 b63c bbc1 44be
000000c0: c32d 853d 191f afbe 1c5f 0f3e caa3 e5bc
000000d0: 2afa 493d 482a dabd 8bb4 16bf 0de9 d7bd
000000e0: 4a27 4bbd 4b95 613e 64ab 8e3e 7b08 2bbc
000000f0: 0f8c 12be 16a1 3cbe e318 48bd 56c0 2dbd
00000100: 0bbb bf3d a259 0abe e8fb 13bf 21c9 923e
00000110: c6ff 95be c5fa 42be 3667 47be 344d f4bd
00000120: bfea 77be 11c4 f83e 7811 f1bd aab1 98be
00000130: 66e9 4ebd 8f94 28be 461f 973e 754f 0dbe
00000140: 2d77 14bf 767b ff3c 4561 04be 66bb b2be
00000150: fbe7 68be 901a 31be 19e8 61be 4a7d d6be
00000160: ddd0 6dbe 8ef2 b3be e8cb 7cbe 3f81 93be
00000170: 708a 04bd 1dc0 e6be 292a f7be 2366 1d3d
00000180: f133 5bbe 8f31 51be 5748 11bf 418f 03bf
00000190: 30b2 1d3e 2699 44bd d8ad 1fbf 12f3 283d
000001a0: 04ce 653e d74c 15bf d4e9 9d3d ef6d 87bd
000001b0: d94f cd3b ae63 bbbc d1b7 5cbd 73ef a0be
000001c0: 52a2 21be 68a2 63bd 2700 cf3d 0558 fe3d
000001d0: 3c5e ab3c aa64 27be 3f39 a23e 76be d4be
000001e0: 4203 80be 1c50 bbbd de97 0dbe 2e69 8a3e
000001f0: f440 4b3e 3f2c 64be 9517 5bbe fb02 1dbe
00000200: c5fe 663e d10c 603f 808d ae3e 5b6e babe
00000210: f396 9ebe 218d e83e 0f6c 0c3f 6f1c c43e
00000220: 31e3 e93e cdd8 bb3e 1272 c83e 3fbc 473f
00000230: 80f8 673f f37f 2dbe 0406 383f f22c 733f
00000240: 6d62 8abc e545 723f f998 be3f 3857 fc3d
00000250: 41a4 843e 599c f9bc 8e68 a73d 0a95 103e
00000260: 0838 1ebd 9d2a 073f bdfe 4bbc 3005 233f
00000270: 4e27 323f c2a6 1b3f ba3b dd3e b8e9 273e
00000280: 77a0 3b3f 8c46 a83f 5f4f 0abe 9cb9 5a3f
00000290: 951b 163f d895 363e 7055 21bf d8b7 e13e
000002a0: 3855 a03e 800a 2fbd 31ed 563f 0ecc a33e
000002b0: 2070 d83e 9f08 af3e 7466 9bbe e6b9 2b3f
000002c0: b493 ca3e 1375 963f a593 0a3e 8d77 f5bd
000002d0: 1c16 dabe 81e3 063f e138 613e 37cb bf3e
000002e0: c42f 04be fff9 f93e 35ba 263f ae41 b33d
000002f0: 5dbb ee3b f9cf 2dbe 7984 223f 4aaf 78be
00000300: a0fb d43d 0eed 043f 0c11 473f cf51 423f
00000310: 457f c6bd 067d 433e 45e4 273f 629e ed3e
00000320: ed01 16bf 8bb7 473e 8b66 fa3e f824 81be
00000330: 8e0e fe3e 2929 8e3d bd2a 04bf bf50 263e
00000340: 7f9f 033f 0be3 b23e a787 523e ee51 083f
00000350: 94b0 43be 8b4f 9b3e 75f5 cf3e 16fb b73e
00000360: b604 f73e 4ae8 3b3f a72c 663e 891b 613e
00000370: fe83 a63e d053 323f 1f13 463f fc8b 573e
00000380: c318 b73e b2f8 613f e259 543f 9eb1 3c3f
00000390: 8469 e13e f448 e93c 461a 933e 93f0 b0be
000003a0: d86d 6e3e 2faf 0b3f 83d0 853d 013f ae3e
000003b0: 14fd e73e f469 913d ab73 123f a1e3 0e3f
000003c0: d255 553e 5dd9 0d3e 1086 8abe 2c9c 393f
000003d0: bc3d a53d 84d9 9c3e e835 c03e 48a8 5d3f
000003e0: 3780 dc3e 7378 2b3f 1bf4 c53e 2ff4 4e3f
000003f0: 3961 963e 7e9e 4a3e 0454 023f 4b01 a3be
