My_NN/models/gru_model.pth (torch, 626594 bytes, 9 tensors)

gru.weight_ih_l0 f4 [384, 18]
0	0x3f2ce082	0.6753007
1	0x3f33e007	0.70263714
2	0xbf05f64b	-0.5232894
3	0x3eadbc60	0.3393278
4	0xbe0f6d4e	-0.1400654
5	0x3e5c7c8f	0.2153189
6	0xbf16fc87	-0.58979076
7	0x3f86984b	1.0515226
8	0xbecd9cea	-0.40158778
9	0x3f17e5a3	0.5933477
10	0xbec193dd	-0.37808123
11	0xbebd079f	-0.36919877
12	0x3e9ef801	0.31048587
13	0x3ee8de45	0.45482078
14	0x3ef54e74	0.47911417
15	0x3e726e17	0.23674808
16	0x3eed871f	0.46392152
17	0xbd998948	-0.074968874
18	0x3f0224e4	0.5083754
19	0xbe77d407	-0.24201976
20	0x3e168526	0.1469923
21	0x3e8f48ef	0.2798533
22	0xbf5a3c85	-0.85248595
23	0x3d9b359e	0.07578586
24	0x3e94dcd6	0.29074734
25	0x3f432ac7	0.7623715
26	0xbf2a3d36	-0.6649965
27	0x3ed66ed0	0.41881418
28	0xbf2047a9	-0.62609345
29	0x3ce2c8d2	0.02768365
30	0x3f2a005d	0.66406804
31	0x3f0b80de	0.5449351
32	0xbe11da34	-0.14243394
33	0x3e4716a2	0.19442227
34	0xbd8d7c17	-0.06908434
35	0xbf6e92e5	-0.93192893
36	0x3b57b66d	0.003291513
37	0xbd4218e5	-0.047387023
38	0xbf261e13	-0.6488964
39	0xbf41f2a8	-0.7576089
40	0xbe853a3f	-0.26021
41	0x3f89b373	1.0757889
42	0x3f041533	0.5159485
43	0x3ed20a22	0.41023356
44	0xbef2aed9	-0.47399023
45	0xbbb70618	-0.005585443
46	0x3f1a4223	0.60257167
47	0x3e39138c	0.18073863
48	0xbf1ac5d2	-0.604581
49	0xbd3fc35a	-0.04681716
50	0xbeb2eafb	-0.349449
51	0x3f0f35c6	0.55941427
52	0x3e57d8fe	0.2107887
53	0xbefe62a7	-0.4968464
54	0x3edcc827	0.43121454
55	0x3ea3cde7	0.3199303
56	0xbe5b61bb	-0.21424
57	0x3f7582ec	0.95902896
58	0xbe3f23e1	-0.1866603
59	0x3e9f1c81	0.31076434
60	0x3eb17ff9	0.34667948
61	0xbee8585d	-0.45379916
62	0xbed26514	-0.4109274
63	0x3f48f9ee	0.7850636
64	0xbf1697fd	-0.58825666
65	0x3f13289b	0.57483834
66	0x3f0c2390	0.54741764
67	0x3f524175	0.8213113
68	0x3eedda1d	0.4645547
69	0x3b9410f7	0.004518624
70	0x3e219106	0.15777978
71	0xbf80175c	-1.0007129
72	0xbede9aee	-0.43477577
73	0xbddc54f6	-0.107583925
74	0x3ede679d	0.43438426
75	0xbe54725e	-0.20746753
76	0x3da0503f	0.07827806
77	0xbf10eca1	-0.5661107
78	0x3e98ee06	0.29869097
79	0x3fa7ab68	1.3099184
80	0x3ea354cd	0.31900635
81	0x3dee3f0e	0.116331205
82	0xbd9f3e1a	-0.07775517
83	0xbf03efa2	-0.51537526
84	0x3d8222c6	0.06354289
85	0x3e400e95	0.18755563
86	0xbe7975c4	-0.2436133
87	0xbf439ebd	-0.7641409
88	0x3d68d446	0.056843065
89	0x3ef09564	0.46988976
90	0x3f7f2b04	0.9967501
91	0x3f00ac85	0.50263244
92	0xbdc67165	-0.09689597
93	0xbe3363ac	-0.1751849
94	0xbf33cc64	-0.7023375
95	0x3f36384e	0.71179664
96	0x3eb2a4f5	0.34891477
97	0xbe6f8dc9	-0.2339393
98	0xbe193c60	-0.14964437
99	0xbe055723	-0.13021521
100	0x3e22b608	0.15889752
101	0x3ee0b158	0.43885303
102	0x3d45f693	0.048330855
103	0xbe02fd91	-0.1279204
104	0x3f83320f	1.0249652
105	0xbe41df3d	-0.18932815
106	0x3ee2de66	0.44310302
107	0xbf0fa44d	-0.5611008
108	0x3ea9dce4	0.3317634
109	0xbebf722b	-0.3739179
110	0x3f46bf12	0.776353
111	0x3fa5eab2	1.2962248
112	0xbeea5c72	-0.45773655
113	0x3f498a68	0.78726816
114	0x3fdb53a0	1.7134895
115	0x3d553bc1	0.05205894
116	0xbe4a0914	-0.19730026
117	0x3e91aa97	0.28450462
118	0x3e60751c	0.21919674
119	0xbeb1f09c	-0.34753883
120	0xbe9e903c	-0.30969417
121	0x3ec3d370	0.38247252
122	0x3dc563ca	0.09638174
123	0xbf262f9e	-0.6491641
124	0xbeca04fa	-0.39456922
125	0xbf049d83	-0.51802844
126	0xbef574f0	-0.4794078
127	0xbd58c32b	-0.0529205
128	0xbf091963	-0.5355436
129	0x3ef605e4	0.4805137
130	0x3f15bcbe	0.5849112
131	0xbf4ad7db	-0.7923562
132	0xbddf9f14	-0.109190136
133	0xbf534660	-0.8252926
134	0xbf9765ce	-1.1827943
135	0x3dc4d891	0.09611619
136	0xbe7f9a26	-0.24961147
137	0xbeff4023	-0.4985362
138	0x3e9180fe	0.28418726
139	0xbcfc2a30	-0.030781835
140	0x3caec0e5	0.021332214
141	0x3f06f616	0.5271925
142	0x3e9b846b	0.30374464
143	0xbe3b6b0e	-0.18302557
144	0x3f31351c	0.69221663
145	0x3f11b072	0.5690986
146	0x3d10bb7f	0.03533506
147	0x3c33152c	0.010930341
148	0xbf316247	-0.69290584
149	0x3edcb3f2	0.43106037
150	0xbf1324ba	-0.57477915
151	0x3d523727	0.05132213
152	0xbf13d515	-0.5774701
153	0x3ef9e807	0.48809835
154	0xbf140acf	-0.5782899
155	0x3d957a90	0.072987676
156	0x3f1e2231	0.6177092
157	0x3f143a6c	0.57901645
158	0xbd2d70cf	-0.04234391
159	0xbe60cd5c	-0.21953338
160	0x3e80bab9	0.25142458
161	0xbf7c14db	-0.9846932
162	0xbf6510c6	-0.8947872
163	0x3ea3b323	0.31972608
164	0xbf0dd79f	-0.55407137
165	0xbe6701ff	-0.22559355
166	0x3e826d3f	0.25473973
167	0x3da5c60a	0.080944136
168	0x3fe5378b	1.7907575
169	0x3ebe67bb	0.37188515
170	0xbef61707	-0.48064443
171	0x3c20fc7f	0.009825825
172	0xbef7822b	-0.48341498
173	0x3f3a214d	0.7270706
174	0x3f1345e9	0.5752855
175	0x3cfaaff3	0.030601477
176	0x3f6f5602	0.9349061
177	0x3df3d230	0.119053245
178	0x3fb4396b	1.4080023
179	0xbeceb485	-0.403721
180	0x3d686569	0.056737337
181	0x3f204dac	0.6261852
182	0xbee9d721	-0.45671943
183	0x3f0ee69d	0.5582064
184	0xbdfbfb38	-0.123037755
185	0x3c96ad00	0.01839304
186	0x3f03cfd2	0.51488984
187	0x3ffb3ec8	1.9628534
188	0x3fa951c6	1.322808
189	0x3d999e70	0.07500923
190	0x3d2ea0ae	0.042633705
191	0xbd15bf3a	-0.03655932
192	0xbab9ab22	-0.0014165381
193	0x3db9ce24	0.09072521
194	0xbeec1c92	-0.46115547
195	0xbe881aaf	-0.26582858
196	0xbf846fad	-1.0346581
197	0xbe731bb9	-0.23741044
198	0xbeacbc73	-0.33737525
199	0xbf34fa8a	-0.7069479
200	0xbf38f76f	-0.72252554
201	0x3f1270f6	0.57203615
202	0xbeda53d4	-0.4264208
203	0x3fe1273e	1.7590101
204	0x3d274e6f	0.040846284
205	0x3dfc37d6	0.12315337
206	0xbf33f07e	-0.70288837
207	0x3f06d76f	0.52672476
208	0x3e0c7004	0.13714606
209	0xbd1ad791	-0.037803236
210	0xbdbcce11	-0.092189915
211	0x3f1a25a0	0.6021366
212	0x3e79e46f	0.24403547
213	0x3de84e86	0.11343102
214	0xbf2b8325	-0.66996986
215	0xbf930d2a	-1.1488392
216	0xbf56d1d3	-0.83913916
217	0xbf08c6a4	-0.534281
218	0x3d1a2420	0.037632108
219	0x3e87ecd9	0.26547888
220	0x3f802fac	1.0014548
221	0xbe9e2ddf	-0.30894372
222	0x3e9d73e8	0.30752492
223	0x3e1c5d5b	0.15269987
224	0xbdc2bff0	-0.095092654
225	0xbee7d6b8	-0.45281005
226	0x3beb974f	0.0071896682
227	0xbec56ffc	-0.38562
228	0xbdfcc25c	-0.123417586
229	0xbf073d7e	-0.52828205
230	0x3f021c67	0.5082459
231	0xbdd6cf54	-0.104887635
232	0xbf13fba5	-0.57805854
233	0xbda9f417	-0.082985096
234	0xbc9ddec0	-0.019271255
235	0x3e22ab28	0.15885603
236	0xbfb4b6d8	-1.41183
237	0x3c1fb30e	0.00974728
238	0xbe8400e3	-0.25781927
239	0x3f5b390e	0.85633934
240	0xbf8dedb2	-1.1088164
241	0xbf3e9e16	-0.7445997
242	0x3e9186f6	0.2842328
243	0xbd6606af	-0.056158718
244	0xbeb29703	-0.34880838
245	0x3ed9f8e6	0.42572707
246	0x3eaf4ed5	0.34239832
247	0x3bcbe847	0.006222758
248	0x3e24cc3a	0.16093531
249	0xbf0f99e9	-0.56094223
250	0x3f47df1c	0.7807481
251	0xbf3bd3b9	-0.7336994
252	0xbf0f5910	-0.55995274
253	0x3e42f5a6	0.1903902
254	0xbec08da3	-0.3760806
255	0xbf83b744	-1.0290303

gru.weight_hh_l0 f4 [384, 128]
0	0x3ec19b78	0.37813926
1	0x3e17b29b	0.14814226
2	0x3dfc8e5b	0.1233184
3	0xbea7402f	-0.32666156
4	0xbec32f3c	-0.38121974
5	0xbdf3c36f	-0.119025104
6	0xbefaed18	-0.49009013
7	0x3f0fba9a	0.56144106
8	0xbd96a61c	-0.073559016
9	0x3f2171f9	0.63064533
10	0xbf1659ab	-0.5873057
11	0x3d1f16c8	0.038840085
12	0xbe31f57c	-0.17378801
13	0x3ee9eaf4	0.45687068
14	0xbdeb7100	-0.114961624
15	0x3e0c4cc1	0.13701154
16	0xbcb0aacd	-0.02156582
17	0x3f01cfbc	0.507076
18	0xbed292c2	-0.41127592
19	0x3edb5972	0.4284168
20	0x3e3f54de	0.18684718
21	0x3c6d52eb	0.014485101
22	0x3efe8008	0.49707055
23	0xbd0c703d	-0.034286726
24	0x3e99620a	0.2995761
25	0xbeacde2c	-0.33763254
26	0x3da58fe2	0.08084084
27	0x3eab8358	0.33498645
28	0x3f006760	0.5015774
29	0xbedf7201	-0.43641666
30	0xbce3f09c	-0.027824692
31	0xbd325851	-0.043541256
32	0xbdc5044d	-0.09619961
33	0xbea8b256	-0.3294856
34	0x3efa8fa9	0.4893773
35	0xbd7e2292	-0.062044688
36	0x3ec7cb8a	0.39022475
37	0x3e520b25	0.20512064
38	0x3d500178	0.05078265
39	0xbedb9506	-0.42887133
40	0xbea26584	-0.31718075
41	0xbe458b69	-0.19291462
42	0x3ce7d5d5	0.028300205
43	0x3e2e7a16	0.1703876
44	0xbe787b6f	-0.24265836
45	0x3d219253	0.039446186
46	0x3ea2558b	0.3170589
47	0xbe9dbf68	-0.30810094
48	0x3f355498	0.70832205
49	0x3efc3f91	0.49267247
50	0x3e8fcb3b	0.2808474
51	0xbe7c1df0	-0.24620795
52	0xbbff8113	-0.0077973693
53	0x3d5e71ff	0.054307934
54	0x3e7632e6	0.24042854
55	0xbe2aba25	-0.16672571
56	0xbe2451db	-0.1604685
57	0xbe1caff4	-0.15301496
58	0xbe66a80a	-0.2252504
59	0x3f4822c3	0.7817804
60	0xbeba0a8d	-0.36336175
61	0xbd25d7c9	-0.040488992
62	0x3e4be37b	0.19910996
63	0x3e4d2c7f	0.20036505
64	0xbe352135	-0.17688449
65	0x3e554cf9	0.20830144
66	0x3ea9cdda	0.33164865
67	0xbd1c335e	-0.038134925
68	0xbe58c603	-0.21169285
69	0x3e879a62	0.26484972
70	0x3d1df85a	0.038566925
71	0x3f15b0fb	0.58473176
72	0xbe8cdfe2	-0.2751456
73	0x3f2da1d9	0.67825085
74	0xbc7c4c12	-0.015398996
75	0xbf24b8b2	-0.6434432
76	0x3e3836f2	0.1798971
77	0xbece6c3c	-0.4031695
78	0xbde5ed4d	-0.11226902
79	0x3be21f95	0.0069007375
80	0xbe84aee0	-0.2591467
81	0x3ebc3f00	0.36766815
82	0xbe80ca8e	-0.25154537
83	0x3d704623	0.058660638
84	0x3dd1ec99	0.102502055
85	0x3f48e2ac	0.78470874
86	0x3d18f67f	0.037344452
87	0x3f70edbb	0.9411275
88	0xbd8f55f7	-0.06998818
89	0xbeba1146	-0.36341304
90	0x3f272b83	0.6530077
91	0xbafe7246	-0.0019412718
92	0xbeae6f26	-0.34069175
93	0xbeb6802a	-0.35644656
94	0xbe72ec92	-0.23723057
95	0x3c9f9280	0.019479036
96	0xbdb04a1f	-0.086078875
97	0x3ce3cbac	0.02780708
98	0xbdf5af94	-0.119963795
99	0x3ea3be90	0.31981325
100	0x3e7f8a23	0.24955039
101	0xbdbd7414	-0.09250656
102	0x3f22e350	0.636281
103	0xbe9581b3	-0.29200515
104	0x3e1abd64	0.1511131
105	0xbf2c19bb	-0.6722676
106	0x3e38aa0a	0.18033615
107	0xbf174719	-0.5909286
108	0x3ed75a2f	0.42060992
109	0x3f0f7fee	0.5605458
110	0xbeac2cd1	-0.33627942
111	0xbed2d6ba	-0.41179448
112	0x3ca515d2	0.020152006
113	0x3d7398ae	0.05947178
114	0xbe885d8f	-0.2663388
115	0xbd88e017	-0.06683367
116	0x3d74980f	0.059715327
117	0x3f3cef3d	0.7380255
118	0x3edf39a1	0.43598655
119	0x3ea50cb8	0.32236266
120	0xbe881afc	-0.26583087
121	0xbc74933d	-0.0149276825
122	0xbe43842e	-0.19093391
123	0xbdfdd517	-0.12394159
124	0x3eb88a2d	0.3604292
125	0x3e8db510	0.27677202
126	0x3e568110	0.20947671
127	0x3f10161b	0.5628373
128	0xbf08bc4c	-0.5341232
129	0x3e8fd9ad	0.2809576
130	0xbe21a1d9	-0.15784396
131	0xbeccad4a	-0.3997596
132	0xbda13d97	-0.078730755
133	0xbe311fe9	-0.17297329
134	0x3d3b4807	0.045722988
135	0xbe965b92	-0.29366738
136	0xbe95a738	-0.2922914
137	0x3f2a7b1d	0.66594106
138	0x3918f0c0	0.00014585536
139	0x3d6a8c32	0.057262607
140	0xbe1e2e87	-0.15447436
141	0x3f6e1c8d	0.93012315
142	0x3f0794cd	0.52961427
143	0x3db78bb6	0.089621946
144	0x3d1bc425	0.038028855
145	0x3d88c569	0.06678278
146	0xbcb376c2	-0.021907214
147	0x3eda6289	0.426533
148	0x3e462f35	0.19353946
149	0x3d5ca50e	0.053868346
150	0x3f0f1866	0.55896604
151	0x3d9f756f	0.077860706
152	0xbdfdfb54	-0.12401453
153	0x3e6a7446	0.22895917
154	0x3c2d01d7	0.010559521
155	0x3e308bbd	0.17240806
156	0x3ee20a0d	0.44148293
157	0xbeaeefa3	-0.34167203
158	0x3e473de0	0.19457197
159	0xbea276b1	-0.3173118
160	0x3e82108e	0.25403255
161	0xbe81234d	-0.25222245
162	0x3de04b24	0.10951832
163	0x3ecd4020	0.40087986
164	0xbe6267ab	-0.22109859
165	0x3d0bd10e	0.034134917
166	0x3ed3d347	0.4137213
167	0xbed50145	-0.4160253
168	0xbe0504c7	-0.12990104
169	0x3dc3e485	0.09565071
170	0x3d987b9b	0.07445451
171	0x3e8d19e0	0.27558804
172	0xbefabd16	-0.48972386
173	0x3f2b5f32	0.6694213
174	0xbe41ce48	-0.18926346
175	0xbdd1400a	-0.102172926
176	0x3dee0e2b	0.11623796
177	0x3f3e734b	0.74394673
178	0x3ddfc11f	0.10925507
179	0x3ec21a24	0.3791057
180	0xbea8442c	-0.3286451
181	0xbf3ef8ff	-0.7459869
182	0x3e88b79b	0.2670258
183	0x3dc07b2c	0.09398493
184	0xbe5178a2	-0.20456174
185	0x3eacc494	0.33743727
186	0x3eb8151a	0.359536
187	0xbde76553	-0.11298623
188	0xbea44e8d	-0.3209118
189	0xbd798862	-0.06092108
190	0xbc805fed	-0.015670741
191	0x3e16936f	0.14704679
192	0x3defe5e0	0.11713767
193	0x3e51732f	0.20454095
194	0x3e99d807	0.30047628
195	0xbe68ccb5	-0.2273434
196	0xbf1168f9	-0.568008
197	0xbe247a6f	-0.1606233
198	0xbe78b4cb	-0.24287717
199	0xbee38638	-0.44438338
200	0x3ef32a2a	0.47493106
201	0x3d827604	0.06370166
202	0xbf5a3701	-0.8524018
203	0x3ebee04a	0.37280494
204	0xbe011d54	-0.12608844
205	0xbe804e08	-0.25059533
206	0xbd301739	-0.042990897
207	0x3e00a029	0.12561096
208	0xbd8976a4	-0.06712082
209	0xbd40235c	-0.04690872
210	0xbe531f61	-0.20617439
211	0x3f0a1407	0.5393681
212	0x3da210e9	0.079133816
213	0x3d08ade2	0.033368953
214	0xbf3732f2	-0.7156211
215	0xbe99a5dc	-0.30009353
216	0x3ebb13bc	0.36538494
217	0xba233f6a	-0.0006227406
218	0x3dce7212	0.10080351
219	0x3cab87ec	0.020938836
220	0x3e01917f	0.12653159
221	0x3f152e7b	0.5827405
222	0xbea6ea91	-0.32600835
223	0xbf1d4cc5	-0.61445266
224	0x3e0ac959	0.1355337
225	0xbdd153e3	-0.10221078
226	0x3dcacf0d	0.09902773
227	0x3e03d173	0.12872867
228	0xbf1f7802	-0.6229249
229	0x3ecc6740	0.39922523
230	0x3f1e9a87	0.6195454
231	0x3d5f6b3b	0.054545622
232	0x3f090d8e	0.5353631
233	0xbe4ff423	-0.20307975
234	0xbeb271c3	-0.34852418
235	0x3c574652	0.013139324
236	0x3c837ce2	0.01605076
237	0x3d8d8af2	0.06911267
238	0xbe95b3f7	-0.29238865
239	0x3e924620	0.28569126
240	0x3ea3a3ce	0.3196091
241	0xbdcaf191	-0.099093564
242	0xbd92e954	-0.0717341
243	0xbea85f6a	-0.32885295
244	0xbcffe3f8	-0.031236634
245	0x3d5b7834	0.05358143
246	0x3e24e38e	0.1610243
247	0x3f491f66	0.78563535
248	0xbea18099	-0.31543425
249	0xbdd1c826	-0.102432534
250	0x3f5252f3	0.8215782
251	0xbe570446	-0.20997724
252	0x3f0ab544	0.5418284
253	0xbead5ed3	-0.33861408
254	0xbeb9e9a8	-0.36311078
255	0x3f240206	0.6406559

gru.bias_ih_l0 f4 [384]
0	0xbea41a69	-0.320514
1	0xbf46d7a3	-0.77672786
2	0xbf16b437	-0.58868736
3	0xbf513493	-0.81720847
4	0x3e8010bb	0.25012764
5	0xbf3a805c	-0.7285211
6	0xbf0709a4	-0.52749085
7	0xbeb0ebe7	-0.3455498
8	0xbf62ac47	-0.88544124
9	0xbf16ebe6	-0.589537
10	0xbe7ee820	-0.24893236
11	0xbf7c736f	-0.9861364
12	0xbe31a5d1	-0.1734841
13	0xbf43358f	-0.762536
14	0xbedc4a03	-0.43025216
15	0xbe9310fd	-0.287239
16	0xbe97c009	-0.296387
17	0xbe5cd050	-0.2156384
18	0xbec02998	-0.37531734
19	0xbe433437	-0.19062887
20	0xbf14fe12	-0.5820018
21	0xbd2ba8ab	-0.0419089
22	0xbf452eed	-0.7702473
23	0xbf7e9ac9	-0.99454933
24	0xbf1e07e4	-0.6173079
25	0xbe917604	-0.2841035
26	0xbf352f88	-0.7077565
27	0xbf4e7964	-0.8065398
28	0xbf0390ef	-0.51393026
29	0xbf5ab41d	-0.8543108
30	0xbf972cde	-1.1810567
31	0xbed57b46	-0.41695613
32	0x3da1cb37	0.07900088
33	0xbf94c4c5	-1.1622549
34	0xbe9e4eff	-0.30919644
35	0xbc97e594	-0.018542089
36	0xbf3829ac	-0.71938586
37	0xbeac590b	-0.33661684
38	0xbf68341c	-0.9070451
39	0xbf3be11b	-0.7339036
40	0xbf238e10	-0.63888645
41	0xbdacd391	-0.084387906
42	0xbf037906	-0.5135654
43	0xbf757d3c	-0.9589422
44	0xbf292652	-0.660741
45	0xbed66915	-0.41877046
46	0xbf0878a8	-0.53309107
47	0xbf2c28af	-0.6724958
48	0xbf73fa13	-0.9530346
49	0xbf58712c	-0.84547687
50	0xbec985de	-0.39359945
51	0xbe756048	-0.2396251
52	0xbdd11856	-0.1020972
53	0xbf3f5dab	-0.747523
54	0xbedaca9a	-0.42732698
55	0xbe57faa6	-0.21091709
56	0xbf4be921	-0.796526
57	0xbf0c1fd2	-0.54736054
58	0xbf42f226	-0.7615074
59	0xbea6152f	-0.32438037
60	0xbe6c4e3e	-0.23076722
61	0xbf326e32	-0.69699395
62	0xbe169597	-0.14705501
63	0xbcabe8a4	-0.020984955
64	0x3d8706cf	0.065930955
65	0xbe9fa954	-0.31183875
66	0xbec90fca	-0.3926986
67	0xbe87cc69	-0.2652314
68	0xbe80fd1a	-0.251931
69	0xbea24a53	-0.3169733
70	0xbf048f0e	-0.51780784
71	0xbebaa784	-0.3645593
72	0xbf07b367	-0.5300812
73	0xbefcc38e	-0.49367946
74	0xbd574074	-0.0525517
75	0xbddb8372	-0.107184306
76	0xbea2fee2	-0.31835085
77	0xbf88a6a0	-1.067585
78	0xbf8484f2	-1.0353072
79	0xbe943173	-0.28943977
80	0xbee74f9d	-0.45177928
81	0xbf26708f	-0.650155
82	0xbf8bf1a0	-1.0933113
83	0xbeca4913	-0.39508876
84	0xbf033702	-0.5125581
85	0xbdd716cd	-0.10502396
86	0xbf4ea5c3	-0.8072168
87	0xbf2e18b9	-0.68006474
88	0xbe13106d	-0.14361735
89	0xbf94ace2	-1.161526
90	0xbec60faf	-0.3868384
91	0xbec577dd	-0.3856801
92	0xbf837ded	-1.0272804
93	0xbef7427e	-0.48292917
94	0xbf00df09	-0.50340325
95	0xbebb852a	-0.36625034
96	0xbeb2b307	-0.34902212
97	0xbf2d22e8	-0.6763139
98	0xbe9fb9fe	-0.31196588
99	0xbe24ea66	-0.16105041
100	0xbf011044	-0.50415444
101	0xbf2c8482	-0.6738969
102	0xbf9c6b06	-1.2220161
103	0xbf35d29d	-0.71024495
104	0xbf2776e2	-0.65415776
105	0xbe927856	-0.28607434
106	0x3d827d5f	0.06371569
107	0xbec80766	-0.39068145
108	0xbe814c20	-0.2525339
109	0xbf0be970	-0.5465307
110	0xbf7ac40c	-0.97955394
111	0xbf1be978	-0.6090312
112	0xbec0a46f	-0.37625453
113	0xbf3ed488	-0.74543047
114	0xbee0deb1	-0.439199
115	0xbf6536b0	-0.8953657
116	0xbeeb08dc	-0.45905197
117	0xbf2f2d42	-0.6842843
118	0xbf3c8c5c	-0.7365167
119	0xbeee4d61	-0.4654341
120	0xbe881b68	-0.2658341
121	0xbf060364	-0.52348924
122	0xbeaf53ee	-0.3424372
123	0xbecd27e2	-0.4006949
124	0xbf712e4e	-0.9421128
125	0xbe3f6b58	-0.18693292
126	0xbf5a0ac0	-0.85172653
127	0xbef139fa	-0.47114545
128	0xbe29b95f	-0.1657462
129	0xbea971ce	-0.3309464
130	0xbd357cce	-0.044308476
131	0x3de5aa24	0.112140924
132	0xbec5e2a9	-0.3864949
133	0x3ebb82db	0.36623272
134	0x3e74ca43	0.23905282
135	0x3f0cc811	0.5499278
136	0x3ee8b739	0.45452288
137	0x3eea71de	0.4579
138	0x3edba263	0.4289733
139	0xbe4f144b	-0.20222585
140	0x3ec49382	0.3839379
141	0x3f2ddfc0	0.6791954
142	0xbe00b48f	-0.12568878
143	0xbd897619	-0.067119785
144	0x3ec6e8cb	0.38849482
145	0x3f856602	1.0421755
146	0xbf0bd52c	-0.5462215
147	0x3e30ef82	0.17278865
148	0xbe703739	-0.23458566
149	0xbc73166c	-0.014836889
150	0x3e12bcfa	0.14329901
151	0x3eddac0c	0.43295324
152	0xbd24f3b3	-0.040271472
153	0x3ec32bbf	0.38119313
154	0x3f060bb9	0.5236164
155	0x3f392201	0.7231751
156	0x3f7df7f9	0.992065
157	0x3d372a78	0.044718236
158	0xbea57682	-0.32316977
159	0xbf2e99b7	-0.682033
160	0x3eb1c7e9	0.34722832
161	0xbea4281a	-0.32061845
162	0x3f03aef1	0.51438814
163	0xbeaa2e9a	-0.3323868
164	0x3f5c641b	0.8609025
165	0x3e70f395	0.23530419
166	0xbef0f24e	-0.47059864
167	0x3eee326a	0.46522838
168	0x3e880777	0.26568195
169	0x3e96c151	0.29444364
170	0x3ed79cac	0.4211172
171	0x3e8122c1	0.25221828
172	0xbd831560	-0.06400561
173	0x3eb831eb	0.35975584
174	0x3f114a0d	0.5675362
175	0xbf61dac2	-0.8822442
176	0xbd6d16e9	-0.057883177
177	0x3eb9f00f	0.36315963
178	0xbcd68a10	-0.02618888
179	0x3f2fdbcb	0.6869475
180	0x3dd0bb75	0.101920046
181	0xbe450805	-0.1924134
182	0xbf88d974	-1.0691361
183	0x3dd28672	0.1027955
184	0xbefa9ecf	-0.48949286
185	0x3ed10988	0.40827584
186	0xbd43c9de	-0.047799937
187	0x3c9f6d82	0.019461397
188	0x3f504065	0.8134826
189	0x3f0a9006	0.5412601
190	0xbd85cbce	-0.06533013
191	0x3e91f2aa	0.2850545
192	0xbe64c138	-0.22339332
193	0xbeb3c2c2	-0.35109526
194	0xbebce9d3	-0.36897144
195	0xbec7fbc5	-0.39059272
196	0x3efd685d	0.49493685
197	0xbe587b5b	-0.21140806
198	0xbef8e03e	-0.48608583
199	0x3ecaae66	0.3958618
200	0x3f3f3b40	0.74699783
201	0xbd377928	-0.044793278
202	0x3f1b7de0	0.60738945
203	0x3f1fd252	0.624303
204	0x3eb1c86b	0.3472322
205	0x3df54d2c	0.1197761
206	0xbf9b9b24	-1.215672
207	0x3ee5c097	0.44873497
208	0x3f010578	0.5039897
209	0xbef52e19	-0.47886732
210	0x3f231fe8	0.6372056
211	0x3f2f7459	0.6853691
212	0xbe3919ea	-0.18076292
213	0xbefda01c	-0.49536216
214	0x3e561f76	0.20910439
215	0x3ee0371b	0.43792042
216	0x3f6c468d	0.9229515
217	0x3eb81428	0.35952878
218	0x3e7ecad5	0.24882062
219	0x3e3c2076	0.18371758
220	0xbe5a0fdc	-0.21295112
221	0x3ee8c117	0.45459816
222	0x3e0f0873	0.13968067
223	0xbf4f5cb7	-0.81000847
224	0xbd6b1c3a	-0.057399966
225	0xbea93448	-0.330477
226	0xbef5a147	-0.47974607
227	0x3ed5e84f	0.417788
228	0xbe224bc6	-0.15849218
229	0xbeb88794	-0.36040938
230	0xbdf0ceb4	-0.117581755
231	0x3de6ee6f	0.11275946
232	0x3d87e927	0.06636267
233	0x3dcb2c44	0.099205524
234	0x3e9b2576	0.30302018
235	0x3f2eec96	0.6832975
236	0x3f27857c	0.65438056
237	0x3b484249	0.0030557087
238	0x3f2e3fde	0.68066204
239	0x3ed164d3	0.40897235
240	0x3ebdface	0.3710541
241	0xbe8372a3	-0.25673398
242	0xbb875739	-0.004130271
243	0x3e34d90c	0.17660922
244	0x3ee5fe10	0.44920397
245	0xbea67209	-0.32508877
246	0xbb8791b9	-0.0041372445
247	0xbfab24cd	-1.3370606
248	0xbf5e4765	-0.8682769
249	0x3f61fc58	0.8827567
250	0x3ebe8c0e	0.37216228
251	0x3f16d127	0.5891289
252	0x3dba4d88	0.09096819
253	0x3e5697e3	0.20956378
254	0xbeb31e69	-0.3498414
255	0xbed2e381	-0.41189197

gru.bias_hh_l0 f4 [384]
0	0xbe4f480d	-0.20242329
1	0xbf2c6b26	-0.67350996
2	0xbf206207	-0.6264958
3	0xbf4b9cdc	-0.79536223
4	0x3e4a6297	0.19764172
5	0xbf121f2d	-0.5707882
6	0xbf055d1c	-0.520952
7	0xbe9bbf21	-0.30419257
8	0xbf5f7824	-0.87292695
9	0xbeed8017	-0.46386787
10	0xbe8c5b20	-0.27413273
11	0xbf6fcb44	-0.93669534
12	0xbe7b89b5	-0.2456425
13	0xbf3cc524	-0.7373831
14	0xbeda7ed8	-0.426749
15	0xbe54295d	-0.20718904
16	0xbe837ceb	-0.25681242
17	0xbe5bb6fa	-0.21456519
18	0xbefa050f	-0.48831984
19	0xbe1bc0ca	-0.15210262
20	0xbf0193ca	-0.50616133
21	0xbd947d92	-0.07250513
22	0xbf2d8b66	-0.6779083
23	0xbf8fc165	-1.1230894
24	0xbf14cc61	-0.5812436
25	0xbe064c57	-0.13115059
26	0xbf27e09f	-0.6557712
27	0xbf41ce0a	-0.75705016
28	0xbf1083b6	-0.56450975
29	0xbf570e33	-0.8400604
30	0xbfa4e7ff	-1.28833
31	0xbf016efa	-0.5055996
32	0x3cd4a3dc	0.02595704
33	0xbf893624	-1.0719647
34	0xbe3eb8c4	-0.1862517
35	0xbd3cff96	-0.046142183
36	0xbf2c2cbc	-0.6725576
37	0xbeeb3f13	-0.4594656
38	0xbf706fd5	-0.9392064
39	0xbf4d8650	-0.8028307
40	0xbf3cb6ca	-0.73716414
41	0xbe0904f0	-0.1338079
42	0xbef105ae	-0.47074646
43	0xbf651d67	-0.8949799
44	0xbf44e7c2	-0.76916134
45	0xbec1aefe	-0.3782882
46	0xbf2894bd	-0.65851957
47	0xbf42320f	-0.75857633
48	0xbf728fd8	-0.9475074
49	0xbf454fee	-0.7707509
50	0xbe9a631d	-0.30153742
51	0xbe432024	-0.1905523
52	0xbdf4489b	-0.11927911
53	0xbf43ac30	-0.7643461
54	0xbee93109	-0.45545223
55	0xbe924e9f	-0.28575608
56	0xbf4a6034	-0.79053044
57	0xbf0bdf3d	-0.5463751
58	0xbf422797	-0.7584166
59	0xbedd52f8	-0.43227363
60	0xbe837953	-0.256785
61	0xbf3db9fe	-0.74111927
62	0xbdc124a6	-0.09430818
63	0xba9ae5f7	-0.0011817802
64	0xbc2a9ebf	-0.010413825
65	0xbeb0dbfc	-0.34542835
66	0xbea17131	-0.3153167
67	0xbea0aeff	-0.3138351
68	0xbea2af93	-0.31774577
69	0xbecf1f91	-0.4045377
70	0xbed02bca	-0.40658408
71	0xbe93df41	-0.28881267
72	0xbf05f32d	-0.5232418
73	0xbef15167	-0.47132418
74	0x3da27d58	0.07934064
75	0xbe0695fb	-0.1314315
76	0xbeb0a325	-0.3449947
77	0xbf72cb2b	-0.9484126
78	0xbf746313	-0.95463675
79	0xbe740171	-0.23828675
80	0xbf090fc4	-0.5353968
81	0xbf21f9e1	-0.6327191
82	0xbf803afb	-1.0018
83	0xbeaa2aee	-0.33235878
84	0xbf20064e	-0.6250962
85	0xbe6009bd	-0.21878715
86	0xbf580706	-0.84385717
87	0xbf1e01fb	-0.6172177
88	0xbe52ee25	-0.20598657
89	0xbf9dcde3	-1.2328457
90	0xbee08177	-0.43848774
91	0xbede1048	-0.43371797
92	0xbf6f4200	-0.93460083
93	0xbeec8d93	-0.46201763
94	0xbecded72	-0.4022022
95	0xbed7658a	-0.42069656
96	0xbe8c3f9e	-0.27392286
97	0xbf20f906	-0.6287998
98	0xbec5581c	-0.38543785
99	0xbe5fcde1	-0.2185588
100	0xbed6c14c	-0.4194435
101	0xbf2bd53c	-0.67122245
102	0xbf9ef8c9	-1.2419673
103	0xbf2b3a0a	-0.66885436
104	0xbf201389	-0.6252981
105	0xbeb86f3a	-0.3602236
106	0x3d38764a	0.045034684
107	0xbeca4369	-0.39504555
108	0xbe6c5f86	-0.23083314
109	0xbf1885e2	-0.5957929
110	0xbf5cbb08	-0.8622289
111	0xbf007db6	-0.5019182
112	0xbeb16213	-0.34645137
113	0xbf4c384d	-0.7977341
114	0xbefbd4f1	-0.491859
115	0xbf3fe990	-0.74965763
116	0xbf0e7335	-0.5564454
117	0xbf124ecc	-0.57151484
118	0xbf23d72c	-0.640002
119	0xbe9e6b18	-0.3094108
120	0xbe92b675	-0.2865483
121	0xbf08e135	-0.5346864
122	0xbebb9421	-0.3663645
123	0xbeb13bb9	-0.34615877
124	0xbf839963	-1.0281185
125	0xbe82b683	-0.2552987
126	0xbf3949a4	-0.7237799
127	0xbef27736	-0.47356576
128	0xbe76feb5	-0.241206
129	0xbe95d6e0	-0.292655
130	0xbe45b429	-0.19307007
131	0x3d8465ea	0.06464751
132	0xbeecca40	-0.46248055
133	0x3eee2063	0.46509084
134	0x3e3ff48a	0.18745628
135	0x3edb4854	0.4282862
136	0x3efe0b4b	0.4961799
137	0x3edd9aee	0.43282264
138	0x3ec2e173	0.3806263
139	0xbe939c25	-0.28830066
140	0x3f0c30f9	0.54762226
141	0x3f338fa1	0.70141035
142	0xbe6eec91	-0.2333243
143	0xbda23905	-0.07921032
144	0x3eff0242	0.4980641
145	0x3f93a61f	1.1535071
146	0xbf0e0016	-0.5546888
147	0x3d8427cc	0.06452903
148	0xbeaf09ac	-0.34187067
149	0xbc3775ad	-0.01119749
150	0x3e7d8d3a	0.24760905
151	0x3ee5e0fe	0.44898218
152	0x3d24814a	0.040162362
153	0x3eead4e1	0.4586554
154	0x3ec60642	0.3867665
155	0x3f1c6ff0	0.61108303
156	0x3f73f815	0.9530042
157	0x3e24b1d0	0.16083455
158	0xbeebe742	-0.46074873
159	0xbf2c9e52	-0.6742908
160	0x3e88f978	0.2675283
161	0xbeac711e	-0.33680052
162	0x3f1465a2	0.5796758
163	0xbeb85e44	-0.3600942
164	0x3f33b9c7	0.7020535
165	0x3e52387b	0.20529358
166	0xbedf4488	-0.43606973
167	0x3f13c800	0.5772705
168	0x3e548e2b	0.20757358
169	0x3eafd159	0.34339407
170	0x3ec225b0	0.37919378
171	0x3e8610b0	0.26184607
172	0xbca5fc1e	-0.02026182
173	0x3ebd1c1a	0.36935502
174	0x3f08f300	0.5349579
175	0xbf5c0b11	-0.85954386
176	0xbd631f9d	-0.05545007
177	0x3ee745fa	0.45170575
178	0x3d35176e	0.044211797
179	0x3f2be0c8	0.67139864
180	0x3d90fd30	0.07079542
181	0xbe20b901	-0.15695573
182	0xbf8939a0	-1.0720711
183	0x3e5d3ec1	0.2160597
184	0xbeec25f0	-0.46122694
185	0x3eee518d	0.46546593
186	0xbd932b1b	-0.07185956
187	0x3cc24f9f	0.023719607
188	0x3f3fd511	0.7493449
189	0x3f13cbce	0.57732856
190	0xbdc5c710	-0.09657109
191	0x3eb2b289	0.34901837
192	0xbe929a0d	-0.28633156
193	0xbece3b07	-0.4027941
194	0xbebdcf0e	-0.37072033
195	0xbedf618b	-0.43629107
196	0x3f0a02cf	0.53910536
197	0xbdb85f44	-0.090025455
198	0xbf0653b0	-0.52471447
199	0x3e9149c9	0.28376606
200	0x3f30af66	0.69017637
201	0xbda3ba68	-0.079945385
202	0x3ef3866c	0.47563493
203	0x3f1c1a44	0.6097758
204	0x3eb56c6a	0.35434276
205	0x3d3bc1b6	0.045839034
206	0xbf9adcd4	-1.2098641
207	0x3ef3b0bf	0.47595784
208	0x3ecb6806	0.397278
209	0xbecf153b	-0.40445885
210	0x3f17eb85	0.5934375
211	0x3f2c0a2e	0.6720303
212	0xbe98d10e	-0.29846996
213	0xbf0fa4d7	-0.561109
214	0x3e7d33b8	0.2472676
215	0x3efdf14e	0.49598163
216	0x3f7156df	0.9427318
217	0x3ec73f07	0.38915274
218	0x3dd9e333	0.10639038
219	0x3dde8aa5	0.10866288
220	0xbe9b0b37	-0.30281994
221	0x3f01b999	0.50673825
222	0x3e0cd462	0.13752893
223	0xbf6a2444	-0.91461587
224	0xbe15c025	-0.14624079
225	0xbe9d0c28	-0.30673337
226	0xbef56bef	-0.4793391
227	0x3ea1610c	0.31519353
228	0xbddcc3ff	-0.10779571
229	0xbee7a4c3	-0.4524289
230	0xbe1cca5c	-0.15311569
231	0x3ddec5eb	0.108775936
232	0x3d7a5cca	0.061123647
233	0xbca46dd6	-0.020071905
234	0x3e9117f5	0.2833859
235	0x3f2a5532	0.6653625
236	0x3f189693	0.5960476
237	0xbd4278c8	-0.047478467
238	0x3f34b5a5	0.7058967
239	0x3e8125d5	0.25224176
240	0x3e9210e8	0.28528523
241	0xbeb17633	-0.3466049
242	0x3d5809c9	0.052743707
243	0x3d8a0676	0.067395136
244	0x3ef18a94	0.4717604
245	0xbe685b89	-0.22691168
246	0xbcd74d86	-0.026282083
247	0xbfab83a0	-1.3399544
248	0xbf580641	-0.8438454
249	0x3f4f2a9a	0.8092438
250	0x3ed922d1	0.42409375
251	0x3f24ec20	0.644228
252	0x3df3dae0	0.119069815
253	0x3e840d18	0.2579124
254	0xbeb36b99	-0.35043028
255	0xbede97f5	-0.4347531

gru.weight_ih_l1 f4 [384, 128]
0	0x3e70c7a7	0.23513661
1	0xbf03a9ae	-0.51430786
2	0xbd7ad565	-0.061238665
3	0xbf0f859e	-0.5606326
4	0x3ede249e	0.43387312
5	0x3f148cbe	0.58027256
6	0x3f01804f	0.5058641
7	0x3f359e1b	0.70944375
8	0xbe3940ba	-0.18091097
9	0x3e57f841	0.21090795
10	0x3e3c4137	0.18384252
11	0xbd8f5e68	-0.070004284
12	0xbebc4ecf	-0.36778876
13	0x3f1ca8b7	0.6119494
14	0xbd427154	-0.04747136
15	0x3e96006c	0.29297197
16	0xbf0027cd	-0.5006073
17	0xbf9dc670	-1.2326183
18	0xbe8093b1	-0.2511268
19	0x3ccba550	0.0248591
20	0xbf29adce	-0.6628083
21	0x3f1bbfd6	0.60839593
22	0xbe5b7f34	-0.21435243
23	0xbcd0c14f	-0.025482802
24	0xbe5f7b78	-0.21824443
25	0x3ee92151	0.4553323
26	0xbe87a005	-0.26489273
27	0x3ead75b3	0.3387886
28	0xbf3925bd	-0.7232321
29	0x3ea928a8	0.3303883
30	0xbe915545	-0.28385368
31	0xbf46b763	-0.77623576
32	0xbeacdd40	-0.3376255
33	0x3ec27df2	0.37986714
34	0x3ed81fb9	0.42211702
35	0xbdd16a3f	-0.10225343
36	0xbf590604	-0.84774804
37	0x3e939465	0.28824154
38	0x3f5d2d89	0.86397606
39	0xbe03ebd7	-0.12882935
40	0xbf00566a	-0.5013186
41	0x3e056ca2	0.13029721
42	0x3f0188a1	0.50599104
43	0x3dd502db	0.10400935
44	0xbef92127	-0.48658106
45	0x3db7154d	0.0893961
46	0xbe80526d	-0.25062886
47	0x3f6d6bb4	0.92742467
48	0x3e034609	0.12819685
49	0x3eaafaa8	0.3339436
50	0xbf28502a	-0.6574732
51	0xbc631f38	-0.013862424
52	0x3d1e9f10	0.038725913
53	0x3e079d92	0.13243702
54	0xbf22d151	-0.6360064
55	0xbf2814fe	-0.6565703
56	0xbf18e59a	-0.59725344
57	0x3f049639	0.5179172
58	0x3ef48e0c	0.47764623
59	0x3e032993	0.12808828
60	0x3e9ed6fc	0.31023395
61	0xbe03cff5	-0.12872298
62	0x3e0da8b1	0.13833882
63	0x3dd4b9a5	0.103869714
64	0xbf148d40	-0.5802803
65	0xbe4462d4	-0.19178325
66	0xbee3d1a9	-0.44495896
67	0x3f09aa4c	0.5377548
68	0xbf782485	-0.96930724
69	0x3c7a68f6	0.015283814
70	0x3e7f832c	0.24952382
71	0xbee9defc	-0.45677936
72	0x3ec6298b	0.3870357
73	0x3cc654bd	0.024210328
74	0xbe97635c	-0.29567993
75	0x3ec5caa7	0.38631174
76	0xbe811922	-0.25214487
77	0x3e10b87e	0.14132878
78	0xbf64648f	-0.8921594
79	0x3e45f9c2	0.19333556
80	0x3e9fa956	0.3118388
81	0xbe16b8d9	-0.14718951
82	0x3e0e3bf0	0.13890052
83	0xbef51a5d	-0.47871676
84	0x3f1c3102	0.6101228
85	0xbd8f4dc2	-0.06997253
86	0x3e5c672e	0.21523735
87	0x3c0ea2ab	0.008705775
88	0x3e17622d	0.14783545
89	0x3ec75a6d	0.38936177
90	0xbec6534c	-0.38735425
91	0x3dc0dafe	0.094167694
92	0xbef4ac52	-0.4778772
93	0x3f0e7cf6	0.55659425
94	0xbf154a0d	-0.5831612
95	0xbf28c7c5	-0.65929824
96	0xbe0a1c24	-0.13487297
97	0x3f02717a	0.509544
98	0xbe162e3e	-0.14666077
99	0x3f11f027	0.5700707
100	0x3f2740e3	0.65333384
101	0x3e924359	0.28567007
102	0xbde91ca0	-0.11382413
103	0x3e834732	0.25640255
104	0xbe528baa	-0.2056109
105	0xbefc1973	-0.49238166
106	0x3e08980a	0.13339248
107	0x3ed764ec	0.42069185
108	0xbe5acc2b	-0.21366946
109	0xbe837329	-0.25673798
110	0x3eabe6c1	0.3357449
111	0x3db15fd9	0.086608596
112	0x3d1e34da	0.038624622
113	0xbd8ff1e1	-0.070285566
114	0x3ebaae2d	0.3646101
115	0xbe7c9695	-0.24666817
116	0x3eca25be	0.3948192
117	0xbe9e7f93	-0.30956706
118	0xbd419ec6	-0.04727056
119	0xbdf2d207	-0.11856466
120	0x3d9ab751	0.07554496
121	0xbf3e1c1e	-0.74261653
122	0x3eecf485	0.46280304
123	0x3d708ccb	0.05872802
124	0x3de6fe23	0.112789415
125	0x3edc8c5b	0.43075833
126	0xbeb1ad06	-0.3470232
127	0x3ef8cd8c	0.4859432
128	0x3f85f97c	1.0466762
129	0xbe960dba	-0.29307348
130	0x3e311994	0.17294914
131	0xbd9ef55b	-0.077616416
132	0x3f368a5a	0.7130486
133	0x3f0fa834	0.5611603
134	0xbdd1aa30	-0.10237539
135	0xbe48c60c	-0.19606799
136	0x3f2a1592	0.66439164
137	0xbc837901	-0.01604891
138	0x3db90099	0.09033317
139	0x3ef48eeb	0.47765288
140	0x3e335ac8	0.17515099
141	0x3dd3be0e	0.103389844
142	0xbdca81ec	-0.09888062
143	0xbec56131	-0.38550714
144	0x3e7aece4	0.24504429
145	0xbe4658cc	-0.19369811
146	0x3e1c798e	0.15280744
147	0xbd8e8403	-0.06958773
148	0xbf256bc2	-0.6461755
149	0xbf1d3135	-0.6140321
150	0xbe985446	-0.29751796
151	0x3f1e6108	0.6186681
152	0xbe005e43	-0.12535958
153	0xbe20956d	-0.15682001
154	0xbe8af113	-0.2713705
155	0xbf79d670	-0.9759283
156	0xbd2c04b1	-0.04199666
157	0x3e501bd5	0.20323117
158	0x3f436534	0.763263
159	0xbe60e6da	-0.21963063
160	0x3eba6f00	0.3641281
161	0x3f20383e	0.6258582
162	0xbde5ece5	-0.11226825
163	0xbda56aed	-0.08077035
164	0xbf282bad	-0.65691644
165	0x3ed6a6d7	0.41924164
166	0x3f0f0e04	0.5588076
167	0xbebdf78d	-0.3710293
168	0xbdbc5f05	-0.09197811
169	0x3e303ff1	0.17211892
170	0xbbcd1893	-0.006259033
171	0xbe25ff69	-0.16210712
172	0x3eee2017	0.46508858
173	0x3f289934	0.6585877
174	0x3efb8329	0.49123505
175	0xbe16fb2e	-0.14744255
176	0xbe03ee5f	-0.128839
177	0x3ee2e1a0	0.44312763
178	0xbf55dad8	-0.83537054
179	0xbe3ff110	-0.18744302
180	0xbf2917e9	-0.6605211
181	0x3e4d844f	0.20070003
182	0x3de23c22	0.11046626
183	0xbebcdbb0	-0.36886358
184	0x3ec3fffc	0.38281238
185	0xbf23b10d	-0.63942033
186	0x3dc62fa6	0.09677057
187	0xbec0e41e	-0.3767404
188	0x3ecbdfd5	0.39819208
189	0x3f008b83	0.5021288
190	0x3ec9d0ff	0.39417264
191	0xbeacad7e	-0.33726114
192	0xbe7d7c7d	-0.2475452
193	0xbed2758e	-0.41105312
194	0xbd32dc0c	-0.043666884
195	0x3d99e2a3	0.07513931
196	0xbe2c5e59	-0.16832866
197	0x3f7fd3c6	0.99932516
198	0x3e88a5ca	0.26688987
199	0x3f1bb0c2	0.60816586
200	0x3ed7e13d	0.4216403
201	0x3dbda564	0.092600614
202	0x3dc9b26e	0.09848486
203	0x3de6082a	0.11232026
204	0xbed18a4a	-0.4092582
205	0xbece171f	-0.40252015
206	0x3e384ca0	0.1799798
207	0x3b53c590	0.0032313801
208	0x3e901c1f	0.28146455
209	0x3d85a4fa	0.065256074
210	0x3f1f6ac9	0.62272316
211	0xbf2e7df9	-0.6816097
212	0x3e1f4ce6	0.15556678
213	0xbf105c3a	-0.56390727
214	0x3ec14b06	0.3775255
215	0x3f38769f	0.72056
216	0x3da6eb32	0.08150329
217	0x3e7b596b	0.24545829
218	0x3e277a1c	0.16355175
219	0xbd6480fc	-0.05578707
220	0x3eb6b46e	0.35684532
221	0x3dd22b34	0.102621466
222	0xbea55a25	-0.32295337
223	0x3e96dc92	0.29465157
224	0xbe9ec1be	-0.3100719
225	0x3ee12e81	0.43980792
226	0x3e323d2e	0.1740615
227	0xbdebf97b	-0.11522194
228	0x3f061123	0.523699
229	0x3e5cd960	0.21567297
230	0x3d96dcf9	0.07366366
231	0x3e844507	0.25833914
232	0xbf04d149	-0.51881844
233	0xbdd246cd	-0.102674104
234	0xbea3c321	-0.3198481
235	0x3f3add57	0.7299399
236	0x3c80a786	0.015704881
237	0xbd0479f5	-0.03234287
238	0x3ebd097a	0.36921293
239	0xbe12af51	-0.1432469
240	0xbd07ae5e	-0.033125274
241	0xbf1d4c95	-0.6144498
242	0x3f2d8650	0.6778307
243	0xbec3cc3f	-0.38241765
244	0x3c86e8cb	0.016468426
245	0xbda5908a	-0.08084209
246	0xbc3476a5	-0.011014615
247	0xbe92ea8e	-0.28694576
248	0xbe57fe19	-0.21093024
249	0xbeab8961	-0.3350325
250	0x3e300572	0.17189577
251	0xbd5e6c11	-0.05430228
252	0x3db5a4d0	0.08869326
253	0xbec1eac4	-0.37874424
254	0x3e167526	0.14693126
255	0x3e685c24	0.22691399

gru.weight_hh_l1 f4 [384, 128]
0	0xbf6316ef	-0.8870687
1	0x3e894e1b	0.26817402
2	0x3f2eb7ce	0.68249214
3	0xbef88e12	-0.4854589
4	0x3bcd2b97	0.0062613
5	0xbe944ef0	-0.28966475
6	0xbec72cdc	-0.38901412
7	0xbc949781	-0.018138649
8	0x3eff0bd0	0.498137
9	0x3e844ccb	0.25839838
10	0x3e7e0d6d	0.24809809
11	0xbf139e39	-0.57663304
12	0xbd4c2197	-0.04983672
13	0x3ea38e37	0.3194444
14	0xbe89b8b3	-0.26898727
15	0xbf0b3088	-0.5437093
16	0xbd8b9c33	-0.06816902
17	0xbdf72614	-0.1206781
18	0x3f1142ca	0.5674254
19	0x3e523408	0.20527661
20	0xbe09f0cc	-0.13470763
21	0xbe880ff7	-0.2657468
22	0x3d61f354	0.055163696
23	0x3e95e823	0.2927867
24	0x3f0e0b2e	0.5548581
25	0x3f4d0d0c	0.8009803
26	0x3ecc9c6e	0.39963096
27	0xbf35df2a	-0.71043646
28	0xbe9701b1	-0.29493478
29	0x3edff084	0.43738186
30	0xbea714f3	-0.3263317
31	0xbea93dff	-0.33055112
32	0xbf1b8cd6	-0.60761774
33	0xbec7c6a1	-0.3901873
34	0xbeafa5ba	-0.34306127
35	0xbee95a71	-0.45576814
36	0x3e9cfd5f	0.30662057
37	0xbe920516	-0.28519505
38	0x3dff05b4	0.1245226
39	0xbe0347ab	-0.12820308
40	0x3db3a160	0.08771014
41	0xbe77012b	-0.2412154
42	0xbd4416df	-0.047873374
43	0xbe5ca861	-0.21548606
44	0xbe58f8c5	-0.21188648
45	0x3f5e8dee	0.8693532
46	0x3f3d8e85	0.7404559
47	0xbeab942a	-0.33511478
48	0x3e3b15e6	0.18270072
49	0x3ed670cd	0.41882935
50	0x3e8e77e0	0.27825832
51	0x3ddcc6e1	0.10780121
52	0x3e4a32cd	0.19745941
53	0xbe32b843	-0.17453103
54	0xbf45c833	-0.77258605
55	0xbf376b60	-0.71648216
56	0xbc32ae9c	-0.010905888
57	0xbedb091b	-0.42780384
58	0x3ddc1676	0.107464716
59	0x3e4c9a88	0.19980824
60	0x3e5b4158	0.21411645
61	0xbe3a9725	-0.1822172
62	0x3eadc0d3	0.33936176
63	0xbf00800c	-0.50195384
64	0x3ef5f3c5	0.48037544
65	0x3e0cefa2	0.13763288
66	0xbe75ac6e	-0.23991558
67	0xbe4a1aa3	-0.19736724
68	0xbe0b654e	-0.13612863
69	0x3ea85e8a	0.32884628
70	0x3f1f1591	0.6214228
71	0x3ebcf4e1	0.36905578
72	0x3ea3c4d4	0.31986105
73	0x3f1a6dd1	0.60323817
74	0xbdaae6e3	-0.083448194
75	0xbf0406e9	-0.51573044
76	0xbef08463	-0.46976003
77	0x3e6d9e03	0.23204808
78	0xbe9fd078	-0.31213737
79	0x3e27ace8	0.16374552
80	0x3e4108cd	0.18851013
81	0x3e953a63	0.29146108
82	0x3e570644	0.20998484
83	0x3e52cca3	0.20585875
84	0x3f10bda8	0.5653939
85	0x3e821879	0.25409296
86	0x3ec4cab6	0.38435906
87	0x3d3b6d06	0.04575827
88	0xbb115a18	-0.0022178944
89	0xbe7a3148	-0.24432862
90	0xbeb0bcc2	-0.3451901
91	0x3cd53452	0.026025925
92	0xbe68f342	-0.22749045
93	0xbe54429b	-0.20728533
94	0x3eaa411b	0.33252797
95	0xbe436847	-0.19082747
96	0x3e301045	0.17193706
97	0xbb475c02	-0.0030419831
98	0xbe8d8154	-0.27637732
99	0xbebf8e73	-0.37413368
100	0x3f842b30	1.032568
101	0xbec8e3fe	-0.39236444
102	0x3ede46df	0.43413445
103	0x3e840a5d	0.25789157
104	0x3f29f6b9	0.66392094
105	0x3e9205cc	0.28520048
106	0x3ee6650f	0.44998977
107	0x3f069163	0.5256559
108	0xbd74b90c	-0.059746787
109	0xbe90f203	-0.2830964
110	0xbec4fcbb	-0.38474068
111	0xbeb2c48f	-0.34915587
112	0xbe111048	-0.14166367
113	0xbeb0c36e	-0.345241
114	0x3e619ddd	0.22032876
115	0x3f0310d2	0.5119754
116	0x3ebdf4cd	0.3710083
117	0x3f88d208	1.0689096
118	0xbe5fa540	-0.21840382
119	0x3ea5121a	0.32240373
120	0xbea47e06	-0.32127398
121	0x3d71eb0e	0.059062056
122	0x3e42ed47	0.19035827
123	0xbe8a25d3	-0.26981983
124	0xbe24ed96	-0.16106257
125	0x3e7415c3	0.23836426
126	0x3e217e98	0.15770948
127	0xbebd9a7f	-0.37031934
128	0xbf56dee3	-0.8393385
129	0x3cef543b	0.029214969
130	0x3e6a19ce	0.22861406
131	0x3e6c5565	0.2307945
132	0x3db8eca1	0.090295084
133	0x3ed25da1	0.41087058
134	0xbf02ab36	-0.510425
135	0xbed4ec79	-0.41586664
136	0xbe88f0d2	-0.2674623
137	0x3f4910d8	0.78541327
138	0x3f083a77	0.5321421
139	0xbf3a3011	-0.72729594
140	0xbb8907c5	-0.0041818344
141	0xbecabe0c	-0.3959812
142	0xbf4e5abd	-0.80607206
143	0xbf23419d	-0.6377199
144	0x3dcbee02	0.09957506
145	0xbf144066	-0.57910764
146	0xbe858e54	-0.2608515
147	0x3eff8b0a	0.49910766
148	0xbd62d2f0	-0.055376947
149	0xbea722e0	-0.32643795
150	0xbecf71ba	-0.40516454
151	0x3d42dd80	0.04757452
152	0x3f8b5592	1.0885489
153	0x3db1e9b7	0.08687156
154	0x3ec05a18	0.37568736
155	0xbee00205	-0.4375154
156	0xbf3d430c	-0.7393043
157	0x3f851278	1.0396261
158	0xbec3324f	-0.3812432
159	0xbf20d88f	-0.6283044
160	0x3fa6f0de	1.3042257
161	0x3e22267e	0.15834996
162	0xbbd639de	-0.00653766
163	0xbf042122	-0.51613057
164	0xbe41d95e	-0.18930575
165	0xbd99047c	-0.074715585
166	0xbf4199ca	-0.7562529
167	0x3dc3d05a	0.09561224
168	0xbe352a69	-0.1769196
169	0x3f388b6a	0.7208773
170	0xbe42334b	-0.18964879
171	0xbde888ed	-0.113542415
172	0x3e2aa9c7	0.16666327
173	0x3ec1bf7d	0.37841406
174	0xbcdf9b0d	-0.027295614
175	0x3d84725a	0.06467123
176	0xbe964848	-0.2935202
177	0x3e10f5b1	0.14156224
178	0xbed7ca75	-0.4214665
179	0xbddf713a	-0.10910268
180	0xbeeff9b7	-0.46870205
181	0xbd3ee2f5	-0.04660316
182	0x3d80a8dd	0.06282208
183	0xbf09ee69	-0.5387941
184	0x3f06e40b	0.52691716
185	0xbec72d11	-0.3890157
186	0xbd43091d	-0.047616113
187	0xbf031e35	-0.5121797
188	0x3ec36a2a	0.38166934
189	0xbd73f7a6	-0.059562348
190	0x3f2212af	0.6330976
191	0xbd743e1a	-0.059629537
192	0x3e4c3622	0.19942525
193	0xbe875fc3	-0.26440248
194	0x3ca82339	0.020524608
195	0xbe0855fa	-0.13314047
196	0xbf144142	-0.57912076
197	0x3e8d62ef	0.27614543
198	0x3f87f564	1.0621762
199	0x3dcbebf3	0.09957113
200	0x3d9feced	0.07808862
201	0x3f0e743a	0.556461
202	0xbf06f894	-0.5272305
203	0x3e1031c9	0.14081492
204	0xbf3b65a3	-0.7320196
205	0x3f1deb95	0.61687595
206	0xbe61fc33	-0.22068863
207	0x3ef3dca1	0.47629264
208	0xbd8d1527	-0.068888
209	0xbe805e35	-0.25071874
210	0xbe9bb975	-0.3041493
211	0x3d1c3528	0.03813663
212	0xbd941282	-0.072300926
213	0x3dab56f4	0.08366194
214	0x3f137c09	0.5761114
215	0xbec8c368	-0.39211583
216	0xbf62022e	-0.88284576
217	0xbebfb1d4	-0.3744036
218	0xbe91d907	-0.2848589
219	0x3ec8f7e1	0.39251617
220	0x3e5cd6ba	0.21566287
221	0x3e90737f	0.28213117
222	0x3f2f4213	0.68460196
223	0x3ed9a139	0.42505816
224	0xbe713870	-0.23556685
225	0xbe041b51	-0.12901045
226	0x3efd84ec	0.49515474
227	0xbf3acaa7	-0.7296547
228	0x3e733ee0	0.23754454
229	0xbeb4d7cd	-0.35320893
230	0xbf3b5504	-0.731766
231	0x3ea29193	0.3175169
232	0x3e95c9cc	0.2925552
233	0xbe37dd04	-0.17955405
234	0x3ec54656	0.38530225
235	0xbcbd47de	-0.023105558
236	0xbf02fe58	-0.5116935
237	0xbd13a322	-0.036044247
238	0xbda9d549	-0.08292634
239	0xbf092149	-0.53566414
240	0xbe4223ed	-0.18959017
241	0x3e671726	0.22567424
242	0x3f3b780f	0.7323007
243	0xbe28fca2	-0.16502622
244	0xbe0b8531	-0.13625027
245	0x3edf726c	0.43641984
246	0xbe3b9fb8	-0.18322647
247	0xbd50947b	-0.050922852
248	0xbf536fdc	-0.8259256
249	0x3e2ed7c9	0.17074503
250	0xbd1296ad	-0.035788227
251	0x3e627e03	0.22118382
252	0xbcdab48f	-0.026697425
253	0x3f3c8311	0.7363749
254	0xbe68c4d7	-0.22731338
255	0x3eda6188	0.42652535

gru.bias_ih_l1 f4 [384]
0	0x3e767f9d	0.24072118
1	0x3f11a8af	0.56898016
2	0xbe9012c1	-0.28139308
3	0xbc1ce658	-0.009576403
4	0x3c5134e8	0.0127689615
5	0xbe96a217	-0.2942054
6	0x3ebcd1da	0.36878854
7	0xbe5fbe5a	-0.21849957
8	0xbe3b579f	-0.18295144
9	0x3e93829a	0.2881058
10	0x3db650bc	0.089021176
11	0xbdd75ca9	-0.105157204
12	0x3e54ee36	0.20793995
13	0xbc88af25	-0.016685078
14	0xbdbe12d9	-0.09280939
15	0xbe1a7fd8	-0.15087831
16	0xbdb49745	-0.08817915
17	0xbee58958	-0.44831347
18	0xbef441ad	-0.47706357
19	0x3e4b2e90	0.19841981
20	0xbf462487	-0.77399486
21	0x3d8798c4	0.066209346
22	0xbd4b0dc0	-0.04957366
23	0xbe96d814	-0.2946173
24	0xbede9301	-0.4347153
25	0xbf2d3689	-0.6766134
26	0x3bce2716	0.0062912805
27	0xbeaf4a60	-0.3423643
28	0x3e3589f4	0.17728406
29	0xbdeff5a8	-0.11716777
30	0x3ec71e90	0.38890505
31	0x3e31f09e	0.17376944
32	0xbdce178a	-0.100630835
33	0x3dfa97ea	0.122360066
34	0xbef86d85	-0.48521057
35	0xbe3d5859	-0.18490733
36	0xbdb77a97	-0.08958929
37	0x3e165691	0.1468146
38	0xbeab8a67	-0.3350403
39	0x3e5c314d	0.21503182
40	0xbec51fd9	-0.3850086
41	0xbf6313b9	-0.8870197
42	0x3dd7b9ab	0.1053346
43	0x3e5aff5f	0.21386479
44	0xbe6ddbfa	-0.23228446
45	0xbe1976f7	-0.14986788
46	0xbedfe6c5	-0.4373075
47	0xbe1e922c	-0.15485448
48	0xbf0cad4d	-0.54951936
49	0xbe91197c	-0.28339756
50	0xbf07a629	-0.52987915
51	0x3e865cd7	0.26242706
52	0xbf19788c	-0.59949565
53	0x3debbaa4	0.11510208
54	0xbd5e31e1	-0.054246787
55	0x3e2f0b61	0.17094184
56	0xbea8a0c9	-0.3293517
57	0x3b115822	0.0022177775
58	0xbf14ed2d	-0.581744
59	0xbe952486	-0.29129428
60	0xbf4ea2c0	-0.80717087
61	0xbe0a1a4a	-0.13486591
62	0xbdccb3db	-0.09995242
63	0xb79617a8	-1.789241e-05
64	0xbf2c4e82	-0.67307293
65	0x3cb133c0	0.021631122
66	0xbde79151	-0.11307014
67	0xbf27aef6	-0.65501344
68	0xbbef9ca6	-0.007312375
69	0x3e79d6fc	0.24398416
70	0xbeaea4a9	-0.3411
71	0xbee0c7d3	-0.43902454
72	0xbec27de8	-0.37986684
73	0xbdc5e732	-0.09663238
74	0xbe59c765	-0.21267469
75	0xbe61c28c	-0.2204687
76	0x3e8ef2f7	0.27919742
77	0xbdfcc32d	-0.12341914
78	0xbf0d4b2a	-0.55192816
79	0x3eb16239	0.3464525
80	0x3ea68db6	0.32529992
81	0xbe497e21	-0.1967702
82	0xbeaaeb8c	-0.33382833
83	0xbea1e6f3	-0.31621513
84	0xbecde353	-0.40212497
85	0x3e9993c4	0.2999555
86	0x3e367915	0.17819627
87	0xbe99b104	-0.30017865
88	0x3c22d6bb	0.009938891
89	0xbdbd3bd9	-0.09239931
90	0xbf4fd9f3	-0.8119194
91	0xbcc65c58	-0.024213955
92	0xbee31953	-0.44355258
93	0xbd069073	-0.0328526
94	0x3d553334	0.052050784
95	0xbf5cd8a8	-0.8626809
96	0xbbfd68a4	-0.0077334214
97	0xbeb5b83c	-0.35492122
98	0x3e4dcc9e	0.20097587
99	0xbe8e59a0	-0.27802753
100	0xbeb19e18	-0.34690928
101	0x3e38d04c	0.18048209
102	0xbe3e9a5c	-0.18613571
103	0xbe509681	-0.20369913
104	0xbf63e585	-0.89022094
105	0xbe6ab6da	-0.22921315
106	0x3d0ca1a5	0.034333844
107	0x3d1571c0	0.036485434
108	0xbe5c46db	-0.21511404
109	0x3df0b1ca	0.117526606
110	0x3e6b7a3d	0.22995849
111	0xbe96ba47	-0.29438993
112	0x3e92d09d	0.28674784
113	0xbec1c231	-0.3784347
114	0x3de9e1f2	0.11420049
115	0x3c98cfa3	0.018653696
116	0xbecb5ac9	-0.397177
117	0xbea03f77	-0.3129842
118	0xbecff3c8	-0.40615678
119	0x3e467bd9	0.19383182
120	0x3d8f16a0	0.06986737
121	0xbf5e0546	-0.86726797
122	0x3d1dcd07	0.038525607
123	0x3d90878a	0.07057102
124	0xbe845ae1	-0.25850585
125	0xbdf79b40	-0.120901585
126	0x3d9cd6ea	0.07658179
127	0xbeb058d9	-0.34442785
128	0x3dc71897	0.09721487
129	0x3d8ad283	0.06778433
130	0x3f25d719	0.6478134
131	0x3e95463e	0.29155153
132	0xbdd4930e	-0.10379611
133	0x3ed3a944	0.41340077
134	0x3db01002	0.08596803
135	0x3d2ececf	0.042677697
136	0x3eb58858	0.35455585
137	0xbe3c9696	-0.18416819
138	0xbeedf1d0	-0.4647355
139	0x3f277166	0.6540741
140	0xbe875ec8	-0.264395
141	0xbe42c5ce	-0.19020769
142	0x3f567b99	0.83782345
143	0xbef24c5e	-0.4732389
144	0x3f125465	0.57160026
145	0x3e742ecc	0.23845977
146	0x3e53e62b	0.20693271
147	0x3cd0d036	0.025489908
148	0x3f4a865f	0.79111284
149	0x3f4e3c9d	0.8056124
150	0x3e87def7	0.26537296
151	0x3fab71b2	1.3394072
152	0xbea81ef4	-0.32836115
153	0x3ec569f9	0.38557413
154	0x3f460300	0.7734833
155	0x3e999dfa	0.3000334
156	0x3e8d859d	0.27641
157	0xbea873f6	-0.3290097
158	0x3e35dc58	0.17759836
159	0x3e5f2f6e	0.21795437
160	0xbd28dfb5	-0.04122897
161	0x3f8d1c5e	1.1024282
162	0x3f044134	0.5166199
163	0x3e9214f6	0.28531617
164	0x3c880b7a	0.016607035
165	0x3f3e2dd4	0.7428868
166	0x3e0b8386	0.13624391
167	0x3e9b024e	0.30275196
168	0x3faab5bd	1.3336712
169	0x3f1c9564	0.6116545
170	0x3e223404	0.15840155
171	0x3e699fa3	0.22814803
172	0x3f2bc679	0.6709972
173	0x3eb41803	0.3517457
174	0x3ea8b8a1	0.3295336
175	0x3e5e835d	0.21729799
176	0x3f8efc55	1.1170756
177	0x3ee26329	0.44216278
178	0x3f0d1332	0.55107415
179	0x3f9f05f0	1.2423687
180	0x3f6a02ea	0.91410697
181	0x3f5f094f	0.8712358
182	0x3f4ae719	0.7925888
183	0xbe461d6f	-0.19347166
184	0x3f30bffd	0.6904295
185	0x3ea909ac	0.33015192
186	0x3e1221c8	0.14270699
187	0x3f1b9888	0.6077962
188	0x3f80b392	1.00548
189	0x3e6325a6	0.2218233
190	0xbf0eb90b	-0.55751103
191	0xbeaa8237	-0.3330247
192	0x3f2e7c39	0.681583
193	0x3e29f0ad	0.16595717
194	0x3f2819ff	0.65664667
195	0x3f13e7de	0.57775676
196	0x3f129ea6	0.5727333
197	0xbdc29d10	-0.095026135
198	0x3d8fdf03	0.07024958
199	0x3e2ffad3	0.17185526
200	0x3f4d082f	0.8009061
201	0x3f58d130	0.84694195
202	0x3ef4b0e0	0.47791195
203	0x3f74c76f	0.9561681
204	0x3ebdfd71	0.37107423
205	0x3e275ae4	0.16343266
206	0x3f756395	0.95855075
207	0x3d9dc89b	0.07704278
208	0x3f38ee60	0.7223873
209	0x3f32f36f	0.699027
210	0x3efe32e1	0.49648193
211	0x3f57b887	0.8426594
212	0x3cb64f19	0.022254514
213	0x3ea510f2	0.3223949
214	0x3f595cd6	0.8490728
215	0x3ecdb0a5	0.40173832
216	0x3f9e30da	1.2358658
217	0xbe5c0c61	-0.21489097
218	0x3f11ff26	0.5702995
219	0x3f6028dd	0.8756235
220	0x3e3c8055	0.1840833
221	0x3f0471ba	0.5173603
222	0x3eeedda8	0.46653485
223	0x3e9b04a6	0.30276984
224	0xbe8c8fa2	-0.27453333
225	0x3f21e15a	0.63234484
226	0x3efdaab9	0.49544314
227	0x3edf74d8	0.43643832
228	0xbd6d3dd5	-0.057920296
229	0xbed978e0	-0.42475033
230	0x3eac6d5d	0.33677188
231	0x3ea39ad7	0.3195407
232	0x3e269990	0.16269517
233	0x3eb4c2ca	0.35304862
234	0x3f3ee7ed	0.7457264
235	0xb998ce95	-0.00029145615
236	0x3f8be666	1.0929687
237	0x3efafff4	0.49023402
238	0x3f1b4dbf	0.60665506
239	0xbf27ac4c	-0.6549728
240	0x3dc379b3	0.09544697
241	0x3f270cfd	0.65254194
242	0x3f4a3836	0.7899202
243	0x3dc6ef49	0.09713609
244	0x3f9d8808	1.2307138
245	0x3e0d19f0	0.13779426
246	0x3f280d95	0.65645725
247	0x3e28c554	0.16481525
248	0x3ed86ab5	0.4226891
249	0x3f844d6f	1.0336131
250	0x3e3c306a	0.18377843
251	0x3e762c1f	0.24040268
252	0x3f46b421	0.77618605
253	0x3efd42db	0.4946507
254	0x3db8bf82	0.09020902
255	0x3f6268f4	0.88441396
