My_NN/models/gru_model.onnx (onnx, 627041 bytes, 7 tensors)

fc.weight f4 [1, 128]
0	0x3c4e0e44	0.012576643
1	0xbc2b0f93	-0.010440725
2	0x3c5092ff	0.012730359
3	0x3deaaa68	0.11458284
4	0x3b10001b	0.002197272
5	0xbba06547	-0.0048948857
6	0xbc2474de	-0.010037629
7	0x3c788ba4	0.015170012
8	0xbd5f6d12	-0.054547377
9	0xbc00a8f3	-0.007852781
10	0xbc9b5bed	-0.018964732
11	0x3d494071	0.04913372
12	0xbbf91aff	-0.007602095
13	0xbe1c0b31	-0.15238644
14	0xbc644d83	-0.013934496
15	0x3d2c2a76	0.04203268
16	0xbdc65f25	-0.09686116
17	0xbc637175	-0.013882031
18	0xbc7dd827	-0.015493429
19	0xbd35be7b	-0.04437111
20	0xbd1213fc	-0.03566359
21	0xbd7debcb	-0.061992448
22	0x3d773442	0.06035257
23	0xbdc231fb	-0.09482189
24	0x3d901f42	0.07037212
25	0x3d6ad53f	0.057332274
26	0x3d01b1f4	0.03166385
27	0xbc93d6c2	-0.01804674
28	0xbcca7cb9	-0.024717676
29	0x3d219578	0.039449185
30	0xbd878126	-0.0661643
31	0xbd4c95af	-0.049947437
32	0x3cd7c277	0.026337845
33	0x3d8f8dbc	0.070094556
34	0x3cd933ad	0.026513899
35	0xbbf26937	-0.0073977965
36	0x3cd2006c	0.025634967
37	0xbd8acf4a	-0.067778185
38	0x3ce8210b	0.028336069
39	0x3d276f21	0.040877465
40	0x3a3efbe4	0.00072854594
41	0x3c75b708	0.014997251
42	0x3c5d4db6	0.013507297
43	0xbb024e3f	-0.0019883064
44	0xbaa7c039	-0.0012798376
45	0x3d8f0c6c	0.06984791
46	0xbd5a364f	-0.05327445
47	0x3b9ed808	0.0048475303
48	0x3dc5d556	0.09659831
49	0xbc1dd505	-0.009633307
50	0x3b36d0bf	0.0027895418
51	0x3d205f77	0.039153542
52	0x3d8114d8	0.06302804
53	0x3992b0e7	0.00027979093
54	0x3d01614b	0.031586926
55	0xbd5a32ce	-0.053271107
56	0xbd394d68	-0.045239836
57	0xbab3870f	-0.0013696867
58	0x3b2ecca9	0.002667228
59	0xbe57ffd3	-0.21093683
60	0xbcb14cc8	-0.021643057
61	0x3dfa5876	0.12223904
62	0xbc81bd6d	-0.015837396
63	0x3be1396a	0.0068732994
64	0xbcfed6c5	-0.03110827
65	0x3c44d49d	0.012013582
66	0xbcb5a17c	-0.022171728
67	0xbc9a0de9	-0.018805461
68	0xbdaf33c5	-0.08554796
69	0xbbc36752	-0.0059632445
70	0x3b81359d	0.003943159
71	0xbba97ed7	-0.005172591
72	0xbe21a891	-0.15786959
73	0xbbad7252	-0.005293169
74	0xbd8a6af8	-0.06758684
75	0x3d256255	0.04037698
76	0xbc85a579	-0.016314255
77	0x3b370f7d	0.0027932816
78	0x3d500315	0.05078419
79	0xbd3aaea0	-0.04557669
80	0xbbdc5318	-0.0067237727
81	0x3c1d51cd	0.009602022
82	0x3cfcf3a8	0.030877903
83	0xbcaf7f23	-0.021422928
84	0xbdecb0a5	-0.1155713
85	0x3c830edc	0.015998296
86	0xbcbc4d02	-0.022985939
87	0xbbb83375	-0.0056213685
88	0xbcf00186	-0.029297601
89	0xbd352f37	-0.04423448
90	0xbd93ae2f	-0.07210957
91	0x3d32a072	0.043610044
92	0xbc841589	-0.01612355
93	0xbcbf89eb	-0.023381194
94	0xbd2c5db7	-0.04208156
95	0xbdceedbe	-0.101039395
96	0x3d2b105d	0.041763652
97	0xbd091552	-0.0334676
98	0x3c004fe3	0.0078315465
99	0xbbe9852d	-0.0071264715
100	0xbd3774d9	-0.04478917
101	0x3cfe8874	0.031070925
102	0x3cd6d250	0.026223332
103	0xbd82a464	-0.06379011
104	0xbcfd0024	-0.030883856
105	0x390fa993	0.00013700714
106	0x3d5d9389	0.05409578
107	0xbcb2494e	-0.02176347
108	0xbbb10350	-0.005402006
109	0xbd6a3b60	-0.05718553
110	0xbc7380a3	-0.014862212
111	0xbb4aa44d	-0.0030920685
112	0x3d02fe2a	0.03198067
113	0xbc8a89fa	-0.016911495
114	0xbd7808bd	-0.06055521
115	0xbbcea271	-0.0063059856
116	0xbdd78043	-0.10522511
117	0xbc6ae0e1	-0.014335842
118	0xbc29c957	-0.010362945
119	0x3c67cc05	0.014147763
120	0x3d4315cb	0.047628205
121	0xbd59d870	-0.053184927
122	0xbc29656f	-0.010339125
123	0xbc86053c	-0.016359918
124	0x3d80a271	0.06280983
125	0xba201ccf	-0.00061078084
126	0xbcd3f4ca	-0.02587356
127	0xbd239c33	-0.039943885

onnx::GRU_172 f4 [1, 384, 18]
0	0xbedb0759	-0.42779043
1	0xbe18a1cd	-0.14905472
2	0x3e30d072	0.17267016
3	0xbf92f8c0	-1.1482162
4	0xbe2e51e9	-0.17023434
5	0xbe0aaef7	-0.13543306
6	0xbe1f40c5	-0.15552051
7	0x3e43d5ed	0.19124575
8	0xbe267e66	-0.16259155
9	0x3ee5b458	0.44864154
10	0xbeb9ab5f	-0.36263558
11	0xbe9e5bc0	-0.30929375
12	0x3edb4f4f	0.42833945
13	0x3f188fd7	0.5959448
14	0xbe88ab87	-0.26693365
15	0xbf054b2f	-0.52067846
16	0xbf7b146a	-0.98078024
17	0xbf327a7f	-0.69718164
18	0x3e1e6ec9	0.15471949
19	0xbcdd863e	-0.02704155
20	0xbe73346d	-0.23750468
21	0x3f14703e	0.5798377
22	0x3df89653	0.12138047
23	0xbdb7d981	-0.089770325
24	0x3fd5343e	1.6656568
25	0x3b2713db	0.0025494013
26	0x3f22441d	0.6338518
27	0xbe6e41d2	-0.23267296
28	0x3e8a72b6	0.27040642
29	0x3d88bb7b	0.06676384
30	0xbdcceafe	-0.10005759
31	0xbe898a35	-0.26863256
32	0xbe96c42b	-0.2944654
33	0xbf0cb5e9	-0.5496507
34	0x3e0ae27e	0.13562962
35	0x3dc9be83	0.0985079
36	0xbf8b5c2f	-1.0887507
37	0xbf45a918	-0.7721114
38	0xbf0936b4	-0.53599095
39	0x3d98cb24	0.07460621
40	0xbd8e8e52	-0.06960739
41	0x3f279326	0.65458906
42	0x3f20fb2e	0.6288327
43	0x3d5cb0b4	0.053879455
44	0x3ee532d0	0.4476533
45	0xbec88fba	-0.39172155
46	0xbeb4c339	-0.35305193
47	0x3e0aef82	0.13567927
48	0x3e943f55	0.28954569
49	0xbed72d2d	-0.42026654
50	0xbd4afcba	-0.049557425
51	0x3ecdabda	0.40170175
52	0x3e8fabbf	0.2806072
53	0x3e1b7e21	0.15184833
54	0xbf2cebd2	-0.67547333
55	0xbdc1d660	-0.09464717
56	0xbf47c9c8	-0.7804227
57	0x3c8c61e8	0.01713653
58	0x3e92beea	0.2866128
59	0xbe2d433d	-0.1692018
60	0xbf833d55	-1.0253092
61	0xbed05541	-0.40690044
62	0x3edaa5bc	0.4270457
63	0xbe92c285	-0.28664032
64	0x3e3692bd	0.17829414
65	0xbed8d78e	-0.42351955
66	0xbe4b72e8	-0.19868052
67	0xbec0e35e	-0.37673467
68	0x3e61c430	0.22047496
69	0x3edacaf6	0.42732972
70	0x3d75966a	0.0599579
71	0x3eea2adb	0.4573582
72	0xbf3b9837	-0.73279136
73	0xbeb5d6a7	-0.3551533
74	0xbdbf34f1	-0.0933627
75	0x3f7b3b5f	0.9813747
76	0xbd919ebc	-0.07110354
77	0x3e2f0cce	0.17094728
78	0xbef2ceee	-0.474235
79	0x3dcb1089	0.09915263
80	0x3d8109ea	0.06300719
81	0xbe9ff044	-0.31237996
82	0x3ee9e899	0.4568527
83	0xbe51e08f	-0.20495819
84	0xbebef78b	-0.37298235
85	0xbe37040f	-0.17872642
86	0xbe5b56f7	-0.21419893
87	0xbee6b9bd	-0.45063582
88	0xbdf8bbaf	-0.12145173
89	0xbf142cac	-0.57880664
90	0x3f31a555	0.693929
91	0x3e26ae18	0.16277349
92	0xbd9479d8	-0.07249802
93	0xbee025c6	-0.4377882
94	0xbf43bec6	-0.7646297
95	0x3e133896	0.14377055
96	0xbf4fa657	-0.8111319
97	0xbe78482f	-0.24246286
98	0xbf899bf9	-1.0750724
99	0x3f270c51	0.6525317
100	0xbe35c46a	-0.17750707
101	0xbce9944d	-0.028513098
102	0x3ec3e86f	0.3826327
103	0x3f3d166a	0.73862326
104	0x3ed4d503	0.41568765
105	0xbf5c2ebc	-0.8600881
106	0x3e4fd675	0.20296653
107	0xbf993355	-1.196879
108	0xbed48ff2	-0.41516072
109	0x3e8143c7	0.25247023
110	0x3e3a7531	0.18208767
111	0x3f1b26df	0.6060619
112	0x3e8b0cff	0.27158353
113	0x3ebb13bb	0.3653849
114	0x3ed52b98	0.41634822
115	0x3ea68342	0.32522017
116	0x3f5effb4	0.8710892
117	0xbecf40fe	-0.40479273
118	0x3f0bd789	0.54625756
119	0xbdfd4da7	-0.12368327
120	0xbf101823	-0.5628683
121	0xbebbe05d	-0.36694613
122	0xbe96be95	-0.29442278
123	0x3d795db4	0.060880378
124	0xbe5565a4	-0.20839554
125	0x3f1e7457	0.6189627
126	0xbedfc72f	-0.43706653
127	0x3e1b87c3	0.15188508
128	0xbee4bd67	-0.44675753
129	0xbe8d63bf	-0.27615163
130	0x3f50aa6e	0.81510055
131	0xbe1dcee7	-0.15410958
132	0x3db180bd	0.08667133
133	0x3e832003	0.2561036
134	0x3f04c30d	0.51860124
135	0xbdb08661	-0.08619381
136	0x3e84ec43	0.25961503
137	0xbe90f08b	-0.2830852
138	0xbea88682	-0.3291512
139	0xbdf41a54	-0.11919084
140	0xbf77d0c9	-0.96802956
141	0x3e494191	0.19653918
142	0xbe58a0e0	-0.21155119
143	0x3e791a85	0.24326523
144	0xbdc41317	-0.095739536
145	0xbe9f8bc9	-0.31161335
146	0xbf7e6764	-0.9937651
147	0x3db99886	0.09062295
148	0x3d85b283	0.06528189
149	0x3e669b29	0.22520126
150	0x3d549b99	0.051906202
151	0x3e87803a	0.26465017
152	0xbeabd78a	-0.3356288
153	0xbd99f203	-0.07516863
154	0xbd2ca12f	-0.042145904
155	0xbc434a3b	-0.011919553
156	0x3b81a9a9	0.0039569926
157	0xbda889bb	-0.08229395
158	0xbdc6b83b	-0.09703108
159	0x3d889d62	0.066706434
160	0x3cc14a23	0.023594921
161	0xbe84be2a	-0.25926334
162	0xbeafb42d	-0.3431715
163	0x3ef329f4	0.47492945
164	0x3e74f6be	0.2392225
165	0x3e2abc02	0.16673282
166	0x3d8df71c	0.06931898
167	0x3e657811	0.22409083
168	0x3d059abc	0.03261827
169	0xbeaf407d	-0.34228888
170	0x3f271a51	0.6527453
171	0x3ea8d22f	0.32972857
172	0xbe001d29	-0.12511124
173	0xbd930b47	-0.07179885
174	0x3e19b6e4	0.15011173
175	0x3e378c74	0.17924672
176	0x3e072ad0	0.13199925
177	0xbdcb51ee	-0.09927736
178	0xbe39d6eb	-0.18148391
179	0x3ee0a294	0.43874037
180	0x3bf1f5fd	0.0073840604
181	0xbe9c35ee	-0.30509895
182	0xbe147fd4	-0.14501888
183	0x3f1bc381	0.6084519
184	0xbe7b36ea	-0.24532667
185	0xbdc4a4c1	-0.09601737
186	0x3e16f4f6	0.14741883
187	0xbe9b692a	-0.3035367
188	0xbe001ba5	-0.12510546
189	0xbbec655d	-0.007214232
190	0x3d1cd233	0.0382864
191	0x3d6d5c73	0.057949495
192	0x3cfdbfda	0.030975271
193	0xbcedd028	-0.02902992
194	0x3f5b083a	0.8555943
195	0xbf5e4aa1	-0.86832625
196	0x3e5a34ec	0.2130925
197	0xbe061014	-0.13092071
198	0xbe729554	-0.23689777
199	0xbe8d15ad	-0.275556
200	0xbf1a8704	-0.6036227
201	0x3efebd11	0.4975362
202	0xbd0276d8	-0.03185162
203	0x3e0a4bda	0.13505498
204	0xbf635e0d	-0.88815385
205	0x3e6323bf	0.22181605
206	0x3f1958a1	0.5990086
207	0x3e848c69	0.25888374
208	0xbce43c5b	-0.027860811
209	0xbcf76461	-0.030199232
210	0xbdc80c14	-0.09767929
211	0x3e8c14eb	0.2735971
212	0x3e34a7b9	0.17642106
213	0xbf0f76ad	-0.5604046
214	0x3eab359a	0.33439332
215	0x3e27d651	0.16390349
216	0xbe59bfea	-0.21264616
217	0x3d65e694	0.0561281
218	0xbdc5c2d5	-0.09656302
219	0x3e1daadd	0.1539721
220	0xbe7c4198	-0.24634397
221	0xbf837191	-1.0269033
222	0x3eb1ffea	0.3476556
223	0xbf0652b7	-0.5246996
224	0x3e5a10de	0.21295497
225	0x3e632d00	0.22185135
226	0xbe4d6d88	-0.20061314
227	0xbf23b0a1	-0.6394139
228	0x3e499bd1	0.19688345
229	0x3e0a9df9	0.13536824
230	0xbf13f115	-0.57789737
231	0x3f2977d9	0.661985
232	0xbf98a857	-1.1926373
233	0xbcdca5e5	-0.026934573
234	0xbe362ea2	-0.17791227
235	0x3dd944a5	0.10608796
236	0x3e5d9c59	0.21641673
237	0x3e4a8cab	0.19780223
238	0x3e302ff3	0.17205791
239	0xbc081fa8	-0.008308329
240	0x3e7e5fb4	0.24841195
241	0x3da2fd9f	0.07958531
242	0x3e09dfec	0.13464326
243	0xbf1338b4	-0.575084
244	0x3f51faea	0.8202349
245	0xbe15df36	-0.1463593
246	0xbf54446c	-0.82916903
247	0xbf0718d4	-0.5277226
248	0xbf496bce	-0.7868012
249	0xbcca3a89	-0.024686115
250	0xbef6cfdb	-0.48205456
251	0x3f3d7239	0.74002415
252	0x3e8e75df	0.27824304
253	0x3dc670d5	0.0968949
254	0xbec10066	-0.37695616
255	0x3dc1ce73	0.09463205

onnx::GRU_173 f4 [1, 384, 128]
0	0x3e94386f	0.28949305
1	0xbeb810d6	-0.35950345
2	0x3e5c16b7	0.2149304
3	0x3e2d1866	0.16903839
4	0x3eb7a628	0.35868955
5	0xbc74875d	-0.014924851
6	0x3ce768b2	0.028248165
7	0x3c6dc078	0.01451122
8	0xbe83b666	-0.25725096
9	0x3d0ae35c	0.033908233
10	0x3d7cfd3f	0.06176495
11	0x3c50361c	0.012708213
12	0xbf1a4d81	-0.6027451
13	0xbeb15300	-0.34633636
14	0x3e9af777	0.30266926
15	0x3f633807	0.88757366
16	0x3e8338c1	0.25629237
17	0xbacf62b9	-0.0015822268
18	0x3e8d8fb6	0.27648705
19	0x3f1665f4	0.5874932
20	0x3e8e6fdb	0.27819714
21	0x3e85ebb7	0.261564
22	0xbe18557c	-0.1487636
23	0x3e17c711	0.14822032
24	0xbe64932d	-0.22321768
25	0x3abdab02	0.001447052
26	0xbe1f4f41	-0.15557577
27	0x3d232190	0.03982693
28	0xbd2f595c	-0.04280983
29	0xbda75ec6	-0.081723735
30	0xbf10c5ba	-0.56551707
31	0x3f4de9e4	0.80435014
32	0x3f079d7c	0.5297468
33	0x3e8670ee	0.26258034
34	0xbe557ab9	-0.20847596
35	0x3f56a91b	0.83851784
36	0xbf1d14b7	-0.61359733
37	0x3f245e20	0.64206123
38	0xbe82cc00	-0.25546265
39	0xbf118a0e	-0.5685128
40	0xbdbf1907	-0.093309455
41	0x3f18fd13	0.5976116
42	0x3e564e29	0.20928253
43	0x3f51e1b6	0.8198503
44	0xbe992d44	-0.29917347
45	0xbe023a6c	-0.12717599
46	0x3e1ec192	0.15503529
47	0xbf16bf32	-0.5888549
48	0x3e2ae348	0.16688263
49	0x3e440fe8	0.19146693
50	0x3f2172c3	0.6306574
51	0xbe62dbda	-0.22154179
52	0x3e3998f5	0.18124755
53	0xbe9b61b4	-0.3034798
54	0x3ebe0809	0.37115505
55	0xbe320c4c	-0.17387503
56	0x3e98951c	0.2980126
57	0x3e5a2931	0.21304776
58	0x3ea1244f	0.31473014
59	0xbe7ce261	-0.24695732
60	0x3d815649	0.06315286
61	0x3f12142b	0.57062024
62	0x3f046de2	0.5173017
63	0xbe0a2916	-0.13492236
64	0x3ec44b0b	0.38338503
65	0xbe6097a7	-0.21932851
66	0x3c95d47c	0.018289797
67	0xbf19e56b	-0.6011569
68	0x3e5201e3	0.20508532
69	0xbdeac227	-0.11462813
70	0x3e98c329	0.29836395
71	0x3ea163b0	0.31521368
72	0x3e1629e7	0.14664422
73	0xbe2d5b0d	-0.16929264
74	0x3dc88b94	0.097922474
75	0xbe3f745d	-0.18696733
76	0xbf0062c0	-0.5015068
77	0xbec340ad	-0.3813528
78	0x3dc62332	0.09674682
79	0x3d88cc30	0.06679571
80	0xbe9795e7	-0.29606554
81	0xbe5bcb6a	-0.21464315
82	0xbd9a682b	-0.075394
83	0x3dda2a32	0.10652579
84	0x3f406362	0.75151646
85	0xbe69c090	-0.22827363
86	0x3f2698e1	0.65077025
87	0xbd743c0c	-0.059627578
88	0xbed57b5a	-0.41695672
89	0x3e67704f	0.22601436
90	0x3ea86f16	0.32897252
91	0x3e26f075	0.16302665
92	0xbe3c7fe6	-0.18408164
93	0x3da4c1bc	0.080447644
94	0x3f197055	0.5993703
95	0xbd883a83	-0.06651785
96	0x3e4a8c53	0.19780092
97	0xbe0be18f	-0.13660263
98	0x3e895647	0.26823637
99	0x3db8789c	0.090073794
100	0x3da02e5f	0.078213446
101	0xbe13d442	-0.14436439
102	0xbd07aa03	-0.03312112
103	0xbca241a4	-0.01980669
104	0xbf1818c4	-0.5941279
105	0x3e3b37e7	0.18283044
106	0x3f0b4366	0.54399717
107	0x3d3bf98d	0.045892287
108	0xbe870545	-0.26371208
109	0xbe888631	-0.2666488
110	0xbe8f4854	-0.2798487
111	0xbeeae67e	-0.45878977
112	0x3e322c4b	0.17399709
113	0x3d0865d7	0.033300247
114	0xbf30897e	-0.68959796
115	0xbee5ba87	-0.44868872
116	0x3e72f137	0.23724829
117	0xbc65779d	-0.014005569
118	0x3f030ecf	0.5119447
119	0x3e285b60	0.16441107
120	0x3f403ba8	0.7509103
121	0x3f2cc5d4	0.6748936
122	0x3f2a9e7a	0.66648066
123	0x3e288a18	0.16458929
124	0x3e9568a4	0.29181397
125	0xbedc97bf	-0.43084523
126	0x3de0b697	0.10972326
127	0xbed0fabb	-0.40816292
128	0x3f1cf46e	0.6131047
129	0xbf8551de	-1.0415609
130	0xbf3073a5	-0.6892646
131	0x3d0a83dc	0.033817157
132	0xbde57ced	-0.11205468
133	0xbd8b98ab	-0.068162285
134	0xbeb75a4f	-0.35811087
135	0x3ce3cdd2	0.027808104
136	0x3e031e97	0.12804638
137	0x3e818704	0.2529832
138	0x3d4e4a1d	0.05036365
139	0xbeb58e20	-0.35459995
140	0xbe4421c2	-0.19153503
141	0xbe27abf7	-0.16374193
142	0x3e156664	0.1458984
143	0xbe2a49bc	-0.1662969
144	0xbf1ef43a	-0.6209141
145	0xbe057d1c	-0.13036007
146	0x3dbca1df	0.09210562
147	0x3eba29de	0.36360067
148	0x3d5cbacd	0.053889085
149	0x3f2dcff5	0.6789544
150	0xbf28b5cd	-0.65902406
151	0xbe2777b7	-0.16354261
152	0x3da94bda	0.08266421
153	0xbe257af9	-0.16160192
154	0x3e7d88c5	0.24759205
155	0xbdd5d0aa	-0.1044019
156	0xbdd04b8f	-0.10170662
157	0x3e2d5b1a	0.16929284
158	0x3ef2be19	0.47410658
159	0xbe9b6858	-0.30353045
160	0x3b8e98ba	0.0043517025
161	0xbf206a32	-0.6266204
162	0xbf2b4ce2	-0.6691419
163	0xbf9258a7	-1.1433305
164	0x3dae3a39	0.08507199
165	0xbf40c223	-0.7529623
166	0xbe643767	-0.2228676
167	0x3ed0ee3d	0.4080676
168	0x3eb140c5	0.34619728
169	0xbdf5503f	-0.11978196
170	0xbe379cf5	-0.17930968
171	0xbedc9bf8	-0.43087745
172	0xbdd415e6	-0.10355739
173	0xbe348b29	-0.1763121
174	0x3ec50dcb	0.38487086
175	0xbf508edf	-0.81468004
176	0xbe464b8b	-0.19364755
177	0x3e39a43e	0.1812906
178	0xbe894827	-0.2681286
179	0x3e71a6af	0.23598741
180	0xbda2ac74	-0.07943049
181	0x3dd815c2	0.10551025
182	0x3e662268	0.22474062
183	0x3e240d20	0.16020632
184	0xbe278bbe	-0.16361901
185	0xbef2dd31	-0.4743438
186	0xbe945ab1	-0.28975442
187	0xbee622ba	-0.4494837
188	0xbee4f0f8	-0.44715095
189	0xbe989104	-0.29798138
190	0xbedf1ba3	-0.43575773
191	0xbd9dad27	-0.07699042
192	0x3ca01390	0.019540578
193	0x3f0ffbbf	0.5624351
194	0x3e02e776	0.12783608
195	0x3e8cc2dc	0.27492416
196	0xbf02f2d1	-0.5115176
197	0x3e6d4875	0.23172171
198	0x3d261f3d	0.040557135
199	0xbe568e57	-0.20952736
200	0xbd36b8a8	-0.044609696
201	0xbdfc6918	-0.123247325
202	0x3e87aa38	0.26497054
203	0xbea5e82f	-0.32403705
204	0x3dff0bcf	0.12453424
205	0x3dbf9c23	0.093559526
206	0xbf0c5634	-0.54819036
207	0x3eaaeaf8	0.33382392
208	0xbd3dde3e	-0.046354525
209	0xbe337014	-0.17523223
210	0x3f06ca72	0.5265266
211	0x3b218c89	0.0024650416
212	0xbd3316bc	-0.043722853
213	0x3dfa8aba	0.12233491
214	0xbf4c4e51	-0.79807
215	0xbf1722e6	-0.59037626
216	0x3df7eadf	0.12105345
217	0xbd044e63	-0.032301318
218	0x3db68947	0.08912902
219	0x3f04158d	0.51595384
220	0x3eb833eb	0.3597711
221	0x3f0b4486	0.54401433
222	0xbe951249	-0.29115513
223	0x3f5c3668	0.8602052
224	0xbe56f685	-0.20992477
225	0x3eafcba1	0.34335044
226	0xbd2124e3	-0.03934182
227	0x3e2a29cf	0.16617511
228	0x3e2921c8	0.16516793
229	0xbda4420a	-0.080204085
230	0xbe15a3b2	-0.14613226
231	0x3e6ca22b	0.23108737
232	0xbea2a0fc	-0.31763446
233	0xbeb99c78	-0.3625219
234	0x3e32e7ac	0.17471188
235	0x3db4d93c	0.08830497
236	0x3e3af990	0.18259263
237	0x3c17ddb8	0.00926917
238	0x3e1c0112	0.15234783
239	0x3e0b72e1	0.13618042
240	0x3f438602	0.76376355
241	0xbcf36012	-0.029708896
242	0x3eead387	0.45864508
243	0x3e16fb5c	0.14744323
244	0xbe8d9f62	-0.27660662
245	0x3d0db98e	0.034600787
246	0x3e276257	0.16346107
247	0x3da4d903	0.08049204
248	0x3e5e86e0	0.21731138
249	0x3d9e2341	0.07721568
250	0xbe0abf8c	-0.13549632
251	0x3f3d1525	0.7386039
252	0xbe7bbd64	-0.24583966
253	0x3e835d74	0.25657237
254	0x3eedba66	0.46431273
255	0x388e973b	6.7992565e-05

onnx::GRU_174 f4 [1, 768]
0	0xbeb46109	-0.35230282
1	0x3e5fb7fd	0.2184753
2	0xbe39efaa	-0.18157831
3	0x3e283256	0.16425452
4	0xbf0832e9	-0.5320268
5	0xbf3d0231	-0.7383147
6	0x3e9de279	0.30836847
7	0x3e38cd3c	0.1804704
8	0xbedc76df	-0.4305944
9	0xbcdd38dc	-0.027004652
10	0x3d155112	0.036454268
11	0xbe859325	-0.26088825
12	0x3e8ab5bb	0.27091774
13	0x3ec0b5a4	0.3763858
14	0xbc0da318	-0.008644842
15	0x3efeb0c4	0.49744236
16	0x3e8d8b90	0.2764554
17	0xbf781e8a	-0.969216
18	0x3f28799e	0.65810573
19	0xbef9b84d	-0.48773423
20	0xbedab3d2	-0.42715317
21	0x3d35b94d	0.04436617
22	0xbea5f772	-0.32415348
23	0x3e1ba564	0.1519981
24	0x3e92b304	0.28652203
25	0xbe71b011	-0.2360232
26	0xbdd688fb	-0.10475346
27	0xbd44dcb2	-0.048062034
28	0xbf223e0b	-0.6337592
29	0x3ec92dfb	0.39292893
30	0x3f01a33d	0.50639707
31	0x3e93e848	0.28888154
32	0xbed67149	-0.41883305
33	0xbe39327c	-0.18085665
34	0x3e8793b3	0.26479873
35	0x3f2b69f9	0.66958576
36	0x3de6b213	0.11264434
37	0x3e465d31	0.19371487
38	0x3ecfbb30	0.405725
39	0x3f365efc	0.71238685
40	0xbe41af41	-0.1891451
41	0x3f0a56a1	0.54038435
42	0x3e555201	0.20832063
43	0x3e50729e	0.20356223
44	0xbe8a0530	-0.26957083
45	0x3f2a7fe8	0.6660142
46	0x3f45c5c4	0.7725489
47	0x3e0d6e73	0.13811664
48	0xbdb37534	-0.08762589
49	0x3ec29a49	0.38008335
50	0x3f1f3ad7	0.6219916
51	0x3d6999d1	0.057031456
52	0x3e621d90	0.2208159
53	0xbf27ad2f	-0.6549863
54	0x3de5b734	0.11216584
55	0xbea8341b	-0.32852253
56	0x3ed76c8a	0.42074996
57	0x3e8d51d5	0.27601495
58	0x3e5ca8d6	0.21548781
59	0x3eb38f42	0.35070235
60	0xbf2bb1f4	-0.6706841
61	0xbda56c73	-0.08077326
62	0x3e06dc73	0.13170032
63	0x3dfa1683	0.12211325
64	0x3dc17a3b	0.09447142
65	0xbebc0d64	-0.36728966
66	0x3eb60c83	0.3555642
67	0xbe4d67e5	-0.20059164
68	0x3e803ee6	0.25047988
69	0x3b1744ed	0.0023081854
70	0xbf6b32c6	-0.9187435
71	0xbea2f632	-0.31828457
72	0x3e1e7bbe	0.15476891
73	0xbf01472e	-0.50499237
74	0x3e6c10e0	0.23053312
75	0x3e2d67f3	0.16934185
76	0x3ef1d723	0.4723445
77	0xbf8d3e89	-1.1034709
78	0xbf2e7cd4	-0.6815922
79	0xbf4b0e9e	-0.7931918
80	0xbf391cee	-0.7230977
81	0x3f011a89	0.50431114
82	0x3f14e038	0.5815463
83	0x3f09edca	0.5387846
84	0xbdcd1732	-0.1001419
85	0x3e3af8a5	0.18258913
86	0x3e9dd8eb	0.30829558
87	0x3ef01589	0.4689143
88	0x3f05c8ee	0.5225972
89	0x3f351048	0.7072797
90	0x3d363018	0.04447946
91	0xbf04fdb4	-0.5194962
92	0xbef5d251	-0.4801202
93	0x3dcbf7a4	0.09959343
94	0xbf0939c2	-0.53603756
95	0x3e90ef0f	0.28307387
96	0xbddcbd60	-0.10778308
97	0xbea70de1	-0.32627776
98	0x3f0ecd13	0.5578167
99	0xbf598fb3	-0.8498489
100	0xbee315bd	-0.44352522
101	0x3ec2e578	0.38065696
102	0xbe9e850f	-0.3096089
103	0x3e8d87d2	0.27642685
104	0x3f83b08c	1.0288253
105	0x3cb9c822	0.022678439
106	0xbf4cc782	-0.79991925
107	0xbeffed3f	-0.49985692
108	0x3ed38071	0.4130893
109	0x3de484dc	0.111581534
110	0x3eb59a32	0.35469204
111	0x3e25e446	0.1620036
112	0x3e3f09eb	0.18656127
113	0x3eb3b4b0	0.3509879
114	0x3e9069af	0.2820563
115	0x3e3dd0f2	0.18536738
116	0xbd963b94	-0.073355824
117	0xbee056ce	-0.43816227
118	0x3e408d68	0.18803942
119	0x3e75de30	0.24010539
120	0x3d0166cf	0.031592187
121	0x3d1e38fb	0.03862856
122	0x3eb4337c	0.3519553
123	0x3eea0d1f	0.45713136
124	0x3f0ee7e9	0.55822617
125	0x3ee817e5	0.4533073
126	0x3e77ef97	0.2421249
127	0x3edd6deb	0.43247923
128	0xbf0046a7	-0.50107807
129	0x3db6764b	0.08909281
130	0xbf4e722e	-0.80642974
131	0xbf3d059e	-0.73836696
132	0xbf16588e	-0.58728874
133	0xbd89f61d	-0.067363955
134	0xbe819b87	-0.2531397
135	0xbeb7e9f9	-0.35920694
136	0xbf8b2e6c	-1.0873542
137	0xbea0c326	-0.31398886
138	0xbe9b20fd	-0.30298606
139	0xbedcc8a2	-0.4312182
140	0xbe810975	-0.25202528
141	0xbb9ed606	-0.004847291
142	0xbf47976d	-0.7796543
143	0xbe8e26ae	-0.27763885
144	0xbea6701f	-0.32507417
145	0xbf2bc581	-0.6709824
146	0xbf1dfd29	-0.61714417
147	0xbf41b959	-0.75673443
148	0xbef39759	-0.47576407
149	0xbd526102	-0.051362045
150	0xbf14cc66	-0.5812439
151	0xbf1b2bc2	-0.60613644
152	0xbf22cbb6	-0.6359209
153	0xbe6a1c28	-0.22862303
154	0xbe8d8204	-0.27638257
155	0xbed29f7f	-0.4113731
156	0xbf1586de	-0.58408916
157	0xbf03fcb0	-0.51557446
158	0xbd8e9c7a	-0.06963439
159	0xbe92eb02	-0.28694922
160	0xbf9d1d4f	-1.2274569
161	0xbec3add5	-0.3821856
162	0xbf032612	-0.51229966
163	0xbd9fca52	-0.078022614
164	0xbf0965c8	-0.5367093
165	0xbf5c518d	-0.86061937
166	0xbf094c0b	-0.5363166
167	0xbf358ec5	-0.70920974
168	0xbbea348d	-0.007147378
169	0xbb0ea7fa	-0.0021767602
170	0xbe0741ea	-0.13208738
171	0xbf2b932c	-0.6702144
172	0xbf353d89	-0.7079702
173	0xbf33ccd1	-0.702344
174	0xbf06fa59	-0.5272575
175	0xbf1448cb	-0.57923573
176	0xbeb55bab	-0.354215
177	0x3d9c09da	0.076190665
178	0xbe0491d0	-0.12946248
179	0xbf28cfb8	-0.65941954
180	0xbe4a9bb0	-0.19785953
181	0xbf2e09f9	-0.6798397
182	0xbf218c99	-0.6310516
183	0xbf1ee38c	-0.6206596
184	0xbedfb832	-0.43695217
185	0xbef1e774	-0.47246897
186	0xbdc634d4	-0.09678045
187	0xbf044fd3	-0.516843
188	0xbea32c70	-0.3186984
189	0xbeeecbe1	-0.46639922
190	0xbdfcf924	-0.12352207
191	0xbe9284eb	-0.28617033
192	0xbf1f3af2	-0.6219932
193	0xbf2ad5f1	-0.667327
194	0xbe94f07c	-0.29089725
195	0xbf413660	-0.75473595
196	0xbf1456aa	-0.5794474
197	0xbf3601ff	-0.71096796
198	0xbe920508	-0.28519464
199	0xbf2942e1	-0.66117674
200	0xbf09da73	-0.5384895
201	0xbf2715d3	-0.65267676
202	0xbe40e13b	-0.18835919
203	0xbea7a56f	-0.32743403
204	0xbf225fb5	-0.6342729
205	0x3e109429	0.14119019
206	0xbf931e82	-1.1493685
207	0xbd954ab8	-0.07289642
208	0xbeac450c	-0.3364643
209	0xbe816a98	-0.25276637
210	0xbf126032	-0.5717803
211	0xbdd1d939	-0.1024651
212	0xbf163b66	-0.58684385
213	0xbef00a67	-0.46882936
214	0x3df19bc7	0.1179729
215	0xbebcf0f6	-0.3690259
216	0xbf29369a	-0.6609894
217	0xbf0e7da3	-0.55660456
218	0xbed840a1	-0.42236808
219	0xbf2ad4e7	-0.66731113
220	0xbec78f02	-0.38976294
221	0xbf66c932	-0.9015075
222	0xbf0e732e	-0.556445
223	0xbe05f175	-0.1308039
224	0xbe0dea5d	-0.13858934
225	0xbf10c0ab	-0.5654399
226	0xbe9b3205	-0.303116
227	0xbf886b95	-1.0657831
228	0xbf3b5054	-0.73169446
229	0xbe4dab2a	-0.20084825
230	0xbefe7180	-0.4969597
231	0xbed035cf	-0.40666053
232	0xbf0ff6b7	-0.5623583
233	0xbf17e701	-0.5933686
234	0xbe46047e	-0.19337651
235	0xbf93b278	-1.1538839
236	0xbedbf870	-0.4296298
237	0xbf1f2b3f	-0.62175363
238	0xbf48333a	-0.78203166
239	0xbec01800	-0.3751831
240	0xbef7bc5b	-0.4838589
241	0xbe4c5cc2	-0.1995726
242	0xbf27a8ed	-0.65492135
243	0xbeb2dc2f	-0.34933612
244	0xbf3e09ff	-0.74234
245	0xbf172985	-0.5904773
246	0xbf307aed	-0.6893757
247	0xbf43cd88	-0.7648549
248	0xbe9c79f6	-0.305618
249	0xbee8682a	-0.4539197
250	0xbed3b684	-0.41350186
251	0xbe7d7abd	-0.24753852
252	0xbdc150f0	-0.09439266
253	0xbf6b2e14	-0.91867185
254	0xbecbbcc6	-0.3979246
255	0xbe803209	-0.25038174

onnx::GRU_192 f4 [1, 384, 128]
0	0x3d6a20e9	0.05716029
1	0xbf375ca0	-0.7162571
2	0xbf4b2201	-0.7934876
3	0xbf1c589b	-0.610727
4	0xbf57ed50	-0.84346485
5	0xbe2d9869	-0.16952671
6	0x3e42fb77	0.19041239
7	0xbef18140	-0.47168922
8	0xbeb053dd	-0.34438983
9	0xbf2fccbe	-0.68671787
10	0x3fa6210f	1.2978839
11	0x3f1459b5	0.5794938
12	0x3e5c7164	0.2152763
13	0xbeece1c5	-0.46265998
14	0x3f2ecdb0	0.68282604
15	0x3eb9a1b4	0.36256182
16	0xbe2f7803	-0.17135625
17	0x3d966106	0.073427245
18	0xbe0f5509	-0.13997282
19	0x3f11fb65	0.5702422
20	0x3d8eed2f	0.06978833
21	0xbcbfade7	-0.023398353
22	0x3b7d2d17	0.0038631612
23	0xbecd5a40	-0.40107918
24	0xbe4a1620	-0.19735003
25	0x3ead7fcd	0.33886567
26	0x3d69cb7a	0.057078816
27	0xbe989515	-0.2980124
28	0x3eeb3921	0.45942023
29	0x3eb23e45	0.34813133
30	0xbe4839c1	-0.19553281
31	0xbc3f180c	-0.011663448
32	0x3f859eb4	1.0439057
33	0x3e5cb46d	0.21553202
34	0xbf0817d8	-0.5316138
35	0x3db98bd2	0.09059872
36	0x3e780c3b	0.24223416
37	0x3dabb447	0.083839945
38	0x3b875318	0.0041297786
39	0xbe08e275	-0.13367637
40	0xbdec2074	-0.115296274
41	0xbf485354	-0.7825215
42	0x3ece2bc7	0.40267774
43	0x3eff5d87	0.49876043
44	0xbf2c9c5d	-0.6742609
45	0x3d8fb44a	0.07016809
46	0x3cadd60f	0.021220235
47	0xbe2a83a6	-0.16651782
48	0x3f7dd054	0.9914601
49	0x3ea7a6a6	0.3274433
50	0x3daf9955	0.08574168
51	0xbe519b82	-0.20469478
52	0x3eb804e8	0.35941243
53	0xbebfaca5	-0.37436405
54	0x3db9db12	0.090749875
55	0x3cdae4ee	0.02672049
56	0x3ee56a57	0.44807693
57	0x3f4e587d	0.8060377
58	0x3aae9fa4	0.0013322723
59	0xbf2d8ea6	-0.6779579
60	0xbee2c525	-0.44291034
61	0xbf2ccf89	-0.67504174
62	0xbe6deba0	-0.23234415
63	0x3edea8a1	0.4348803
64	0xbe68b2de	-0.22724482
65	0xbe915b77	-0.28390095
66	0x3e45b607	0.19307719
67	0xbecc7493	-0.3993269
68	0xbefa9d65	-0.48948207
69	0x3e711fdd	0.23547311
70	0xbec3a341	-0.3821049
71	0x3ea4ba51	0.32173398
72	0x3f214bb2	0.63006127
73	0x3e680701	0.22658922
74	0x3f1f9488	0.62336016
75	0xbe11ad0b	-0.14226167
76	0x3ece680a	0.4031375
77	0x3e2df59d	0.16988225
78	0x3e7f3360	0.24921942
79	0xbe2d79c3	-0.1694098
80	0xbd2c1d0b	-0.042019885
81	0x3e0c12d6	0.1367906
82	0x3e30ac6f	0.17253278
83	0x3ee8af30	0.45446157
84	0xbcb16fac	-0.021659695
85	0x3e8f345a	0.2796963
86	0xbdca3372	-0.09873094
87	0xbf0d3e48	-0.5517316
88	0xbe7bde55	-0.24596532
89	0x3dd99370	0.106238246
90	0x3e35d2c6	0.17756185
91	0xbee52171	-0.44752076
92	0x3d699f99	0.05703697
93	0xbebd0429	-0.36917236
94	0x3d8fd712	0.07023443
95	0x3e5965ad	0.21230192
96	0x3e8fc5ef	0.280807
97	0xbf32b031	-0.69800097
98	0x3e887205	0.2664949
99	0xbec01051	-0.37512448
100	0x3f4ad5ab	0.7923228
101	0x3da8e871	0.0824746
102	0x3ddd2d56	0.10799663
103	0x3e3c2299	0.18372573
104	0x3d37b6c1	0.044852022
105	0xbeb3d414	-0.3512274
106	0xbe270301	-0.1630974
107	0xbf1cd684	-0.61264825
108	0xbea0db40	-0.31417274
109	0x3eb101a6	0.3457157
110	0x3d3a322c	0.045458004
111	0x3e585dfe	0.21129605
112	0x3caa65be	0.020800468
113	0xbe2aa36c	-0.16663903
114	0xbe9078ab	-0.28217062
115	0x3e7c5479	0.24641599
116	0x3e512988	0.20425999
117	0xbe57d455	-0.21077092
118	0xbeaa5509	-0.33268002
119	0xbf4705d5	-0.77743274
120	0xbd8a3cb1	-0.06749857
121	0x3e97ae2e	0.29625076
122	0x3f27f3db	0.6560647
123	0xbe114ed3	-0.14190225
124	0x3ed6437a	0.41848356
125	0x3ea23997	0.31684563
126	0x3ec3d8e3	0.3825141
127	0xbee3bf26	-0.44481772
128	0x3f273ad6	0.6532415
129	0x3deed5be	0.11661862
130	0x3f47b408	0.7800908
131	0x3ea22567	0.3166916
132	0xbf5041f9	-0.81350666
133	0xbf2f3132	-0.6843444
134	0xbed59739	-0.41716936
135	0x3f07caf0	0.53044033
136	0x3e791856	0.2432569
137	0x3e1fb350	0.15595746
138	0xbf103338	-0.56328154
139	0xbe230127	-0.15918408
140	0x3f03e194	0.5151608
141	0x3ede6e66	0.43443602
142	0xbef2fbc2	-0.474577
143	0xbf06a246	-0.5259136
144	0xbf08eb65	-0.53484184
145	0xbedb747e	-0.42862314
146	0xbeee4216	-0.46534795
147	0xbe03be5f	-0.1286559
148	0xbea6c157	-0.32569382
149	0x3e4778c0	0.19479656
150	0x3d31f9bc	0.043451056
151	0x3f0d4aa2	0.55192006
152	0xbe3c47d5	-0.18386777
153	0x3eb3bbdb	0.3510426
154	0x3dfde174	0.123965174
155	0x3ef993f7	0.487457
156	0x3f02dc83	0.51117724
157	0xbeab21a7	-0.33424112
158	0x3e2aaabc	0.16666692
159	0xbf17071a	-0.5899521
160	0x3e92c1db	0.28663525
161	0x3d594720	0.053046346
162	0x3c461cf4	0.012091864
163	0xbf0eedff	-0.55831903
164	0x3e82dc1d	0.25558558
165	0xbd630190	-0.055421412
166	0xbf370f23	-0.7150747
167	0x3ed19572	0.4093433
168	0x3ef24bd4	0.47323477
169	0x3d949677	0.072552614
170	0xbf07f587	-0.5310902
171	0xbf0f29eb	-0.55923337
172	0x3f04196d	0.51601297
173	0xbedfe31d	-0.4372796
174	0x3dbcfd40	0.09227991
175	0x3e20618e	0.15662214
176	0xbf329496	-0.69757974
177	0x3e5d507a	0.2161273
178	0xbdd4fa38	-0.10399288
179	0xbf72552f	-0.9466123
180	0x3f0aa006	0.54150426
181	0x3e1c6bb1	0.15275456
182	0x3f406cdc	0.75166106
183	0x3eb677df	0.3563833
184	0xbf0bbda1	-0.54586226
185	0xbe86e646	-0.2634756
186	0x3d95f6dd	0.07322476
187	0x3ee818f9	0.45331553
188	0x3bcd14b1	0.00625857
189	0xbf57f660	-0.84360313
190	0x3edfc3f2	0.43704182
191	0xbec2b580	-0.380291
192	0x3ec429cf	0.38313147
193	0x3e105b8f	0.14097427
194	0x3e82e315	0.25563875
195	0x3e82d0ee	0.25550026
196	0x3e69f68b	0.22847955
197	0x3f0c6643	0.5484354
198	0xbe87dd34	-0.26535952
199	0xbef3f7b3	-0.47649917
200	0xbf0e31ec	-0.55544925
201	0x3f26c651	0.65146357
202	0x3f6c9a1a	0.9242264
203	0xbf523a8d	-0.8212059
204	0xbb94db4c	-0.004542744
205	0x3e710946	0.23538694
206	0x3efdff20	0.49608707
207	0xbe2f0720	-0.17092562
208	0x3ea48ebb	0.32140145
209	0x3ecdb612	0.4017797
210	0x3e87d45f	0.26529214
211	0x3e8f331b	0.27968678
212	0xbee30476	-0.4433934
213	0x3ebb5455	0.36587778
214	0xbef3b4a6	-0.4759876
215	0x3e837dc8	0.256819
216	0xbe9194a3	-0.28433713
217	0xbe436646	-0.19081983
218	0x3eb384a9	0.3506215
219	0x3ba2a2ed	0.00496327
220	0x3db2ac05	0.08724216
221	0x3d988b79	0.07448477
222	0xbf22fdb1	-0.6366835
223	0x3ec29c29	0.38009766
224	0xbea86016	-0.32885808
225	0x3ef0b4ef	0.4701304
226	0x3f1cf87d	0.61316663
227	0xbeae3131	-0.34021905
228	0x3e04db34	0.12974244
229	0x3e642c68	0.22282565
230	0x3d95d5cf	0.073161714
231	0xbda6db6f	-0.081473224
232	0xbe26e985	-0.16300018
233	0xbd4ff0d5	-0.050766785
234	0xbd8119e3	-0.063037656
235	0x3ee0acfd	0.4388198
236	0xbcadf5b3	-0.021235323
237	0xbedeefec	-0.4354242
238	0x3ea93e65	0.33055416
239	0x3e4dd7e5	0.20101888
240	0x3d9bf6a6	0.07615404
241	0x3e271e7f	0.16320227
242	0x3ce498ba	0.027904857
243	0x3de5e58b	0.112254225
244	0x3ec745a7	0.38920328
245	0xbee89604	-0.45426953
246	0x3e730b99	0.23734893
247	0x3f233197	0.63747543
248	0xbeb035cf	-0.34416053
249	0xbf0cb4e6	-0.5496353
250	0xbdfa3e30	-0.122188926
251	0x3d694ae8	0.0569562
252	0xbea65ba7	-0.324918
253	0xbda18a84	-0.07887748
254	0xbe90c8d1	-0.2827821
255	0xbf0f8b61	-0.5607205

onnx::GRU_193 f4 [1, 384, 128]
0	0xbdb1f4fe	-0.08689307
1	0x3eb5be9b	0.35496983
2	0x3ed10f61	0.40832046
3	0x3ec3bfdd	0.38232318
4	0x3ee1fd43	0.44138536
5	0x3ddf9eff	0.10918998
6	0xbe57099e	-0.20999762
7	0xbf2164f8	-0.6304469
8	0xbc3f5414	-0.011677761
9	0x3e0b52d7	0.1360582
10	0xbe49b058	-0.19696176
11	0xbf626d04	-0.88447595
12	0xbe98c263	-0.29835805
13	0x3ec65976	0.38740128
14	0x3df9663e	0.12177704
15	0xbf00576c	-0.50133395
16	0xbeeaa565	-0.4582931
17	0xbd6b065a	-0.057379104
18	0x3d9db5c8	0.07700688
19	0x3ef777f9	0.4833372
20	0xbe5b2745	-0.21401699
21	0x3e3f51f4	0.18683606
22	0xbe0c9045	-0.1372691
23	0x3d0abf01	0.03387356
24	0x3d827e4b	0.06371745
25	0xbeb53958	-0.35395312
26	0x3e14d98e	0.14536116
27	0xbed78e96	-0.42100972
28	0xbe138acc	-0.14408416
29	0xbd87a095	-0.066224255
30	0x3d9cba10	0.07652676
31	0x3f2644f3	0.6494896
32	0xbdfaed7d	-0.122523285
33	0x3b11c0e8	0.0022240225
34	0x3d488f8a	0.048965015
35	0x3dec7c8b	0.11547192
36	0x3e86469f	0.26225755
37	0x3dc4ddb4	0.09612599
38	0xbf3aba96	-0.7294096
39	0xbec81476	-0.3907811
40	0xbef6f0cb	-0.48230585
41	0x3ef1d8fd	0.4723586
42	0xbe0329ea	-0.12808958
43	0x3e84951b	0.25895008
44	0x3dbd9f84	0.09258941
45	0x3e9cbc91	0.30612615
46	0xbe00b68c	-0.12569636
47	0xbed551e3	-0.41664037
48	0x3e4015c3	0.18758301
49	0x3eb2eeb2	0.34947735
50	0x3d846208	0.064640105
51	0x3c438df7	0.0119357025
52	0xbdca34cb	-0.09873351
53	0xbdb39416	-0.087684795
54	0x3e1a649f	0.15077446
55	0x3d70d499	0.0587965
56	0xbf11bbdf	-0.56927294
57	0xbea6b9a9	-0.32563522
58	0xbdb210c1	-0.08694602
59	0xbdd2c50e	-0.102914914
60	0x3ebffa6b	0.3749574
61	0xbec42052	-0.38305908
62	0xbe8e63fb	-0.27810654
63	0x3f24f151	0.6443072
64	0xbe18e890	-0.14932466
65	0x3f428fbd	0.7600058
66	0xbf0dc1fd	-0.5537413
67	0x3f2eecc4	0.68330026
68	0x3f23d332	0.63994133
69	0x3ec0a223	0.376237
70	0xbf4d80a2	-0.80274403
71	0xbc71ee68	-0.014766313
72	0x3f324401	0.69635016
73	0x3e887990	0.26655245
74	0x3d06dbca	0.03292445
75	0x3e1a86f2	0.1509054
76	0x3e9a024d	0.3007988
77	0x3f739df7	0.9516291
78	0x3ddecc28	0.108787835
79	0x3d0b2879	0.033974145
80	0x3ea60b58	0.3243053
81	0xbdc0e4ae	-0.09418617
82	0x3e67488e	0.22586271
83	0xbeb848ab	-0.3599294
84	0xbed36668	-0.41289067
85	0xbf452869	-0.77014786
86	0x3e353776	0.17696938
87	0xbea666b6	-0.32500237
88	0x3d084f4b	0.033278745
89	0x3e5f6513	0.218159
90	0xbf08aee1	-0.53391844
91	0xbf1e622f	-0.61868566
92	0xbc38d38b	-0.0112809045
93	0x3dccad08	0.099939406
94	0x3db73119	0.089449115
95	0x3ecc29fb	0.3987578
96	0xbec061e1	-0.37574676
97	0xbe655ca0	-0.22398615
98	0x3e005d19	0.12535514
99	0xbe6da087	-0.23205768
100	0x3df4124d	0.11917553
101	0xbd3408cc	-0.0439537
102	0xbd95e165	-0.07318381
103	0x3f2eb004	0.6823733
104	0xbf02cfb7	-0.510982
105	0x3ecd1d90	0.40061617
106	0x3dd31c7c	0.10308167
107	0xbd1d92c8	-0.03847006
108	0x3ee6de0a	0.45091277
109	0xbb77a847	-0.003778951
110	0xbebfc625	-0.3745586
111	0x3f0862cd	0.5327576
112	0xbe5c102d	-0.21490546
113	0xbe9e00dd	-0.30860034
114	0x3f17317d	0.5905989
115	0xbd85bfa1	-0.06530691
116	0xbce8ebe6	-0.028432798
117	0x3e493f51	0.1965306
118	0x3d186f5d	0.03721558
119	0x3b2182cd	0.0024644614
120	0xbede439e	-0.43410963
121	0x3e0f9a07	0.140236
122	0xbe49a276	-0.1969088
123	0x3e12e08e	0.14343473
124	0x3df5a932	0.11995162
125	0x3ef171e3	0.471572
126	0xbe94a027	-0.29028437
127	0x3e7e6ffe	0.24847409
128	0xbdb17859	-0.086655326
129	0x3e79d9f0	0.24399543
130	0xbf3d3426	-0.739077
131	0xba464af0	-0.0007564267
132	0xbf26594e	-0.6498002
133	0xbe08860c	-0.13332385
134	0x3d88301a	0.066498
135	0xbda830ce	-0.08212434
136	0x3f04554f	0.5169267
137	0xbe59551c	-0.21223873
138	0xbed99c34	-0.42501986
139	0x3e5ac442	0.21363929
140	0x3f16f250	0.5896349
141	0xbe97c422	-0.29641825
142	0x3cb2389b	0.021755507
143	0x3e63cb99	0.22245635
144	0x3e1c6742	0.15273765
145	0x3e984e27	0.29747126
146	0x3e94ec75	0.29086652
147	0xbecacfbb	-0.3961161
148	0x3e390521	0.18068363
149	0xbdec397f	-0.11534404
150	0xbed03474	-0.4066502
151	0x3e04db0b	0.12974183
152	0xbd824b51	-0.06362022
153	0x3ece92e2	0.40346438
154	0xbe12bac3	-0.14329056
155	0xbf0d7fd4	-0.55273175
156	0xbe855620	-0.2604227
157	0xbf0dc5a6	-0.5537971
158	0xbdca7763	-0.098860525
159	0x3e45d3c1	0.19319059
160	0xbcf2178b	-0.029552242
161	0xbd33d4dd	-0.043904174
162	0xbf192825	-0.5982688
163	0x3d7a06aa	0.06104151
164	0xbe7a8c80	-0.24467659
165	0x3f56952d	0.83821374
166	0xbd2325af	-0.03983086
167	0xbe9f964d	-0.31169358
168	0x3de23aaf	0.11046349
169	0xbef977c9	-0.487242
170	0x3efa13c6	0.4884321
171	0x3e2e96b7	0.1704968
172	0xbd156c8d	-0.036480475
173	0x3c8d302f	0.01723489
174	0xbeb2c24d	-0.34913865
175	0xbe383b8a	-0.17991462
176	0xbe333195	-0.17499383
177	0xbe2a2466	-0.16615447
178	0x3e13bf57	0.14428459
179	0xbdbc6016	-0.091980144
180	0x3e8de528	0.27713895
181	0x3e0d0144	0.13770014
182	0xbe885bbd	-0.2663249
183	0x3f356cb6	0.70869005
184	0x3eb4a48e	0.35281795
185	0xbededd73	-0.43528327
186	0x3f2035d6	0.6258215
187	0x3cb4bea0	0.022063553
188	0x3ef53da5	0.47898594
189	0xbea866fb	-0.32891068
190	0xbeed72cb	-0.46376643
191	0x3e2d1e6b	0.16906135
192	0x3ef71b08	0.4826281
193	0xbebb1d0d	-0.365456
194	0x3eb112cc	0.34584653
195	0x3e5705be	0.20998284
196	0x3e9154cd	0.2838501
197	0x3e27e081	0.16394235
198	0x3f15d402	0.58526623
199	0xbe671237	-0.22565542
200	0xbcb22a18	-0.021748587
201	0xbf409eb3	-0.75242156
202	0xbedf9e6b	-0.4367555
203	0xbe994256	-0.29933423
204	0x3e62addc	0.22136635
205	0xbde28a06	-0.11061482
206	0x3f05e486	0.52301824
207	0x3f232334	0.6372559
208	0x3d5684b3	0.052372646
209	0xbf8d5b46	-1.104348
210	0xbdf5e19e	-0.12005924
211	0x3bba2cc3	0.0056816055
212	0x3e9203d4	0.28518546
213	0xbeacd811	-0.33758596
214	0xbf0fc0a2	-0.5615331
215	0xbe2d693d	-0.16934676
216	0x3e47e620	0.1952138
217	0x3e704425	0.23463495
218	0x3e30a7c2	0.17251495
219	0x3def230e	0.11676608
220	0x3ebdbe42	0.37059218
221	0xbe9a250d	-0.30106393
222	0x3eeb8d5e	0.46006292
223	0xbe700672	-0.23439959
224	0x3c94e463	0.01817531
225	0xbe02e1b7	-0.12781416
226	0xbe714eae	-0.2356517
227	0xbdbdc4aa	-0.09266026
228	0x3dec86a7	0.115491204
229	0xbf21a92d	-0.63148767
230	0x3ec27378	0.3797872
231	0x3e83630f	0.25661513
232	0x3e25ee00	0.16204071
233	0xbf253c33	-0.6454498
234	0xbd0564de	-0.032566898
235	0xbdc4d60a	-0.09611137
236	0xbe933629	-0.28752258
237	0xbd11a342	-0.035556085
238	0x3c2aab51	0.010416822
239	0xbefab77b	-0.4896811
240	0xbf3ce1de	-0.73782146
241	0xbea46f3d	-0.32116118
242	0x3db98b51	0.090597756
243	0xbf844b00	-1.0335388
244	0xbe83b8ee	-0.25727028
245	0x3e37cc75	0.17949088
246	0x3d5a293f	0.05326199
247	0xbec07f6a	-0.3759721
248	0xbe7946c0	-0.24343395
249	0x3ee2d935	0.4430634
250	0x3ed54afc	0.4165877
251	0xbebd4c54	-0.36972296
252	0x3e20bf38	0.15697944
253	0x3e66c109	0.22534575
254	0xbf489de2	-0.7836591
255	0x3eb3711c	0.35047233

onnx::GRU_194 f4 [1, 768]
0	0x3e0be003	0.13659672
1	0x3f6f89ca	0.93569624
2	0x3ecc1a62	0.39863878
3	0xbed3963b	-0.41325554
4	0xbe471fe9	-0.19445767
5	0x3ebf4ffa	0.37365705
6	0x3f079648	0.52963686
7	0x3ed8438d	0.42239037
8	0x3ed5526a	0.4166444
9	0x3edaa6e4	0.42705452
10	0x3ec78324	0.3896724
11	0x3f4bb04c	0.7956588
12	0x3f4fd4b3	0.8118393
13	0xbe2c8458	-0.1684736
14	0x3f24c28f	0.6435937
15	0x3f5805c8	0.8438382
16	0xbb1db01d	-0.002406127
17	0x3f633986	0.8875965
18	0x3fbdd412	1.4830344
19	0x3dd87307	0.10568815
20	0x3e32737a	0.17426863
21	0xbc5d8c1a	-0.013522172
22	0x3c8d9d65	0.017286966
23	0x3d170081	0.036865715
24	0x3d3473d8	0.04405579
25	0x3f02f320	0.5115223
26	0xbdccd455	-0.100014366
27	0x3f2e5f73	0.68114394
28	0x3f2f19a9	0.6839853
29	0x3f0ae60d	0.5425728
30	0x3eddd9ee	0.4333033
31	0x3e81d334	0.25356448
32	0x3f2abe8f	0.6669702
33	0x3f94c91d	1.1623875
34	0xbdc53931	-0.09630049
35	0x3f4a065e	0.78915966
36	0x3f2919a3	0.66054744
37	0x3e8ae7bc	0.27129924
38	0xbf1d2b7b	-0.6139447
39	0x3ec4511e	0.38343138
40	0x3e938fb2	0.28820568
41	0x3c857126	0.016289305
42	0x3f62f19b	0.8864991
43	0x3e434737	0.19070135
44	0x3ed252ec	0.4107889
45	0x3eb87cf2	0.36032826
46	0xbea50c94	-0.3223616
47	0x3f4156b4	0.75522923
48	0x3ec69453	0.38785037
49	0x3fa1a097	1.2627133
50	0x3e6080cc	0.21924132
51	0xbd230d37	-0.039807525
52	0xbecde8cf	-0.4021668
53	0x3eefa62b	0.46806464
54	0x3e3b9af1	0.18320824
55	0x3ebcd72b	0.3688291
56	0xbc4fe0fa	-0.012687916
57	0x3ef50720	0.47856998
58	0x3f39834e	0.7246598
59	0x3db6456f	0.08899962
60	0xbc575638	-0.013143115
61	0xbe529e5c	-0.20568222
62	0x3f0579f1	0.5213919
63	0xbe0d162f	-0.13777994
64	0x3e03a92a	0.128575
65	0x3ef23a84	0.4731027
66	0x3f43e189	0.76516014
67	0x3f3bfba7	0.73430866
68	0xbe2d47c1	-0.16921903
69	0x3e610111	0.21973063
70	0x3f4708cb	0.7774779
71	0x3eaa9307	0.33315298
72	0xbf1cba9b	-0.6122224
73	0x3e8c21cb	0.27369532
74	0x3f0e01fe	0.5547179
75	0xbe5d351a	-0.21602288
76	0x3eb2c5ee	0.34916633
77	0x3de06453	0.10956635
78	0xbec844fe	-0.39115137
79	0x3e0f4724	0.13991982
80	0x3ef0b184	0.47010434
81	0x3e84ba2c	0.25923288
82	0x3ea30f0c	0.31847417
83	0x3f023679	0.5086437
84	0xbe7b4066	-0.24536285
85	0x3ee5e062	0.44897753
86	0x3ef20d8e	0.47275966
87	0x3ea96c58	0.33090472
88	0x3ef7deb7	0.48412105
89	0x3f211a04	0.6293032
90	0x3e2cceff	0.16875838
91	0x3e224b90	0.15849137
92	0x3eab2ec9	0.33434132
93	0x3f3e8e2d	0.74435693
94	0x3f4c489d	0.797983
95	0x3e59da07	0.21274577
96	0x3ea1df05	0.31615463
97	0x3f681d1b	0.9066941
98	0x3f5f2c1a	0.8717667
99	0x3f32054f	0.6953935
100	0x3eebf36f	0.46084163
101	0x3cb13cc1	0.021635415
102	0x3e7eff07	0.24901973
103	0xbe850208	-0.25978112
104	0x3dc9fdeb	0.09862884
105	0x3f0a3a7e	0.539955
106	0x3c5b4bda	0.013384784
107	0x3e3e40c6	0.18579397
108	0x3efbe061	0.49194625
109	0x3d707660	0.05870664
110	0x3f0e0d37	0.55488914
111	0x3f087f56	0.533193
112	0x3e9adad1	0.3024507
113	0x3da03897	0.07823294
114	0xbe7a0eff	-0.24419783
115	0x3f427aff	0.7596893
116	0x3db35cd0	0.08757937
117	0x3eba40ce	0.36377567
118	0x3ebe57eb	0.3717645
119	0x3f5baed3	0.85813636
120	0x3edbebb4	0.42953265
121	0x3f380aba	0.7189137
122	0x3edc3f30	0.43016958
123	0x3f5b6eb6	0.85715806
124	0x3e613da7	0.21996175
125	0x3e6a2706	0.22866449
126	0x3ed495f9	0.4152067
127	0xbeaeb1ac	-0.34119928
128	0x3e45c438	0.19313133
129	0xbdf5f294	-0.12009159
130	0xbf0f2199	-0.5591064
131	0x3e959dbb	0.292219
132	0x3e1198f1	0.14218499
133	0xbe01efa6	-0.12689075
134	0xbf12285d	-0.5709284
135	0x3e138786	0.14407167
136	0xbe561142	-0.20905021
137	0xbe44be2e	-0.19213173
138	0x3d9cb6ad	0.0765203
139	0xbef4799e	-0.47749037
140	0x3dfb7a4b	0.12279185
141	0x3e06219e	0.13098761
142	0xbe891a41	-0.26777843
143	0xbf02800e	-0.50976646
144	0xbe6be560	-0.23036718
145	0xbdccfae8	-0.10008794
146	0xbe932471	-0.2873874
147	0xbec3af28	-0.3821957
148	0xbec37127	-0.38172266
149	0xbe8ff885	-0.28119293
150	0x3d906c15	0.07051865
151	0x3e66fe01	0.22557832
152	0xbc403cc9	-0.011733242
153	0xbe553963	-0.20822673
154	0x3d950d46	0.07277922
155	0xbea2f14a	-0.31824714
156	0xbf3fea50	-0.7496691
157	0xbed6ec49	-0.41977146
158	0x3dcb226a	0.09918673
159	0xbd8b1f98	-0.067931354
160	0xbe08e302	-0.13367847
161	0xbe866734	-0.26250613
162	0xbe54ad6f	-0.20769285
163	0xbf163619	-0.58676296
164	0xbf38883b	-0.7208287
165	0x3bb0399b	0.005377961
166	0x3da8b481	0.082375534
167	0xbeb906c2	-0.36137968
168	0x3deda391	0.116034634
169	0x3e81dd5d	0.253642
170	0x3d127a37	0.035761084
171	0x3dd81e10	0.10552609
172	0x3c363e3c	0.011123236
173	0xbe8b0acd	-0.27156678
174	0x3d1cfb82	0.038325794
175	0xbe834ee8	-0.25646138
176	0xbcd378fd	-0.025814528
177	0xbeb231e3	-0.34803686
178	0x3e1c5c42	0.15269569
179	0xbcd1b068	-0.025596812
180	0x3bf6d65b	0.0075328774
181	0x3bfb1ff1	0.00766372
182	0xbf1389ce	-0.5763215
183	0xbe4c9f95	-0.1998275
184	0xbc76bbac	-0.015059393
185	0x3e1c8aac	0.15287274
186	0x3e854163	0.2602645
187	0x3d64825c	0.055788383
188	0x3c4fae58	0.012675844
189	0xbeb30312	-0.3496328
190	0xbdcbefba	-0.099578336
191	0xbd47714f	-0.048692044
192	0xbd3667eb	-0.044532698
193	0xbd5669e9	-0.052347098
194	0xbf1579cf	-0.5838899
195	0x3ea4b82e	0.32171768
196	0xbe8b92c0	-0.272604
197	0xbe84de57	-0.25950882
198	0xbd8c51f7	-0.06851571
199	0xbe60289a	-0.21890488
200	0xbe803a8a	-0.25044662
201	0x3ef3e4b1	0.47635415
202	0xbe798a1f	-0.24369095
203	0xbe259d4e	-0.16173288
204	0x3cdff48a	0.027338285
205	0xbe09e448	-0.13465989
206	0x3eada737	0.33916637
207	0xbde00709	-0.10938842
208	0xbf16884b	-0.58801717
209	0x3d6945ae	0.056951217
210	0xbc2e9c46	-0.010657376
211	0xbed0ad91	-0.4075742
212	0xbea0b25b	-0.31386074
213	0xbe85621a	-0.26051408
214	0xbe4bf088	-0.19915974
215	0xbee37345	-0.4442388
216	0xbe5146cb	-0.20437162
217	0xbec509a2	-0.38483912
218	0xbe564082	-0.20923045
219	0xbea5c523	-0.32376966
220	0xbd88ae0b	-0.06673821
221	0xbf02397d	-0.5086897
222	0xbee6a6e1	-0.45049194
223	0xbbaf4cd8	-0.0053497367
224	0xbe1b6fb9	-0.15179338
225	0xbe723d63	-0.2365623
226	0xbf19d065	-0.6008361
227	0xbf247873	-0.6424629
228	0x3d787caf	0.060665783
229	0xbda3e366	-0.08002357
230	0xbf2eca69	-0.68277603
231	0x3d5082c9	0.050905976
232	0x3dc07314	0.093969494
233	0xbef8d80b	-0.48602328
234	0x3b953e55	0.0045545497
235	0xbe0ebb85	-0.1393872
236	0xbdbcc0db	-0.09216472
237	0xbd665bb5	-0.056239802
238	0xbd8cb884	-0.06871131
239	0xbeb12ed1	-0.3460603
240	0xbe5d90af	-0.21637224
241	0xbd968441	-0.07349444
242	0x3cf2871e	0.029605445
243	0x3e606e5d	0.219171
244	0x3da6190f	0.08110248
245	0xbdeca257	-0.11554401
246	0x3e83a322	0.25710398
247	0xbec12f3b	-0.37731346
248	0xbe3e431e	-0.1858029
249	0xbe079caa	-0.13243356
250	0xbe7a1e59	-0.24425639
251	0x3eb72c84	0.3577615
252	0x3e33d121	0.17560245
253	0xbe624cdf	-0.22099636
254	0xbe30e8be	-0.17276284
255	0xbe6d9436	-0.23201069
